Assets/ML-Agents/GoToTarget.onnx (onnx, 75608 bytes, 8 tensors)

network_body._body_endoder.seq_layers.0.weight f4 [128, 6]
-0.05279545 -0.66365063 -0.12572688 -0.15600507 -0.5405284 0.059772257 0.16825654 -0.37995243
0.008739317 -0.55572474 -0.8605263 0.27315363 -0.21752112 -0.60035414 0.44224405 -0.5571886
0.49406058 0.40509966 -0.11058327 -0.21342653 -0.21058384 -0.2700593 0.19379455 -0.16314195
-0.5726668 0.03483606 0.07478012 -0.5591525 0.01761421 -0.4807495 0.64334846 -0.6303769
0.3529105 0.008008946 -0.71735615 -0.42259428 0.32820606 0.51711893 -0.11529027 -0.22114217
-0.0444628 -0.4940684 0.3289466 -0.13323092 -0.5538647 0.060927194 -0.017361125 0.0073165405
-0.31786445 -0.51611567 -0.43368235 0.09848244 0.4503369 0.00025219814 -0.41117725 0.47949773
-0.68809307 -0.027079329 0.68940914 -0.09247403 -0.15840825 -0.21446551 -0.21179989 -0.09133988
0.73649687 0.17296268 0.060324088 0.3816599 0.20392382 -0.35619563 -0.2744228 0.42616954
0.4868621 -0.00941354 -0.20032546 0.06007921 -0.010852124 0.10169535 -0.4887754 -0.18176734
-0.24829033 -0.024255056 0.042293727 0.7083874 0.22774269 0.089509465 0.1834876 0.6584257
0.3499071 -0.45343965 0.20164935 -0.098073386 0.13365588 -0.8489998 0.70688117 0.45713705
0.14196786 0.06421703 -0.34650436 -0.5943963 0.24602383 -0.28626102 0.22981167 0.16179761
-0.16959476 0.24853158 -0.5391788 -0.1207346 -0.06513678 -0.2862566 0.24447487 -0.36243445
-0.098985866 -0.42354324 0.52046514 -0.65512395 -0.008855804 0.12990421 -0.10619152 -0.71720046
-0.27724174 0.017672779 0.5285297 0.173887 0.161933 0.1997081 0.1683229 0.20910048
-0.0058745253 0.32012495 0.4829016 0.058417402 -0.33458316 -0.7474389 -0.16356577 0.6635215
0.11253137 0.25941303 -0.6171114 0.0048608393 -0.055457264 0.32422173 -0.14561501 -0.44601792
0.6446387 -0.4631877 0.26047125 0.59843516 0.3000749 -0.15915777 0.20495468 -0.54900897
-0.16945066 0.019123761 0.82653654 -0.18463819 -0.37713102 -0.3275001 -0.24634008 -0.97724926
0.6424979 -0.9909309 0.097108185 -0.118737206 0.66525245 -0.5240274 -0.27143595 -0.1323155
-0.1355283 -0.28171745 -0.20217103 0.15313973 0.40779865 0.34333268 -0.68301123 0.13509916
-0.5259088 -1.2697247 -0.63450986 0.5593044 0.71455413 0.4153516 0.021875845 0.18211025
0.9016409 0.2964488 0.2042775 -0.02733384 -0.48112032 0.11415705 -0.28036827 -0.098273255
-0.66022944 -0.5239606 0.045530457 -0.5669437 0.40293416 0.095239766 -0.331003 -0.6905076
-0.1976452 -1.0578067 -0.60000443 0.014741025 -0.19102694 -0.12656054 -0.42020527 -0.1900199
-0.20856793 0.32839113 -0.29492906 0.29413685 -0.26870596 0.3811575 0.22715767 -0.17627451
0.48037127 0.73624057 -0.29556903 0.21998502 0.055504236 0.135569 0.3418109 0.014965143
0.11375802 0.20020857 0.55493003 0.25695038 0.48127216 -0.008903363 0.06548722 0.12101699
-0.034294534 -0.1738435 -0.31500435 0.12921476 0.3591813 -0.29614437 0.13792115 -0.37286773
-1.0490586 0.10432424 -0.10872193 -0.30981985 0.33833483 -0.269986 0.4932292 -0.04829988
-0.24815595 0.59261763 0.119138114 0.8258882 0.44826767 -0.3480964 -0.14237693 -0.33197114
00000000: 0b40 58bd 02e5 29bf 8cbe 00be cbbf 1fbe
00000010: 1260 0abf c1d3 743d 714b 2c3e 2089 c2be
00000020: 5a2f 0f3c fa43 0ebf 744b 5cbf cbda 8b3e
00000030: dbbd 5ebe cfb0 19bf d06d e23e e9a3 0ebf
00000040: 82f5 fc3e 3969 cf3e 7b79 e2bd 7c8c 5abe
00000050: 4aa3 57be 3645 8abe 1472 463e af0e 27be
00000060: 4b9a 12bf 42b0 0e3d 5226 993d 9e24 0fbf
00000070: ad4b 903c cc24 f6be 7cb2 243f 6160 21bf
00000080: afb0 b43e f437 033c a7a4 37bf 475e d8be
00000090: a00a a83e e861 043f 4e1d ecbd 1873 62be
000000a0: a01e 36bd 89f6 fcbe b06b a83e b06d 08be
000000b0: 14ca 0dbf cb8e 793d eb38 8ebc 97bf ef3b
000000c0: 21bf a2be 2820 04bf 9d0b debe 29b1 c93d
000000d0: 8f92 e63e 7639 8439 d385 d2be ba80 f53e
000000e0: de26 30bf 78d5 ddbc 1e7d 303f 0663 bdbd
000000f0: c635 22be d99c 5bbe 12e2 58be 6710 bbbd
00000100: 0f8b 3c3f 211d 313e 6416 773d ed68 c33e
00000110: 68d1 503e 465f b6be 2581 8cbe e532 da3e
00000120: fd45 f93e 403b 1abc 1e22 4dbe 9e15 763d
00000130: 1bcd 31bc a745 d03d c540 fabe 3821 3abe
00000140: d23f 7ebe 8ab2 c6bc 303c 2d3d e058 353f
00000150: 6135 693e bd50 b73d 2ce4 3b3e 968e 283f
00000160: 0627 b33e 3e29 e8be 2b7d 4e3e b3da c8bd
00000170: 16dd 083e 0d58 59bf 2af6 343f de0d ea3e
00000180: 0660 113e 3884 833d 0569 b1be 5b2a 18bf
00000190: aced 7b3e ce90 92be c053 6b3e 46ae 253e
000001a0: 40aa 2dbe 107f 7e3e 9f07 0abf b443 f7bd
000001b0: 6f66 85bd 3a90 92be 9f57 7a3e 0291 b9be
000001c0: 1ab9 cabd a9da d8be 343d 053f 34b6 27bf
000001d0: ef17 11bc 9c05 053e f17a d9bd 739a 37bf
000001e0: a1f2 8dbe 81c6 903c b94d 073f 6f0f 323e
000001f0: c4d1 253e 4880 4c3e d75c 2c3e 701e 563e
00000200: 177f c0bb 6be7 a33e e13e f73e 1647 6f3d
00000210: 7c4e abbe 2858 3fbf c97d 27be 8cdc 293f
00000220: d976 e63d c9d1 843e 03fb 1dbf ad47 9f3b
00000230: 2827 63bd 6400 a63e 1a1c 15be 765c e4be
00000240: 0b07 253f f026 edbe 7d5c 853e 0c33 193f
00000250: 6ba3 993e 41fa 22be a4df 513e da8b 0cbf
00000260: 7984 2dbe 6fa9 9c3c e697 533f cb11 3dbe
00000270: 5117 c1be 18ae a7be 9340 7cbe 022d 7abf
00000280: be7a 243f a6ad 7dbf a8e0 c63d 7e2c f3bd
00000290: fc4d 2a3f a926 06bf a7f9 8abe b77d 07be
000002a0: eec7 0abe 453d 90be ec05 4fbe a9d0 1c3e
000002b0: fcca d03e 4dc9 af3e d3d9 2ebf 6f57 0a3e
000002c0: f6a1 06bf 5786 a2bf 3d6f 22bf 932e 0f3f
000002d0: 05ed 363f f7a8 d43e f934 b33c 1c7b 3a3e
000002e0: f0d1 663f 23c8 973e 1f2e 513e 38eb dfbc
000002f0: 6755 f6be 2ccb e93d 6e8c 8fbe 7d43 c9bd
00000300: cc04 29bf 4822 06bf 257e 3a3d 3923 11bf
00000310: 634d ce3e 110d c33d 3a79 a9be 1bc5 30bf
00000320: 8163 4abe 3666 87bf e499 19bf 5784 713c
00000330: 919c 43be 1699 01be 2525 d7be 9494 42be
00000340: d592 55be e222 a83e f100 97be 1b99 963e
00000350: d493 89be 1327 c33e 059c 683e 4e81 34be
00000360: 39f3 f53e 437a 3c3f d354 97be c143 613e
00000370: 6958 633d 9ad2 0a3e d701 af3e 5c30 753c
00000380: f7f9 e83d 7a03 4d3e e50f 0e3f 008f 833e
00000390: 4e69 f63e 69df 11bc 2a1e 863d c1d7 f73d
000003a0: 6d78 0cbd 0804 32be 4048 a1be e050 043e
000003b0: 9de6 b73e 3ca0 97be 343b 0d3e 85e8 bebe
000003c0: 8d47 86bf f2a7 d53d 9aa9 debd b5a0 9ebe
000003d0: 393a ad3e 9b3b 8abe 8a88 fc3e 18d6 45bd
000003e0: 981c 7ebe cab5 173f affe f33d 696d 533f
000003f0: 5783 e53e b139 b2be 42cb 11be 1ff8 a9be

network_body._body_endoder.seq_layers.0.bias f4 [128]
-0.06421612 0.011353995 0.071235254 -0.03254411 0.018857019 0.09479949 0.006379336 -0.03673463
0.11664012 0.10440529 -0.0038509553 0.014537564 -0.03309054 0.04916537 0.026435273 0.058539987
-0.0933047 0.037856296 -0.09316198 0.0220208 -0.100368775 0.051079713 0.04112071 0.038429916
-0.00486206 0.07454692 -0.07546758 0.020099856 0.08335943 -0.023123005 0.1350013 0.018451015
-0.102999225 -0.0053765876 -0.03142284 0.05904952 -0.022265976 0.03907839 0.00791913 -0.065215565
-0.10241508 0.02140292 0.087552644 0.13292782 0.023210349 0.027541751 0.03862261 0.039407406
0.036534432 0.04188361 0.05889591 -0.018142587 0.04009675 -0.07879708 0.023572749 0.0038469231
0.017501228 0.07760666 0.05629242 0.032855526 -0.13118021 0.029330404 -0.066891596 0.052356098
-0.01682054 0.040251855 0.06200782 -0.058644395 -0.12013637 0.018666651 0.08808577 0.032993373
-0.0554984 -0.15432037 -0.06072008 0.06265644 0.098275304 0.11546221 0.1400392 0.0071702744
0.20474246 0.03570317 -0.006528982 0.114760146 0.06191073 0.042799152 -0.036832046 -0.011367781
-0.03241458 0.08507371 -0.030139318 -0.06559921 -0.034055647 0.021075923 0.03660365 -0.06453132
0.026808929 0.018292133 0.14184703 -0.11518026 0.13107301 -0.08432744 0.08898122 -0.01780557
0.077816464 0.08468475 -0.07409457 -0.08141181 -0.041027576 0.051220473 -0.0062563806 0.0010065741
0.091079615 0.0512277 0.09656761 -0.046646774 -0.05852763 0.17573334 0.12852295 0.02082458
0.10015314 -0.064574875 0.10342477 -0.007945612 0.013117766 0.04693838 -0.12996544 0.029768342
00000000: be83 83bd 1b06 3a3c cae3 913d f94c 05bd
00000010: 097a 9a3c 3c26 c23d c009 d13b 0d77 16bd
00000020: 04e1 ee3d 71d2 d53d 4f60 7cbb f62e 6e3c
00000030: f289 07bd a161 493d c98e d83c a0c7 6f3d
00000040: 8916 bfbd 340f 1b3d b5cb bebd f764 b43c
00000050: 258e cdbd f638 513d 316e 283d b068 1d3d
00000060: ea51 9fbb 0eac 983d bf8e 9abd 74a8 a43c
00000070: 59b8 aa3d 756c bdbc c83d 0a3e 9526 973c
00000080: 42f1 d2bd 162e b0bb 3cb5 00bd e9dd 713d
00000090: 2367 b6bc a910 203d 3dbf 013c bd8f 85bd
000000a0: ffbe d1bd 2d55 af3c cd4e b33d 3b1e 083e
000000b0: a123 be3c 3d9f e13c be32 1e3d a969 213d
000000c0: 21a5 153d 268e 2b3d d63c 713d c39f 94bc
000000d0: 7d3c 243d 5d60 a1bd a31b c13c a91c 7c3b
000000e0: bc5e 8f3c 3ef0 9e3d e192 663d 8493 063d
000000f0: 1b54 06be 5146 f03c 76fe 88bd 5973 563d
00000100: 3bcb 89bc 21df 243d e9fb 7d3d 1b35 70bd
00000110: 0f0a f6bd ceea 983c 5066 b43d 0f24 073d
00000120: 4a52 63bd 2906 1ebe 9eb5 78bd 0552 803d
00000130: 9044 c93d 7377 ec3d 7066 0f3e 9ff4 ea3b
00000140: 02a8 513e 7d3d 123d 12f1 d5bb 5e07 eb3d
00000150: 1b96 7d3d 2a4e 2f3d 33dd 16bd ee3f 3abc
00000160: 27c5 04bd 203b ae3d bbe6 f6bc e158 86bd
00000170: ef7d 0bbd 6aa7 ac3c b5ed 153d ff28 84bd
00000180: 669e db3c 62d9 953c 5940 113e a1e3 ebbd
00000190: 0138 063e ddb3 acbd c93b b63d fddc 91bc
000001a0: 3d5e 9f3d 336f ad3d e5be 97bd 3cbb a6bd
000001b0: 880c 28bd 8fcc 513d 5302 cdbb 06ef 833a
000001c0: f387 ba3d 23d4 513d 3dc5 c53d b010 3fbd
000001d0: abba 6fbd 71f3 333e 859b 033e 4f98 aa3c
000001e0: 171d cd3d d53f 84bd 5ed0 d33d 502e 02bc
000001f0: e6eb 563c 7542 403d a915 05be bddc f33c

network_body._body_endoder.seq_layers.2.weight f4 [128, 128]
0.07613 0.1209743 0.074039705 0.047440585 0.09571358 0.0338184 -0.107220426 0.07378491
0.236446 0.04457067 -0.042527366 0.14962527 -0.041559327 -0.048358534 0.033528853 -0.17526688
-0.004900044 0.035002105 0.12292153 -0.085253485 -0.017603016 -0.087749794 0.001729502 0.036007762
-0.01852495 0.15150522 -0.06723335 -0.11850295 -0.15921591 0.08642652 -0.11306634 0.08269273
-0.030012371 0.0014005506 0.03042665 -0.014022088 0.12021574 -0.061900582 -0.14442492 0.034210965
-0.007318501 -0.15035844 -0.025994448 -0.031696256 -0.0073705195 0.18078418 0.18357682 0.018542916
0.05900177 0.06774646 0.0360297 -0.032371856 0.07202777 -0.08186592 -0.09661396 0.021330379
0.058764394 0.085304 0.012729992 -0.1017216 -0.06958678 -0.11995741 0.035031993 0.048327856
0.09214629 0.10086268 -0.007279633 0.12758392 -0.11770549 0.129332 -0.025766639 -0.017826833
-0.0492345 0.014525138 -0.19242051 0.15539248 0.037792303 -0.14612015 -0.07216604 -0.102136575
-0.08585411 -0.05127535 0.11843821 -0.27511635 -0.10365945 0.24049291 -0.0753266 -0.20287141
0.055210665 -0.036239002 0.13433982 -0.16575207 0.14137438 -0.115623444 -0.14996684 0.28226948
-0.05112567 -0.11163519 0.006855922 -0.17763257 0.064334005 -0.1502373 0.13352682 -0.04775551
-0.08013824 0.21648079 0.16660841 -0.059188083 -0.06880639 -0.057196587 -0.14176817 0.036741897
-0.058047142 0.039434455 -0.09581709 0.107091434 -0.053148426 -0.04488097 0.18673854 -0.11268229
0.2583237 0.077360414 0.027005814 -0.06242584 -0.18196286 -0.21411517 -0.086315535 0.0035168575
0.24183232 -0.049291845 0.080385245 -0.16699512 0.09114316 -0.09132468 0.20477593 0.032645576
0.05320434 -0.1575426 0.078764156 -0.12904684 -0.076939434 -0.04002051 -0.12621883 0.016794495
0.022541981 0.08040059 0.12820184 -0.23912533 0.119436696 -0.25795937 -0.033788815 0.08775268
-0.24757493 -0.030780703 0.09406473 -0.042982396 -0.111183055 -0.09703069 -0.054389138 0.22078544
-0.0028467516 0.10661982 0.11512637 0.019158335 0.005774663 0.034068 -0.043297254 -0.06629202
-0.08147615 0.1274806 -0.09989325 -0.0583102 -0.031109368 -0.013061587 0.023000449 0.002123419
-0.01624436 -0.14555883 0.0033704953 0.09032257 0.09891237 0.060174804 0.25991678 -0.11894411
0.011343203 0.031016454 -0.049198817 -0.03134351 -0.078285195 -0.09756699 -0.16886245 -0.10176589
0.0085671535 0.11246889 -0.043749727 -0.008618444 -0.071328655 -0.013663736 -0.12631789 0.25015578
0.023338776 0.07747122 -0.25684452 -0.067933366 -0.05173367 -0.051553313 0.08365769 0.11469358
-0.15852006 -0.047225174 -0.034101874 -0.19542745 -0.050476123 0.16663064 -0.013888073 0.005701158
0.031997345 0.07718463 0.1345039 -0.13903649 -0.18401387 -0.18929516 -0.12593472 -0.0024156081
0.14829098 0.04069843 0.08414854 -0.0029741963 0.005683146 0.052328993 0.1391249 0.20106223
-0.047279377 0.12658292 -0.10773125 0.17459434 -0.13478352 0.058818515 0.011600441 -0.046521336
0.017899046 -0.10959425 -0.09185539 0.15095738 -0.11894284 -0.16294786 0.032044366 -0.025960863
-0.025549669 0.037442338 0.05037887 0.062019408 -0.09026721 0.07078958 0.044486895 -0.031809483
00000000: 0cea 9b3d 60c1 f73d 21a2 973d 0f51 423d
00000010: 7b05 c43d 2a85 0a3d 6296 dbbd 8b1c 973d
00000020: e61e 723e bc8f 363d 2d31 2ebd 5e37 193e
00000030: 1d3a 2abd 9913 46bd 8d55 093d 2979 33be
00000040: 8c90 a0bb 5e5e 0f3d 48be fb3d 6199 aebd
00000050: 3334 90bc 2ab6 b3bd 75b0 e23a e07c 133d
00000060: a3c1 97bc 2f24 1b3e a3b1 89bd adb1 f2bd
00000070: 7f09 23be 6300 b13d 538f e7bd ce5a a93d
00000080: 81dc f5bc ae92 b73a 4f41 f93c e6bc 65bc
00000090: ab33 f63d 778b 7dbd 20e4 13be cc20 0c3d
000000a0: 09d0 efbb 90f7 19be 4ff2 d4bc efd3 01bd
000000b0: 6684 f1bb 7d1f 393e 90fb 3b3e 50e7 973c
000000c0: d7ab 713d a8be 8a3d e193 133d 5a98 04bd
000000d0: 4c83 933d 52a9 a7bd 8add c5bd 0cbd ae3c
000000e0: efb2 703d ddb3 ae3d 7591 503c 6a53 d0bd
000000f0: 8483 8ebd 3bac f5bd b57d 0f3d 6ef3 453d
00000100: 32b7 bc3d 1891 ce3d fd89 eebb 5ca5 023e
00000110: 930f f1bd 9c6f 043e 8f14 d3bc 9409 92bc
00000120: 1daa 49bd d8fa 6d3c e209 45be 351f 1f3e
00000130: 1acc 1a3d 85a0 15be cacb 93bd fb2c d1bd
00000140: 48d4 afbd 1a06 52bd bb8f f23d 0ddc 8cbe
00000150: 684b d4bd c643 763e d544 9abd 86bd 4fbe
00000160: 9424 623d 596f 14bd 6190 093e e9ba 29be
00000170: 72c4 103e fccb ecbd e890 19be a085 903e
00000180: 2769 51bd fea0 e4bd a4a7 e03b 50e5 35be
00000190: 8cc1 833d cfd7 19be 41bb 083e 489b 43bd
000001a0: 841f a4bd 24ad 5d3e 659b 2a3e 346f 72bd
000001b0: 5dea 8cbd f846 6abd ad2b 11be ac7e 163d
000001c0: d7c2 6dbd 0686 213d c03b c4bd c152 db3d
000001d0: 2ab2 59bd 1cd5 37bd 6338 3f3e f9c5 e6bd
000001e0: 0143 843e 236f 9e3d 4c3b dd3c 3db2 7fbd
000001f0: 7954 3abe 0241 5bbe 33c6 b0bd 147b 663b
00000200: e4a2 773e 3fe6 49bd 05a1 a43d c500 2bbe
00000210: 44a9 ba3d 6f08 bbbd c8b0 513e 5eb7 053d
00000220: cbec 593d d952 21be 1a4f a13d db24 04be
00000230: 6c92 9dbd 8cec 23bd 823f 01be 9c94 893c
00000240: f6a9 b83c 11a9 a43d 5847 033e 45dd 74be
00000250: 3a9b f43d 4013 84be 2466 0abd adb7 b33d
00000260: 4884 7dbe d027 fcbc 02a5 c03d 4f0e 30bd
00000270: f1b3 e3bd 07b8 c6bd 25c7 5ebd 9415 623e
00000280: 9190 3abb 7e5b da3d 60c7 eb3d f1f1 9c3c
00000290: 6239 bd3b e38a 0b3d 7658 31bd 1cc4 87bd
000002a0: f8dc a6bd 468a 023e d594 ccbd add6 6ebd
000002b0: 13d9 febc 4400 56bc 706b bc3c 0f29 0b3b
000002c0: e412 85bc 600d 15be 87e3 5c3b 0afb b83d
000002d0: 9292 ca3d db79 763d d013 853e f898 f3bd
000002e0: d7d8 393c 3816 fe3c b384 49bd 0d62 00bd
000002f0: fd53 a0bd 34d1 c7bd 47ea 2cbe a36a d0bd
00000300: 3f5d 0c3c 1756 e63d ea32 33bd 6034 0dbc
00000310: c214 92bd dddd 5fbc 7a59 01be 6b14 803e
00000320: f630 bf3c 3ba9 9e3d 2081 83be a620 8bbd
00000330: afe6 53bd 9129 53bd b954 ab3d 78e4 ea3d
00000340: 1553 22be 2f6f 41bd 68ae 0bbd 221e 48be
00000350: 0dc0 4ebd 39a1 2a3e cd8a 63bc c8d0 ba3b
00000360: a60f 033d fa12 9e3d 64bb 093e 955f 0ebe
00000370: 226e 3cbe 97d6 41be 08f5 00be 2e4f 1ebb
00000380: 97d9 173e 66b3 263d 1256 ac3d bcea 42bb
00000390: af39 ba3b ed56 563d c276 0e3e 42e3 4d3e
000003a0: 05a8 41bd f49e 013e 34a2 dcbd dcc8 323e
000003b0: b104 0abe afeb 703d c70f 3e3c 288d 3ebd
000003c0: 05a1 923c f372 e0bd ae1e bcbd 9294 1a3e
000003d0: 4e98 f3bd cedb 26be f440 033d e0ab d4bc
000003e0: 8a4d d1bc 235d 193d 135a 4e3d 1008 7e3d
000003f0: 04de b8bd 21fa 903d e437 363d a94a 02bd

network_body._body_endoder.seq_layers.2.bias f4 [128]
-0.018587375 -0.02668961 0.023453465 0.0046743196 0.058680013 -0.0024463253 0.064371444 0.08470833
-0.050975684 0.027049901 0.017802367 0.018770196 -0.009160123 0.12338917 0.11354235 0.12084706
0.0842671 0.063600376 0.0055504 -0.0073433365 0.012188454 0.08841638 0.07625534 -0.055450603
0.04663373 0.02850262 0.038945407 0.118679546 0.01657849 0.027100045 -0.00903108 -0.02348905
0.017156148 0.0026590875 0.028293645 0.14662252 0.10996277 -0.04832414 -0.0019860049 0.06471715
0.04318144 0.0165508 0.0955305 0.09802684 0.0367996 0.027387092 0.0016322111 0.123537675
0.056652933 0.072804704 0.054941196 0.118976966 0.062750325 0.049523577 0.02794573 0.035203736
0.048109878 0.05051761 0.103642575 0.045892324 0.0062030354 -0.05310227 0.09645821 -0.00786264
-0.030379212 0.08269383 0.050637204 0.076384455 0.0931717 0.006063125 0.031969585 0.03718823
0.10180006 -0.03399044 0.085273266 0.11748857 0.018679528 -0.0013343043 0.0044414834 -0.017690767
-0.015305611 0.043542154 0.07231331 0.019002708 -0.009066358 0.05247675 0.04738235 0.012374716
-0.067123756 0.031271067 0.04482163 0.083516695 -0.05400844 -0.013900123 -0.007843239 -0.0400653
-0.03725235 0.01514535 0.04855094 0.028171003 0.030712338 0.08119425 0.02737272 0.056810968
0.11681452 0.10368877 0.001179439 0.049004916 0.05961785 -0.0060887667 0.07633324 0.020773308
0.042153392 0.0031781967 0.1036658 0.07687822 0.072942115 0.11713241 0.039108153 0.028045332
0.078339286 0.045979757 -0.011193737 0.014216142 0.099007055 0.008625624 0.014978686 0.054566745
00000000: 8d44 98bc 2ba4 dabc 7b21 c03c 092b 993b
00000010: 745a 703d 8752 20bb 2dd5 833d 907b ad3d
00000020: e1cb 50bd c197 dd3c 45d6 913c f4c3 993c
00000030: 5714 16bc 76b3 fc3d e488 e83d aa7e f73d
00000040: 3b94 ac3d ea40 823d 21e0 b53b 5fa0 f0bb
00000050: 15b2 473c a613 b53d c22b 9c3d 2c20 63bd
00000060: 0303 3f3d 547e e93c 3885 1f3d 430e f33d
00000070: 9dcf 873c ea00 de3c 18f7 13bc 1c6c c0bc
00000080: 0d8b 8c3c 1644 2e3b 13c8 e73c 3724 163e
00000090: 2934 e13d 89ef 45bd a227 02bb 6d8a 843d
000000a0: 06df 303d 8b95 873c 7fa5 c33d 4cc2 c83d
000000b0: 2dbb 163d e55a e03c ebef d53a 5201 fd3d
000000c0: e80c 683d a21a 953d 050a 613d 32aa f33d
000000d0: 3e83 803d 3cd9 4a3d 72ee e43c cb31 103d
000000e0: dd0e 453d 8eeb 4e3d 8f42 d43d 97f9 3b3d
000000f0: d542 cb3b c481 59bd e28b c53d 4dd2 00bc
00000100: d3dd f8bc 625b a93d f568 4f3d 746f 9c3d
00000110: ced0 be3d 2ead c63b 8af2 023d af52 183d
00000120: 8d7c d03d 8f39 0bbd c0a3 ae3d d99d f03d
00000130: cf05 993c d3e3 aeba dd89 913b 3aec 90bc
00000140: 63c4 7abc 4259 323d 0019 943d 91ab 9b3c
00000150: 108b 14bc dcf1 563d ff13 423d 52bf 4a3c
00000160: 2e78 89bd 1716 003d e396 373d cd0a ab3d
00000170: f437 5dbd 57bd 63bc ee80 00bc 831b 24bd
00000180: ec95 18bd 3424 783c 5add 463d e0c6 e63c
00000190: 7198 fb3c 2c49 a63d c13c e03c 9eb2 683d
000001a0: 733c ef3d c75a d43d 6897 9a3a 61b9 483d
000001b0: d931 743d 4784 c7bb 9a54 9c3d c92c aa3c
000001c0: 09a9 2c3d 4b49 503b bc4e d43d 5472 9d3d
000001d0: ad62 953d 1ee3 ef3d df2f 203d 53bf e53c
000001e0: 5970 a03d 4555 3c3d f065 37bc d2ea 683c
000001f0: 36c4 ca3d 7d52 0d3c 2a69 753c 6181 5f3d

action_model._continuous_distribution.log_sigma f4 [1, 2]
-0.2242194 -0.29134035
00000000: c599 65be 902a 95be

action_model._continuous_distribution.mu.weight f4 [2, 128]
-0.06702724 -0.0063087177 0.007842584 0.014706722 -0.05875592 -0.014596367 0.062281583 -0.16312611
0.0010262076 -0.04398809 0.019924387 -0.0058835144 0.0431236 0.020414468 0.06872102 -0.11958567
-0.08664407 -0.026856162 0.017336389 -0.007343691 0.027627964 -0.09864623 0.07635012 0.00052333635
-0.0052615562 0.041330066 -0.044115726 0.10078431 0.029572621 -0.0278184 0.005673172 0.046396773
0.036166646 -0.01914496 0.029903868 0.11344328 0.075107306 -0.006215345 -0.04380968 -0.064327054
0.06677848 -0.06041802 0.07241071 -0.16395976 -0.034563765 -0.09140618 -0.016965842 0.10705866
0.06629281 -0.030148426 0.041939054 0.048723806 0.008269937 0.052065473 0.033232607 -0.021583721
-0.009973008 -0.018325314 0.040517364 0.076219425 0.009686832 0.011934949 0.090656675 -0.017644074
0.014098987 -0.0523509 -0.021826496 0.041583724 -0.052620657 -0.0076118507 0.04005966 -0.052126788
-0.17497225 0.004282972 0.06553944 -0.09161788 0.034615654 -0.013123548 -0.03408945 -0.0127011
0.023177974 -0.041005783 0.026642753 0.021186952 0.017355181 0.059434373 -0.03318119 -0.019493356
0.0287304 0.031643808 0.033471696 -0.021919884 0.013952646 0.028792482 0.025015846 0.013837959
0.0075144256 -0.07444855 0.053178906 -0.055433225 -0.03858379 -0.066818275 0.03178193 0.046293154
0.11910235 -0.059970178 0.015120905 0.0478023 0.07273583 -0.0017623657 0.011248433 0.04051218
0.049266268 0.040409673 -0.040143803 0.009079076 -0.0147129325 0.08561407 0.04425587 -0.017283062
0.050667766 -0.03770203 -0.020508267 -0.12214756 -0.09798317 -0.00041933524 0.014351479 -0.07326519
-0.039509557 -0.008105008 0.0026745875 -0.024356859 0.019992061 0.0028116487 0.014635614 -0.0019576373
-0.0056074373 0.02710889 -0.0031610671 -0.061361156 -0.0148277925 0.08987015 0.064102754 0.06992873
-0.028910208 -0.038791645 -0.028961249 0.0019255849 -0.09140192 -0.09248932 0.004692009 0.003726235
0.048268177 -0.010861124 -0.03233458 -0.10404225 -0.014147637 -0.0026613467 -0.012684213 -0.02710615
-0.009500508 -0.018459368 -0.03610982 0.05359854 0.074920274 -0.014341668 0.037688304 0.018882394
0.010051758 0.0074441647 0.06265462 -0.0026488684 0.012770624 -0.011468313 -0.02169028 0.043148417
0.019228619 -0.020934036 -0.011127441 0.08674252 0.02793152 -0.09335676 -0.066819936 -0.040293388
-0.027925273 -0.043260723 0.0929272 -0.010593143 -0.019357404 -0.012054492 0.0902628 0.028141044
0.0012104994 0.060669035 -0.08306302 -3.9903152e-06 0.041554563 -0.016877986 -0.027982002 -0.0046992195
0.011534548 -0.040664703 -0.020831339 -0.06443669 0.007431594 0.0022297571 -0.030118816 -0.026434714
0.005559822 -0.047273733 0.025383862 -0.04480807 0.025889121 0.008564659 -0.03183815 -0.029708778
-0.016019126 -0.057799384 -0.020249309 -0.09469286 -0.03512004 -0.014428784 -0.011928218 -0.03372283
-0.0059777973 0.033828083 0.0770554 0.044093154 -0.009839949 0.0024892655 -0.01873122 -0.05537141
0.017561527 0.029198874 0.09379707 -0.0040532933 -0.009756845 0.0066844155 0.10189329 -0.014697327
-0.0028676742 -0.025397358 -0.0751987 -0.095512085 -0.038477067 -0.05131695 0.036922336 -0.005476687
0.0003798943 -0.025726495 0.025859516 -0.029159795 0.09482816 -0.029789792 -0.048545275 0.11970871
00000000: 9445 89bd 5cb9 cebb 2e7e 003c 77f4 703c
00000010: 0caa 70bd 9a25 6fbc f91a 7f3d 880a 27be
00000020: d081 863a db2c 34bd 7838 a33c 7fca c0bb
00000030: 5fa2 303d 3e3c a73c 9bbd 8c3d 55e9 f4bd
00000040: 7272 b1bd 7401 dcbc 0b05 8e3c 58a3 f0bb
00000050: 0a54 e23c 0907 cabd 745d 9c3d 8230 093a
00000060: 2269 acbb b749 293d b1b2 34bd 0168 ce3d
00000070: 4842 f23c 6ae3 e3bc 04e6 b93b 8b0a 3e3d
00000080: 7a23 143d e4d5 9cbc f5f8 f43c f354 e83d
00000090: dcd1 993d 18aa cbbb c771 33bd e7bd 83bd
000000a0: 28c3 883d e378 77bd 114c 943d 11e5 27be
000000b0: bc92 0dbd 2a33 bbbd f3fb 8abc 9241 db3d
000000c0: 86c4 873d d5f9 f6bc 49c8 2b3d 9d92 473d
000000d0: a17e 073c 9b42 553d ea1e 083d 58d0 b0bc
000000e0: d465 23bc f81e 96bc 89f5 253d ee18 9c3d
000000f0: 85b5 1e3c ce8a 433c 35aa b93d 4e8a 90bc
00000100: 70ff 663c e66d 56bd 7bcd b2bc b253 2a3d
00000110: c288 57bd d56c f9bb 9915 243d e682 55bd
00000120: ed2b 33be 2c58 8c3b 8b39 863d 28a2 bbbd
00000130: 25c9 0d3d 2604 57bc 61a1 0bbd 4618 50bc
00000140: bcdf bd3c aef5 27bd e741 da3c 4290 ad3c
00000150: 742c 8e3c 7571 733d 00e9 07bd 88b0 9fbc
00000160: 045c eb3c f09c 013d 9e19 093d 5491 b3bc
00000170: a499 643c 36de eb3c 08ee cc3c 9bb8 623c
00000180: 923b f63b 7b78 98bd 20d2 593d f30d 63bd
00000190: 090a 1ebd 05d8 88bd c52d 023d e49d 3d3d
000001a0: efeb f33d 4aa3 75bd acbd 773c 58cc 433d
000001b0: 86f6 943d 2eff e6ba 594b 383c 1af0 253d
000001c0: 6dcb 493d 9d84 253d d46d 24bd 68c0 143c
000001d0: 830e 71bc 6e56 af3d a545 353d 3595 8dbc
000001e0: 0189 4f3d 726d 1abd f400 a8bc 8028 fabd
000001f0: 66ab c8bd 39da dbb9 7722 6b3c 0f0c 96bd
00000200: c6d4 21bd deca 04bc 2248 2f3b 0988 c7bc
00000210: 64c6 a33c a343 383b 37ca 6f3c b44b 00bb
00000220: 98be b7bb 7613 de3c e829 4fbb d655 7bbd
00000230: 45f0 72bc d70d b83d 4e48 833d cb36 8f3d
00000240: 1ad5 ecbc fde3 1ebd 2440 edbc e863 fc3a
00000250: ee30 bbbd 0a6b bdbd 6dbf 993b d933 743b
00000260: dab4 453d dbf2 31bc 4471 04bd 1a14 d5bd
00000270: 7ecb 67bc fd69 2ebb 72d1 4fbc b70d debc
00000280: 05a8 1bbc 1a38 97bc e4e7 13bd 258a 5b3d
00000290: cd6f 993d 51f9 6abc 0d5f 1a3d 40af 9a3c
000002a0: 21b0 243c 2eee f33b 1151 803d a398 2dbb
000002b0: e13b 513c 97e5 3bbc d0af b1bc 65bc 303d
000002c0: 5685 9d3c db7d abbc df4f 36bc 10a6 b13d
000002d0: a5d0 e43c d431 bfbd e4d8 88bd ae0a 25bd
000002e0: 8bc3 e4bc 2832 31bd 9e50 be3d dd8e 2dbc
000002f0: 6b93 9ebc 3480 45bc b4db b83d 0c88 e63c
00000300: 9fa9 9e3a 1880 783d f21c aabd 8ce4 85b6
00000310: 1e35 2a3d b443 8abc 833a e5bc e9fb 99bb
00000320: 67fb 3c3c 0890 26bd 7ca6 aabc 62f7 83bd
00000330: bb84 f33b 1e21 123b bcbb f6bc 9d8d d8bc
00000340: 2b2f b63b 1aa2 41bd d1f1 cf3c ab88 37bd
00000350: 6c15 d43c c952 0c3c b868 02bd d35f f3bc
00000360: 8b3a 83bc 0cbf 6cbd e1e1 a5bc 55ee c1bd
00000370: 08da 0fbd b566 6cbc 936e 43bc f320 0abd
00000380: 66e1 c3bb 518f 0a3d 39cf 9d3d 069b 343d
00000390: bd37 21bc f222 233b 3772 99bc 22cd 62bd
000003a0: 31dd 8f3c 7a32 ef3c ae18 c03d 7dd1 84bb
000003b0: 2ddb 1fbc f108 db3b 6ead d03d 0fcd 70bc
000003c0: 97ef 3bbb 1f0e d0bc c701 9abd d79b c3bd
000003d0: 219a 1dbd b931 52bd e03b 173d c875 b3bb
000003e0: 8d2c c739 5fc0 d2bc 56d7 d33c 86e0 eebc
000003f0: 4435 c23d b909 f4bc 69d7 46bd d729 f53d

action_model._continuous_distribution.mu.bias f4 [2]
0.0031136351 0.0028400705
00000000: 210e 4c3b 7a20 3a3b

action_model._discrete_distribution.branches.0.weight f4 [1, 128]
0.015648803 -0.0012715937 0.008322445 -0.00061064906 -0.014963301 0.0044840355 -0.0019686196 0.0026618491
0.009668542 0.0013055316 0.0013247749 -0.0007477046 -0.02122957 0.008752084 -0.003537067 0.0034334527
0.0047182287 0.0017644577 -0.0045324885 -0.005797252 -0.004555931 -0.015592502 0.009499526 0.0068097063
0.0057039065 0.007323988 -0.00010105275 0.0056651835 -0.0010173842 -0.008632349 0.004942473 -0.0061038905
-0.0009239265 0.00053034065 -0.010435923 0.0103007015 -0.012565619 -0.015448428 -0.0055429954 0.005987251
-0.00066959433 -0.01184549 -0.008506562 -0.0010089476 -0.021025535 -0.007310815 0.00081733614 0.00528141
-0.00375771 0.012333206 0.0112970015 0.0009746269 -0.008100264 -0.0016761719 0.0015355092 0.0071800225
0.0005705664 0.0036495961 -0.005778764 0.007792696 -0.001977449 0.012431282 0.020222424 0.01164523
-0.012007116 0.016670322 0.003663315 0.011405121 0.0054387995 0.0013218708 0.005575852 0.016065031
0.0018813154 0.015293847 -0.0045243683 0.0020123348 0.009877178 0.0065709315 -0.011956816 0.0016989158
0.009681179 0.008472068 0.002380967 -0.020006334 -0.020313123 0.0037671581 -0.0028549335 -0.003671248
-0.0026850547 -0.0019435141 0.0014120042 0.005378775 0.007790865 -0.001523548 0.015976798 0.0053959605
0.0019273665 -0.010093955 0.00066037517 0.0008614009 -0.010040051 -0.0077597587 -0.0051848153 0.005009223
-0.00053330115 0.0072886953 0.011135568 0.0049051484 0.0069260686 0.0018995382 0.006706532 -0.010478105
-0.005108345 0.005705939 -0.0012126649 -0.0050651664 -0.00017827176 -0.0013990762 0.0041465717 -0.008738426
0.011763956 -0.0053546214 -0.004770937 0.0037611232 0.009081756 0.011087724 0.010537675 0.009446106
00000000: eb31 803c 9bab a6ba dd5a 083c f713 20ba
00000010: a228 75bc d1ee 923b f503 01bb 6b72 2e3b
00000020: ce68 1e3c 5f1e ab3a 12a4 ad3a 9b01 44ba
00000030: a3e9 adbc e764 0f3c 23ce 67bb c703 613b
00000040: 5f9b 9a3b 6045 e73a 4585 94bb e0f6 bdbb
00000050: eb49 95bb b277 7fbc e6a3 1b3c f523 df3b
00000060: d6e7 ba3b 10fe ef3b 48ec d3b8 01a3 b93b
00000070: c059 85ba b26e 0dbc 78f4 a13b 2503 c8bb
00000080: a833 72ba 8f06 0b3a 6ffb 2abc 46c4 283c
00000090: 07e0 4dbc 671b 7dbc 04a2 b5bb b430 c43b
000000a0: b787 2fba 9613 42bc 1b5f 0bbc aa3e 84ba
000000b0: be3d acbc 908f efbb 8042 563a ae0f ad3b
000000c0: ea43 76bb 3711 4a3c 0f17 393c 1b7e 7f3a
000000d0: f8b6 04bc ffb2 dbba 2443 c93a 6546 eb3b
000000e0: 1092 153a 102e 6f3b c95b bdbb df59 ff3b
000000f0: 1798 01bb 93ac 4b3c 7fa9 a53c a3cb 3e3c
00000100: 7fb9 44bc 3390 883c 3a14 703b 8bdc 3a3c
00000110: f537 b23b a042 ad3a a3b5 b63b d09a 833c
00000120: 7896 f63a 0b93 7a3c 2741 94bb 60e1 033b
00000130: e3d3 213c f850 d73b 85e6 43bc 28ae de3a
00000140: cf9d 1e3c 6ece 0a3c ff09 1c3b 53e4 a3bc
00000150: b567 a6bc 6de2 763b d619 3bbb 5299 70bb
00000160: bef7 2fbb 83bd feba 0013 b93a 6f40 b03b
00000170: 834a ff3b cab1 c7ba c6e1 823c 99d0 b03b
00000180: b09f fc3a 1e61 25bc 071d 2d3a a3cf 613a
00000190: 077f 24bc 9345 febb 62e5 a9bb 6824 a43b
000001a0: 3ccd 0bba 02d6 ee3b f571 363c 5ebb a03b
000001b0: 13f4 e23b edf9 f83a 78c2 db3b 5cac 2bbc
000001c0: e763 a7bb e3f8 ba3b 48f2 9eba b2f9 a5bb
000001d0: 76ee 3ab9 3561 b7ba f7df 873b 9d2b 0fbc
000001e0: 9cbd 403c d275 afbb 8555 9cbb 2d7d 763b
000001f0: a5cb 143c 49a9 353c 36a6 2c3c d7c3 1a3c
