Assets/ML-Agents/Stay.onnx (onnx, 76128 bytes, 8 tensors)

network_body._body_endoder.seq_layers.0.weight f4 [128, 6]
000000 c7 66 ea 3d 4f a7 0d bf 00 43 09 3f 03 25 24 be
       0.114453845 -0.5533342 0.5361786 -0.16029744
000010 92 94 0c bc 9e f4 90 3d 9f 6f 7f be 7c 8d 6e 3e
       -0.008580344 0.07077907 -0.24944924 0.2329616
000020 e1 3c 1a bf 45 9c 0d be 46 be 4d be de 9e d6 3d
       -0.60249144 -0.13829143 -0.20092115 0.1047952
000030 78 81 8b be c5 cb 38 be cb 1e 6d bf cb 5e bf be
       -0.27247214 -0.18046482 -0.9262511 -0.3737701
000040 ba 02 ba 3e ef df b0 be ee 5b 50 be 6d e7 17 be
       0.36330205 -0.34545848 -0.20347568 -0.14834376
000050 d4 e7 1e be 6e cc 53 3e 22 d0 7b 3e 34 69 98 be
       -0.15518123 0.20683452 0.24591115 -0.29767764
000060 74 e4 21 3e a6 16 a0 3e 36 0c 80 3f b5 21 9b 3f
       0.15809804 0.3126728 1.0003726 1.2119662
000070 05 e2 48 bf 78 16 1f be ff 82 93 3e b6 c0 44 3f
       -0.7846988 -0.15535915 0.2881088 0.76856554
000080 eb ef a2 be 26 56 79 be da ce b4 be 06 8c 8c bc
       -0.31823668 -0.2434927 -0.35314065 -0.017156612
000090 11 bf be be 30 cc 02 3f 58 9c d1 be 53 8d 56 be
       -0.37255147 0.51092815 -0.40939593 -0.20952348
0000a0 ee 2e 2f 3e 98 f2 1b 3d af 54 8a bd ac 39 da be
       0.17107746 0.038073152 -0.06754433 -0.42622125
0000b0 94 8d ab 3e 15 1f b2 3e 8b 20 03 bb 03 c4 87 bc
       0.33506453 0.3478934 -0.002000841 -0.016572958
0000c0 7e 9d 32 3f c2 1c f8 bd d1 7e a7 3d 00 29 39 bf
       0.69771564 -0.1211486 0.08178485 -0.72328186
0000d0 bc 3b e0 3e 15 2b c1 3e db 9f 2a 3e f6 0b da bd
       0.43795574 0.3772818 0.16662543 -0.106468126
0000e0 b0 ea 93 3e 9f fa 0b 3e 3d 41 a3 3d d4 7f d6 bd
       0.2888999 0.13669823 0.079714276 -0.104736
0000f0 3b c4 18 be e6 7a ae 3e 63 ca 91 be 3f b0 a3 3e
       -0.14918606 0.3407814 -0.2847472 0.31970403
000100 cc bf 57 3e 52 b0 83 be ad cd 9d be 10 6b e5 be
       0.21069258 -0.2572046 -0.3082098 -0.44808245
000110 9a 5d 1d 3e 60 d8 6d be ec 7c 7a be de 3a 13 bf
       0.15367737 -0.23227072 -0.24461716 -0.575117
000120 39 7f 9a bd 35 0a be bc dc 05 db 3d 38 3c cf be
       -0.07543797 -0.023198226 0.10694477 -0.4047563
000130 50 e8 11 3f 1a d1 3b 3e 98 43 23 3f 5d 8d 25 bf
       0.56995106 0.18341485 0.63775015 -0.6466883
000140 3f b1 05 3e ab d0 04 be 4d 1d ee 3e f7 fb a8 be
       0.13055895 -0.12970226 0.4650673 -0.33004734
000150 16 07 db be 1f b6 3b bf 77 e8 59 3f eb 04 69 3e
       -0.42778844 -0.7332477 0.8512034 0.22755782
000160 9e ad 6d 3e b1 db 73 3d c9 2b 6d bd 76 29 dd 3c
       0.23210761 0.059535686 -0.057903085 0.02699731
000170 0b bd e9 be c5 b1 e2 be ca 44 2d be 0d 3d d1 3d
       -0.4565204 -0.44276252 -0.16920772 0.10216723
000180 34 9c 39 bd 25 62 64 3e 4f 08 74 bf 20 4b 21 bf
       -0.045314983 0.22303064 -0.9532518 -0.63005257
000190 c6 c1 18 be ea 18 ff 3d 98 9d 0e bf 17 da fe 3e
       -0.14917669 0.12455924 -0.5570922 0.49775764
0001a0 28 da ef 3e ff 57 45 3f ec 3e b9 be c5 78 0e 3f
       0.46846128 0.77087396 -0.36180818 0.5565303
0001b0 d2 d5 58 3e 6f 3a 81 bd 50 8c 8d be 33 d9 24 bf
       0.21175316 -0.063099734 -0.27646112 -0.6439392
0001c0 f3 47 07 3e 09 33 6f be 3f 42 43 3f f5 d3 85 3f
       0.1321104 -0.23359312 0.7627296 1.0455309
0001d0 7c 42 ec 3e 02 4e ca be 5a e0 eb 3e 98 7c 94 be
       0.46144474 -0.3951264 0.46069604 -0.29001307
0001e0 ae cd 17 3d d6 61 cc 3e 9e 4c 75 bd 42 25 e2 3e
       0.037061386 0.39918393 -0.05988752 0.4416905
0001f0 00 11 49 3e 20 7d 4a 3d fb 93 c8 bd 47 b7 19 be
       0.19635391 0.049435735 -0.0979385 -0.15011321
000200 09 cb f8 be f0 70 fb be d8 2f 61 be fb 9a a2 3e
       -0.48592404 -0.49109602 -0.21990907 0.31758866
000210 63 25 fe bd ac 49 4e 3e 10 18 8f be 75 56 55 bf
       -0.12409475 0.20145291 -0.27948046 -0.8333505
000220 c6 d7 b2 3e d2 ba 56 bf 4d f3 a3 b9 f3 ab e1 3e
       0.34930247 -0.83878815 -0.00031271056 0.440765
000230 84 c6 ac be 0e 78 58 be 82 f6 53 3f 19 49 15 3f
       -0.33745205 -0.21139547 0.82798016 0.58314663
000240 0e af 08 3f 3e 3a 52 bf bf 42 16 3f 17 e2 5f be
       0.5339211 -0.8212012 0.58695596 -0.2186359
000250 b9 59 96 3e e1 5d 3c bf 88 d5 ab be 37 1e 1b bf
       0.29365328 -0.7358075 -0.3356135 -0.6059298
000260 d3 bf 4e 3d 72 f4 bd 3d df 52 c7 be af 13 76 bf
       0.050475907 0.0927514 -0.38930413 -0.96123785
000270 43 fe 6e 3e f4 df a5 be 96 18 b8 3e 8a 49 ca be
       0.2333918 -0.32397425 0.35956258 -0.3950923
000280 9f 71 54 bd 89 15 f0 bd 32 c5 08 bf bc dd f1 be
       -0.05186617 -0.117228575 -0.53425896 -0.47239482
000290 fc 52 0f 3e a1 5b 1a bf a7 b3 96 be a0 92 47 bf
       0.139965 -0.60296065 -0.2943394 -0.77958107
0002a0 0f f6 5a bf 4a 1c ba 3e 02 75 2e be a7 de 7c 3e
       -0.85531706 0.36349708 -0.17036822 0.2469431
0002b0 60 b6 b6 be bd d3 09 bd 53 b7 93 be 65 4a a9 be
       -0.35686016 -0.033649195 -0.28850803 -0.3306457
0002c0 f2 9f 72 be 67 c6 45 3f a2 a2 a6 be a6 d9 d8 3e
       -0.23693827 0.7725586 -0.32545954 0.42353553
0002d0 46 98 5b be b0 e7 09 bf d6 ef 05 be 44 e1 98 be
       -0.21444806 -0.5386915 -0.13079771 -0.29859364
0002e0 84 e7 ba 3e 75 0a e8 be 75 02 0e 3e 63 7b 3f 3f
       0.36504757 -0.45320478 0.13868125 0.7479765
0002f0 39 66 1e 3f 9f 46 74 3d e4 24 fd 3d e7 12 11 3e
       0.6187473 0.059637662 0.12360552 0.14167367
000300 d6 a5 17 bf 59 e2 95 bf 8c 36 81 3e 9f 1c 03 3f
       -0.5923742 -1.1709701 0.25236928 0.5121555
000310 28 62 85 be 0f 60 fc be 99 40 8a bd 77 d3 09 bd
       -0.2605145 -0.49292037 -0.06750602 -0.033648934
000320 a6 55 76 be af 6e 0c bf 2d 39 17 be b5 5f a6 be
       -0.2405611 -0.5485639 -0.14767905 -0.32494894
000330 a3 6f af be 5e bd b0 be 8b db 7b bf a6 f9 f3 3e
       -0.3426486 -0.34519476 -0.9838187 0.47651404
000340 60 9b f7 bd 6e 31 f4 3d f0 7e 13 3d 07 30 88 3d
       -0.12090182 0.119234905 0.03600973 0.066497855
000350 bc 4f b6 bd 50 b3 3f be 53 ff 9e bf bb 32 ac be
       -0.08901927 -0.18720746 -1.2421669 -0.33632454
000360 d1 0e 14 3e 71 0b 68 bf b4 00 18 3f f1 8d 03 3f
       0.14458777 -0.9064246 0.5937607 0.5138846
000370 53 ac ed bd 24 dd c9 3d 5d 03 36 3c 0a 48 0f bf
       -0.11605134 0.09856632 0.0111092 -0.559693
000380 40 13 00 be 8d c6 2f bf 8e 6b 4e bf 1e cc f7 3d
       -0.12507343 -0.6866234 -0.80632865 0.12099479
000390 f1 d5 24 bf 5a e1 6a 3e dc 24 2e 3f 70 be 5a be
       -0.6438895 0.22937527 0.6802499 -0.21361709
0003a0 36 52 d4 3d 21 0e 6d 3e af ae e7 3d c5 f0 ce 3d
       0.10367243 0.23149921 0.11312615 0.10104517
0003b0 db 02 5e be 9e ee 96 bd 92 e8 09 bd d6 20 2f be
       -0.21680777 -0.07369731 -0.033669062 -0.1710237
0003c0 4c 5e 88 3e 64 a7 71 ba 4e 86 8d 3d a1 14 01 be
       0.26634443 -0.00092183636 0.06910382 -0.12605526
0003d0 5c c1 c1 3e 89 e0 12 3f cf 68 72 be 93 5e 6e be
       0.37842834 0.57373863 -0.23672794 -0.23278265
0003e0 0e c9 8b 3f 8f 5f 69 be 2f d9 28 bf b9 ea 34 be
       1.0920732 -0.22790359 -0.65956396 -0.17667665
0003f0 8f 11 99 be 19 df 97 bc 41 0f a5 be 9b 61 04 bf
       -0.2989621 -0.018538998 -0.322382 -0.51711434

network_body._body_endoder.seq_layers.0.bias f4 [128]
000000 1f f9 0c bd 45 5d 07 bd 2b c1 02 3d 2f 37 af bd
       -0.034417268 -0.033047933 0.0319225 -0.08555447
000010 fa 08 1c 3e ce 71 90 3d 2a 4b 7e bd 39 9e 93 bd
       0.152378 0.070529565 -0.0620834 -0.07207913
000020 3c eb 68 3c 5f 85 ea bd 53 69 a4 bd 6c d6 91 3b
       0.0142162405 -0.1145122 -0.080279015 0.00445061
000030 d1 72 13 bd e5 45 fa bd 2a 69 07 bd 23 e8 f7 bd
       -0.03599817 -0.122203626 -0.033059277 -0.121048234
000040 ac 69 9c 3d 17 a7 1b be 8e ae a3 bc c9 41 9e 3c
       0.07637343 -0.15200458 -0.019980695 0.019318478
000050 35 df 6e 3b a9 43 e0 bd 4a a8 f8 bb 70 96 68 be
       0.003644896 -0.10950405 -0.007588421 -0.22713637
000060 5f 48 d4 3d 6d 36 c7 3d 13 e1 bd bd b1 d8 2a bd
       0.10365366 0.09727178 -0.09271445 -0.04171056
000070 23 c4 4e 3c 68 0d 9e bb 47 86 47 bd a6 a2 99 bb
       0.012620005 -0.0048233755 -0.04871204 -0.0046885787
000080 01 9f b0 bd 39 71 13 bc 45 2a b5 3b 26 5d d2 3d
       -0.086240776 -0.008999162 0.0055287206 0.10271673
000090 7c 92 bc 3c 77 22 32 be 20 1a 11 be 6e 40 ca bd
       0.023019068 -0.1739596 -0.14170122 -0.0987557
0000a0 50 e3 d9 bd fa 38 2d 3e 2e 58 46 3a 53 7a 16 3d
       -0.106390595 0.16916266 0.00075662404 0.03673775
0000b0 99 78 93 be 56 c3 84 be 1d 01 ea 3c 13 25 d6 bd
       -0.28802946 -0.2593028 0.028564984 -0.1045629
0000c0 8b 20 0e be aa df 30 be 3d 30 04 bd 00 7f cd 3c
       -0.13879602 -0.17272821 -0.032272566 0.025084972
0000d0 7e e3 af bd 49 02 03 3e 30 92 8c bd ce b7 03 3d
       -0.085883126 0.1279384 -0.068638206 0.03215771
0000e0 b1 34 56 3c 44 5b 4b bd aa d9 dc bd ae 5a 5e 3d
       0.013074086 -0.049647585 -0.107837036 0.054285698
0000f0 4d c3 23 be 38 3c 97 bd ce 63 1a 3e 12 9d fd bd
       -0.1599247 -0.07384533 0.15077135 -0.123834744
000100 c8 d1 4a 3d 48 71 93 3c 4b 91 6e bd ea 15 4c 3d
       0.04951647 0.017998353 -0.05824403 0.049825586
000110 fd b1 90 3d 9e d9 d1 bd f1 24 08 be 54 f6 05 bc
       0.070651986 -0.10246585 -0.13295342 -0.008176405
000120 b0 7a 16 be 09 ce 9f 3c 97 85 17 be 5e 93 62 bc
       -0.14695239 0.019507425 -0.14797054 -0.01382908
000130 75 5e 73 3b 7a 3f b7 bc c2 26 b1 3d 50 e8 2a 3e
       0.0037135158 -0.022369135 0.086499706 0.16690183
000140 95 90 44 3e 5c 2c e9 bc ff e6 a9 bc 47 23 7e 3d
       0.19195779 -0.028463535 -0.02074003 0.06204536
000150 72 79 ab 3d 79 0d 4b bd be e6 96 bc a6 e2 25 bd
       0.08372773 -0.049573395 -0.018420573 -0.040499352
000160 e4 a5 0b be 6a 91 20 3d 52 28 4c bd 0b 15 be bd
       -0.13637501 0.039201178 -0.04984314 -0.092813574
000170 f1 57 46 bd f9 5a 9c 3c 2f 25 81 bd d3 bb d7 bd
       -0.04842371 0.019086348 -0.0630592 -0.105338715
000180 ab 14 fb 3d 1d a1 ff bd 3d d0 23 bd e0 28 ed 3c
       0.122598015 -0.12481902 -0.039993513 0.028950155
000190 2c 5a df bc 52 94 31 bc 59 a4 98 3c 47 ca 14 be
       -0.027264677 -0.010838585 0.018633055 -0.14530288
0001a0 1d da 04 bc 75 c2 24 be 98 1b 9a bd 64 c5 99 bd
       -0.008108643 -0.16089804 -0.07524794 -0.075083524
0001b0 72 e8 4a bd 78 27 c7 bd 2f ca 21 3d 20 79 e9 bd
       -0.049538083 -0.09724325 0.039499458 -0.11400056
0001c0 84 c5 ae 3c 58 f7 4d be 89 5b 8c 3b 67 1b 37 3d
       0.021334417 -0.20113885 0.004283373 0.044703867
0001d0 73 66 13 bd f6 56 48 be 0d 06 8a 3b 72 8f 9b 3c
       -0.035986375 -0.19564423 0.004212147 0.018989298
0001e0 39 c0 09 3e 30 30 88 be 0c 3a 3c 3c a3 7c 48 bd
       0.13452233 -0.26599264 0.011488449 -0.048946988
0001f0 0f 60 51 be fd ae 7f be 75 04 0e bd ec 05 8c bd
       -0.204468 -0.24969096 -0.03467222 -0.06837067

network_body._body_endoder.seq_layers.2.weight f4 [128, 128]
000000 42 a1 f0 bb 84 3b ed 3d 3e 60 f3 3b 5a f3 84 be
       -0.007343442 0.11583617 0.0074272444 -0.25966913
000010 16 23 94 3c 0b fb 06 be 1a fc 36 be 09 56 9b be
       0.018083137 -0.13181703 -0.17869607 -0.30339077
000020 93 53 bc bd 1a 08 a3 be 59 10 cb 3d 1a f7 69 3d
       -0.09195628 -0.31842119 0.099152274 0.05712042
000030 d6 01 23 be 52 08 b6 3d 68 fe d8 bd f9 58 e3 bc
       -0.15918669 0.08888306 -0.10595399 -0.027752386
000040 dd f1 b6 bd 0f 15 1a 3d 94 c2 32 be b1 73 c1 bd
       -0.089328505 0.03761774 -0.17457038 -0.094458945
000050 21 bc a1 be 0b 12 33 bc 2d bc bc 3c 63 f4 80 bd
       -0.31588843 -0.010929595 0.023038948 -0.06296613
000060 70 88 fc bd 63 9b df 3d f7 58 94 3d 58 31 1d be
       -0.12330711 0.109183095 0.07243531 -0.15350854
000070 77 06 c5 bc d6 e3 ee 3b 48 63 85 bc 21 75 4e 3d
       -0.024050934 0.0072903438 -0.016282693 0.05040467
000080 e7 b4 9a bb 16 f9 a9 3d 8f cc 10 be 6c d0 50 3d
       -0.0047212723 0.082994625 -0.14140533 0.050980017
000090 14 63 3f 3d ed e6 12 bd f5 ef 3f be 18 a1 82 3c
       0.046725348 -0.03586476 -0.1874388 0.015945956
0000a0 86 b5 dd 3d 79 f8 72 3d c9 33 6b be 05 1a 94 be
       0.108256385 0.059318993 -0.22968973 -0.289261
0000b0 e4 8d 71 bd 68 be 83 3a 62 d1 1d be a2 77 08 3b
       -0.058973208 0.0010051252 -0.15411904 0.002082326
0000c0 93 17 92 be 59 b6 96 3c c1 22 ad 3c 59 52 5f be
       -0.2853361 0.018397497 0.021134736 -0.21808757
0000d0 13 92 e9 3d 73 8d b0 3b 5d 09 1b 3d 0c d2 c7 be
       0.114048146 0.005387956 0.037850726 -0.3902744
0000e0 ec b7 1c 3d 15 b2 7e bd ea 6c dd bd ad 3a 0f be
       0.03826134 -0.06218155 -0.10811789 -0.13987227
0000f0 f6 33 57 bc a2 14 53 be c8 e8 de 3d 9d 7e 27 be
       -0.013134947 -0.2061334 0.10884243 -0.16356893
000100 1e c4 91 be ed db 41 be f1 c3 3e 3e ba d0 4d 3e
       -0.28469938 -0.18931551 0.18629433 0.20099154
000110 12 20 06 be 00 58 6b 3d 83 c3 81 3d eb 05 83 bd
       -0.13098171 0.05745697 0.06336119 -0.06397613
000120 ed 7f d2 bd 37 c9 b2 3d b3 56 8b bd a4 3d cf bd
       -0.10278306 0.08729785 -0.06803646 -0.10119179
000130 e3 e0 de bd ab 20 c4 bb a2 9b b8 be 5a ca ac 3d
       -0.108827375 -0.0059853396 -0.36056238 0.08437033
000140 5c 41 89 bd 70 82 a5 bd e6 f8 b7 3d 9c 20 34 3e
       -0.067019194 -0.080815196 0.089830205 0.17590564
000150 07 8a 26 be d7 0c ab bc 0b 42 85 be 0b 5f d4 3a
       -0.16263591 -0.020880146 -0.2602695 0.0016202641
000160 2e 97 6d bd 5b 2b ac be 10 6e 86 bc 4f 53 0d be
       -0.058005504 -0.33626828 -0.016409904 -0.13801311
000170 90 41 51 be 73 5c a7 bd e2 23 f4 bd 93 9c 47 be
       -0.20435166 -0.0817193 -0.119209066 -0.19493322
000180 a7 8a 90 bd 90 77 41 be 59 27 85 bd 8f 1b a4 bd
       -0.07057696 -0.18893266 -0.065016456 -0.08013069
000190 e4 44 ad 3d 40 a6 b6 3d 89 d7 ad 3d a2 e6 32 be
       0.084604055 0.089184284 0.08488376 -0.17470792
0001a0 d9 2e c6 bd 99 9d bb bd b7 c8 ab bd ad 13 8a bd
       -0.09676904 -0.09160919 -0.08387893 -0.06742034
0001b0 91 98 53 3d 66 d8 49 be 76 08 44 bc 56 a9 a6 3d
       0.05165917 -0.19711456 -0.011964908 0.08137767
0001c0 1c c0 3b 3d 72 49 c1 bd b7 85 00 bd a9 c9 b8 3d
       0.045837507 -0.09437837 -0.03137752 0.090228386
0001d0 c2 b7 22 bc 4c bd 39 3b df 39 b8 be fd 66 03 be
       -0.009931507 0.002834159 -0.35981652 -0.12832256
0001e0 d6 e0 6d bd 2a b3 5e bc 23 5b 87 3d 3a 8f f1 3c
       -0.05807575 -0.013592521 0.0660918 0.029487241
0001f0 39 16 9a bd 07 d1 fd bd cc b1 be bd ea 66 c6 bd
       -0.0752377 -0.123933844 -0.09311256 -0.09687598
000200 f3 34 6f 3d 01 cb d5 3c 2e c3 65 bd c8 f4 b6 3d
       0.058400106 0.026097776 -0.05609434 0.08933407
000210 28 03 2e 3a 75 3d 63 3d bf 89 06 bd 7c 6c 36 3e
       0.00066380436 0.055478532 -0.03284621 0.17814821
000220 aa 7c 86 3c 18 9d c5 3d 98 54 ce 3c 48 ae f7 3d
       0.016416866 0.09649104 0.025186822 0.120937884
000230 7f 7d b4 3d 64 7d 95 3d 66 78 96 3c 9b 0c 9e bb
       0.08812999 0.07299307 0.018367957 -0.00482328
000240 4c a1 09 3d c2 b6 a0 bc 1e 38 e1 bd a3 28 21 3d
       0.03360109 -0.019618396 -0.10997032 0.039345395
000250 b3 2d 97 bd d1 46 e9 3a ec 02 aa 3d 1c 37 af bd
       -0.07381763 0.0017797594 0.083013386 -0.08555433
000260 fd 66 55 bb f5 a5 5e bd f7 be 81 3d f4 b8 23 3e
       -0.0032562607 -0.054357488 0.06335252 0.15988523
000270 f4 80 25 3d 94 99 07 be a3 19 68 3d 8b 2e 13 3d
       0.040406182 -0.13242179 0.056665074 0.03593306
000280 4e 15 44 3d 44 7b 2e 3e f4 38 7c 3d 9f 9b 3f 3e
       0.04787188 0.1703921 0.061577752 0.18711708
000290 ad 93 bd bd d5 d6 08 ba e5 9e 5d bd 2e c5 08 bd
       -0.092566825 -0.0005220001 -0.05410661 -0.03339117
0002a0 5e 48 98 bd 79 ac 19 be f5 64 93 3d c2 d2 2d bd
       -0.07435678 -0.150072 0.071969904 -0.042437322
0002b0 f8 4d ef 3d 18 d9 1f 3d e6 36 91 3d 43 3f 40 3d
       0.11684793 0.039025396 0.07090549 0.04693533
0002c0 ec fa a5 bc 2f 29 a3 3c 08 23 32 3e de 7c ad bc
       -0.02026125 0.019917099 0.17396176 -0.021177705
0002d0 80 d7 08 3e 6a ce 29 3d 98 ef e4 bd 8e 69 1d bd
       0.13363457 0.041456617 -0.111785114 -0.038430743
0002e0 7d da d0 3d 46 db 41 3d b1 0c d5 bd 5c ad 06 3c
       0.10197923 0.047328256 -0.10402811 0.008220043
0002f0 62 e8 57 ba 49 ed 40 bd 0d ef 31 be 99 3e 69 3d
       -0.0008236227 -0.047101293 -0.17376347 0.056944463
000300 1f 53 8a bc 96 b1 a5 3c 02 e3 46 be 9a 8f d5 3c
       -0.016885338 0.020226281 -0.19422534 0.026069451
000310 ed 2e d0 3d 67 51 04 3e 5c f9 ce 3d f9 f8 17 be
       0.101652004 0.12921678 0.10106155 -0.1484107
000320 bb 4e 55 3c 97 6b b9 3d c3 1c 9b 3c 38 db 20 be
       0.013019259 0.09053724 0.018934613 -0.15708625
000330 87 02 39 be ef dc b9 3d 19 a1 ad 3d 67 3a 96 3d
       -0.1806737 0.09075343 0.084779926 0.07335358
000340 39 7f 48 3c ea e4 d0 3d ab 74 e1 bd 35 1f 3b 3d
       0.0122373635 0.10199912 -0.11008581 0.04568406
000350 1f 9c 80 3e 52 3c 64 3b 20 2c 4c ba 63 61 bb bb
       0.2511911 0.0034825993 -0.00077885576 -0.0057183965
000360 1e d1 ea ba 40 53 b6 bc bd ba 92 3a 3c 0e d1 bd
       -0.0017915105 -0.022256494 0.0011194568 -0.10207793
000370 7a f3 cd 3d 5b 7e 8d bd 2b c6 16 3d 52 55 f6 3d
       0.10056205 -0.06908866 0.03681008 0.12027992
000380 9b d2 8a 3e 4f 24 d1 3c 7f f5 f2 bd 32 20 5c 3e
       0.27113804 0.025530009 -0.11863231 0.21496657
000390 2b 0e f2 3d f8 ce 4d bd e7 04 65 bd 60 98 da bb
       0.118191086 -0.05024621 -0.05591288 -0.0066709965
0003a0 1d 16 ab ba 12 1f 33 3d 14 e3 e6 3d 37 fd 61 bd
       -0.0013052855 0.043730803 0.112737805 -0.055173125
0003b0 4b 41 eb 3d ac ae d2 3d 51 99 1b 3e 5b f9 b2 bd
       0.11487063 0.10287222 0.15195204 -0.08738967
0003c0 44 38 05 be c0 70 b0 bd 2b 89 47 3b 1c 79 fb 3d
       -0.13009745 -0.08615255 0.0030446749 0.12278959
0003d0 2b 45 c8 3a d0 25 a9 bd 28 06 30 3e d4 61 84 bc
       0.0015279403 -0.08259165 0.17189848 -0.01615993
0003e0 ec d1 2f 3a f5 77 68 3d 79 16 e6 3d 96 68 13 3d
       0.0006707001 0.056755025 0.11234755 0.035988413
0003f0 aa c1 4a bd fd 39 85 3d b5 25 e4 3b bc 77 87 3d
       -0.0495011 0.06505201 0.006962503 0.066146344

network_body._body_endoder.seq_layers.2.bias f4 [128]
000000 97 70 00 3e 4c d8 09 be 90 64 b8 3c 56 87 c6 bd
       0.1254295 -0.13461417 0.02250889 -0.09693782
000010 05 1c 59 bd b4 e1 89 bd 73 3d 00 be ba 6b 72 bd
       -0.053005237 -0.067325026 -0.12523441 -0.059184767
000020 6a 6c 99 bd 03 1d 0c 3e 6a f4 d9 3d 49 9d fc 3c
       -0.074913815 0.13682942 0.106423214 0.030836718
000030 29 ea f8 bd 8c 09 1d 3e b6 ed 0c 3e 71 00 80 3d
       -0.121540375 0.15335673 0.13762555 0.06250084
000040 d6 dd 50 3c 97 69 a4 bd fb 57 08 3e b7 e2 85 bd
       0.012748202 -0.08027952 0.13314812 -0.06537383
000050 06 ad cf bc 1c 3d 01 be 9a b0 8d bc 30 9e 9b 3c
       -0.025351059 -0.12620968 -0.017296124 0.018996328
000060 78 94 9b bc 3f 36 08 bd ce bb 05 bd 76 c2 cb bd
       -0.018991694 -0.033254858 -0.032649808 -0.099492
000070 2c 58 1a bc bf 0d 72 bd 30 65 45 3a c4 76 38 bd
       -0.009420436 -0.05909514 0.0007530032 -0.04503514
000080 38 8f 06 3e 88 46 0a be bc e6 89 3c da 4b 91 bd
       0.13140571 -0.13503468 0.016833656 -0.07094546
000090 88 94 11 3d 57 dd 10 bc 25 4a c0 3d e2 11 d8 bd
       0.03554204 -0.008841834 0.09389142 -0.10550286
0000a0 64 aa a6 bd 39 3d 77 3c c3 e7 8e 3d 03 bc 74 bd
       -0.08137968 0.01509028 0.06977799 -0.059749614
0000b0 e5 ba dc 3d e1 01 bc bd f1 2b 15 bb 13 ba 60 bd
       0.10777835 -0.09180046 -0.0022761787 -0.054864954
0000c0 8a 4e 20 3d 60 64 6c bd 65 ac e5 3c e0 ec c7 bd
       0.0391374 -0.057712913 0.028036306 -0.09761977
0000d0 90 dd 87 bd 7f ff ce bd 37 42 e4 bc 6c 51 be 3b
       -0.066340566 -0.10107326 -0.027863605 0.005808046
0000e0 fc b2 b5 3d 95 b0 3e bc 8f c4 bb bd a6 99 32 be
       0.08872029 -0.01163878 -0.0916835 -0.17441425
0000f0 39 a9 41 bd b4 c3 00 3e 53 27 87 bd b3 46 7b 3d
       -0.047280524 0.12574655 -0.065992974 0.06134672
000100 60 b5 3d bd c6 1a 01 be c4 99 1d bc 3c 5d d6 3c
       -0.04631555 -0.1260787 -0.00961918 0.026167504
000110 ce d8 00 be 76 00 77 3e 28 8c 15 3c aa 07 9d 3c
       -0.12582704 0.2412127 0.009127654 0.019168694
000120 18 6e 18 bb bb a4 53 3c 6d 9b f5 bd d4 b4 ac bc
       -0.002325898 0.012917693 -0.11992536 -0.02108232
000130 1c b4 b8 3b 99 cb c0 bd e6 29 bd 3d c6 ef 32 bd
       0.005636705 -0.09413833 0.09236507 -0.043685697
000140 3d 5e 15 3c 2e f6 62 bd 94 5c 02 bd a0 f7 04 3d
       0.009116706 -0.055410556 -0.03182657 0.032462716
000150 19 9c 18 be 20 56 05 3d 50 07 bf bd 33 e4 3b bd
       -0.14903297 0.03255284 -0.093275666 -0.045871925
000160 c4 5e 92 3d 9f c5 26 3d a9 71 5e 3d 36 1a 02 be
       0.07146981 0.04071581 0.054307614 -0.12705311
000170 cc ba 07 be 81 ab e2 bd 6c 14 5f bd 52 b0 90 bd
       -0.13254851 -0.11067868 -0.054462835 -0.070648804
000180 df eb e1 bd 61 eb 14 3e bc 2a ef 3c 86 7f cd bd
       -0.11031317 0.14542915 0.029195182 -0.10034089
000190 50 b3 2b bd 4e ce 63 ba 7e e7 26 3b dd 87 9a bd
       -0.041919053 -0.00086901046 0.002546757 -0.07545445
0001a0 52 c0 17 3d f0 87 e9 3d 99 6b cc 3d 74 21 97 bd
       0.037048645 0.11402881 0.0998146 -0.073794276
0001b0 c9 3f 34 3d d1 6f 1c 3e 14 1f 00 be 95 e4 ac bd
       0.044006143 0.1527703 -0.12511855 -0.08442036
0001c0 b6 94 41 3d 2d 2d 5a 3c 21 b1 81 3d 38 bf 2d bd
       0.047260962 0.013316435 0.06332613 -0.04241869
0001d0 8c 61 21 3e db 32 e0 bd 01 9a eb bd c7 52 d7 3d
       0.15759867 -0.109472 -0.11503983 0.105138354
0001e0 53 8f c2 bd b6 0f ab 3d a3 28 71 3e 7e ec a2 3d
       -0.09499993 0.08352606 0.23550658 0.079552636
0001f0 9c 22 e9 bd a4 ec 20 bd 7a 13 d9 bd de 70 8b 3d
       -0.11383554 -0.039288178 -0.10599418 0.06808637

action_model._continuous_distribution.log_sigma f4 [1, 3]
000000 71 af 28 3f 4d e0 01 3f d6 64 74 3f
       0.658927 0.5073288 0.95466363

action_model._continuous_distribution.mu.weight f4 [3, 128]
000000 e0 56 fe bc 9b 5b 02 bd bc dc cb bc 02 38 95 3d
       -0.031047285 -0.031825643 -0.024885528 0.07286073
000010 bc 7d 90 3c a6 37 ed bc 3f bf 82 3c 04 d0 bd 3c
       0.01763808 -0.0289572 0.015960334 0.023170479
000020 88 60 fd bc 25 04 dd bd 2b 56 6e 3c ea a9 54 bd
       -0.030929819 -0.10791806 0.014546911 -0.051919855
000030 ef 08 0c 3e 31 b7 85 3d ca 93 8f 3d 44 39 7a bd
       0.13675283 0.065290816 0.070106104 -0.06108977
000040 0e 94 26 3d 19 08 7f 3d 39 0d a5 bd 69 14 68 3c
       0.04066854 0.062263582 -0.08059163 0.014165022
000050 c6 42 3e 3d bb 12 58 3c 85 a5 ff 3d b3 f2 89 3d
       0.0464504 0.013188059 0.12482742 0.06735744
000060 66 1a 39 bd f8 33 3b 3b 07 72 28 3e a7 13 5e 3c
       -0.04519119 0.0028564911 0.16449748 0.01355449
000070 82 e5 e0 bc 24 f0 8c 3d 42 bf 2a 3d d1 6a 24 3d
       -0.027453188 0.06881741 0.041686304 0.04014093
000080 9c d2 27 bd 99 a9 c4 3c d5 9e b2 3d ca 4a f3 bc
       -0.040972337 0.024006652 0.08721701 -0.029698748
000090 d0 57 bc bc 21 1e 5f 3c 60 df d5 bc 02 ac 11 bd
       -0.022991091 0.013618023 -0.02610749 -0.03556443
0000a0 a6 a0 f3 3d 17 0e ba 3d 4e 2c d8 3d f2 f0 10 3e
       0.11895876 0.09084719 0.105553254 0.14154413
0000b0 c4 88 b7 3c 09 d6 2a 3e ab 9d cd 3d 64 7f 55 bc
       0.022404082 0.1668321 0.100398384 -0.013030861
0000c0 ff f3 79 3d eb 81 08 bc 28 16 b7 3b 58 3f 69 bd
       0.06102371 -0.008331756 0.005587358 -0.056945175
0000d0 b9 4d 07 bd 3e 6d f5 3d 72 27 dc 3d 4c ee c3 3d
       -0.033033106 0.11983727 0.10749711 0.09566936
0000e0 73 d9 0c 3e f8 05 41 3d f2 92 e5 3d 45 3d 47 3d
       0.13754825 0.047124833 0.11209668 0.048642416
0000f0 73 2b 77 3c 68 d9 bc 3a 3b dd b1 3c 8a 47 de 3c
       0.015086043 0.0014408054 0.021711936 0.027133722
000100 b8 84 a9 bd ea 5a 56 bc 02 27 85 3e f1 50 28 bd
       -0.08277267 -0.013083199 0.26006323 -0.041092817
000110 22 d6 87 3d 28 e1 fe bd d6 83 d8 3c 80 18 20 3d
       0.066326395 -0.12445289 0.026430052 0.039085865
000120 05 9d 95 3c c5 de c3 bd f0 58 fc 3c a0 53 88 3d
       0.01826335 -0.09563974 0.030804127 0.06656575
000130 0b 15 20 bc ae 89 19 3e fd e5 c0 3c 83 57 e1 3b
       -0.009770642 0.14993927 0.023547167 0.0068768873
000140 33 5d f6 3d 2d 2b ac 3d 29 10 34 bc 9e 20 61 3d
       0.12029495 0.084066726 -0.010990181 0.054962747
000150 b0 3b ec ba ba 3e 9b bd 46 5c e5 bc d9 d7 d5 3d
       -0.0018023159 -0.075803235 -0.027998101 0.1044156
000160 24 cd d5 3c 77 05 06 bd 4b 4c 60 bc a9 8b b5 bc
       0.026098795 -0.032720055 -0.013690065 -0.022161322
000170 71 74 3e 3d 52 77 2d 3d 1e 85 14 bc 72 9f 75 bc
       0.046497766 0.04235012 -0.009064941 -0.014991628
000180 d5 6f cc 3d a4 90 be 3d ac 19 bc 3c 56 4e 29 3d
       0.09982268 0.09304932 0.02296146 0.041334473
000190 07 94 7d 3d 42 89 51 bd d3 b8 05 3d f9 b0 78 3d
       0.061908748 -0.05115629 0.032646965 0.06071565
0001a0 17 b2 f5 3d 71 9f 34 3e 2c 48 a3 bd 42 46 31 bd
       0.119968586 0.17638947 -0.0797275 -0.043279894
0001b0 77 7c 10 3e 28 f8 5c 3c 3b a2 83 3d 99 68 09 3d
       0.1410998 0.013486899 0.064274274 0.033547018
0001c0 1d 7b f0 bd 83 ef 81 3d f4 54 fe 3d 53 de c6 3d
       -0.11742232 0.06344511 0.12418547 0.09710374
0001d0 66 71 92 bd ba 88 32 3d c0 d5 fd 3d 6d 5f 50 3c
       -0.07150535 0.043587424 0.12394285 0.012718064
0001e0 3d 67 3e bc cc 6b 51 3c 9d ee 73 bd 8e eb 4a bd
       -0.011621294 0.012782048 -0.05955373 -0.04954105
0001f0 35 7b 8a 3c 24 82 ea 3c e4 19 68 3d 65 be 81 ba
       0.016904453 0.028626509 0.056665316 -0.0009898661
000200 79 56 33 bc dc 7f b1 3b c4 e3 d5 3d 13 7e e2 3d
       -0.01094591 0.0054168534 0.104438335 0.11059203
000210 3a 99 73 3e d6 9d 1d 3b e1 88 e6 bc 3c 9a 27 3e
       0.2378892 0.0024050376 -0.02814144 0.1636743
000220 b5 b7 f3 3d 06 ac 32 bc 7e c1 98 3c 64 d3 95 3c
       0.11900274 -0.010905271 0.018646952 0.018289275
000230 b4 a4 be 3c 92 f6 2e bd a6 04 42 bd db 19 24 3d
       0.023271896 -0.042715617 -0.047367714 0.04006372
000240 bb 75 c3 bc 2d 86 8b b8 5b 9d 71 bb d9 e5 10 3e
       -0.02385985 -6.653029e-05 -0.0036867473 0.1415018
000250 93 44 7d 3d b6 39 8e 3d f9 1c 5f 3d 49 35 fe 3d
       0.061832976 0.06944601 0.05447099 0.12412507
000260 81 d9 c8 3d 07 c3 24 bc 0e d7 27 3e 5d 91 29 3d
       0.098071106 -0.010056264 0.1639063 0.041398395
000270 5f 81 b2 bb af 9e 6b 3e 4d fc 53 3e 3d 88 f1 3d
       -0.005447551 0.23009752 0.20701714 0.117935635
000280 ee d1 9d bc 00 23 7e 3d 34 a9 af bd 17 7f 68 3d
       -0.019265141 0.062045097 -0.08577195 0.056761827
000290 16 95 af 3d de 22 3e 3e c7 23 84 bd 52 6e 9a 3d
       0.08573358 0.18567988 -0.064521365 0.07540573
0002a0 ac f2 b8 3d 62 00 9a 3d 35 90 af 3c 78 6b d4 3c
       0.09030661 0.07519604 0.021431068 0.025930151
0002b0 4a dd ad 3d f5 2b ad 3d c7 91 f9 3d a4 1f 28 3e
       0.08489473 0.0845565 0.12186008 0.1641832
0002c0 34 96 2a 3e 21 13 a1 3d 12 db 03 3d 8d 86 b4 3d
       0.1665886 0.07864977 0.032191344 0.08814726
0002d0 d7 cf 71 3b 64 ef 03 3e f8 26 f0 3d 52 40 00 bc
       0.0036897564 0.12884289 0.11726183 -0.007827835
0002e0 b2 4a 4f 3d f8 24 a7 bc d9 60 1d 3e 5e ef 15 3d
       0.050608344 -0.02040337 0.15368976 0.03660523
0002f0 37 20 45 ba 70 3f 8b bd f6 dd e5 3c 5e d5 01 be
       -0.0007519754 -0.06799209 0.02805994 -0.1267905
000300 94 f1 6b bc 03 1b 53 3c 77 f7 ee 3c 0b ba 8a bd
       -0.014400858 0.012884858 0.029170735 -0.06773766
000310 6b f8 26 3e 8a d0 bb bd f3 33 01 3d fb 72 da 3d
       0.16305701 -0.09170635 0.031543683 0.10666462
000320 6d 14 2a bd 40 5f 87 bb 21 4e af 3d 2d 97 96 bb
       -0.041523386 -0.0041312277 0.08559824 -0.0045956583
000330 af 06 28 3d 31 d3 14 3d f0 02 8c 3c 2c c7 27 3e
       0.041022 0.03633422 0.017091244 0.16384572
000340 fd 01 47 3d 2f 16 96 bd 34 94 0c 3c 89 75 90 bd
       0.04858588 -0.0732845 0.008580256 -0.07053668
000350 f3 f3 cd 3d 35 05 a6 bb f8 0e c8 bb 21 0b d9 3d
       0.10056295 -0.0050665387 -0.0061053 0.10597826
000360 ec d2 c1 3c 01 47 8e 3d a1 36 9d 3d 73 8a c7 3d
       0.023660146 0.06947137 0.07676435 0.09743204
000370 44 29 06 3e 77 5e 42 3d 5d 28 dd bc c6 64 56 3c
       0.13101679 0.04745337 -0.026996786 0.01308555
000380 b0 50 08 3e cc 03 19 bd 1a 4f 5e 3d a4 be a6 3d
       0.1331203 -0.037357137 0.054274656 0.081418306
000390 ae 6e 8b 3c 41 9e dd 3d 4d 78 7b 3d cd 9e 15 3e
       0.01702055 0.108212 0.061394025 0.14611359
0003a0 c3 3c c3 3c c4 ee 12 be 72 73 03 be f7 58 93 3c
       0.023832684 -0.14348894 -0.12837008 0.017986758
0003b0 8d 7c 86 3d 86 c5 90 bd 88 5f 56 3d 8d 15 d4 3d
       0.06566725 -0.070689246 0.0523372 0.10355673
0003c0 a9 92 af 3d bf d8 d9 bb c8 da b8 3d e0 ed cb 3d
       0.08572895 -0.0066481526 0.09026104 0.099574804
0003d0 67 7e 9d 3c 31 b0 99 3e 69 6f 02 3e 9d 95 87 bd
       0.019225312 0.30017236 0.12737812 -0.06620333
0003e0 4b 97 c4 3d a9 66 19 bd 89 dd 58 bd 47 81 ce 3b
       0.09599169 -0.03745142 -0.052945647 0.006302032
0003f0 38 38 49 3d 30 a7 bb 3d 6d 62 24 3e 69 94 fa 3c
       0.04912588 0.09162748 0.16053171 0.030588346

action_model._continuous_distribution.mu.bias f4 [3]
000000 26 e5 94 bd f4 cb 2c bd 5c 17 90 3d
       -0.07270269 -0.042186692 0.070357054

action_model._discrete_distribution.branches.0.weight f4 [1, 128]
000000 7a d5 26 bc 02 c5 59 3a b3 12 23 3c 55 af 52 bc
       -0.010182733 0.00083072495 0.009953189 -0.012859185
000010 4b 15 a6 3b 1a 46 49 3c 1c c2 0c bb af 27 25 bb
       0.0050684563 0.01228478 -0.0021478003 -0.0025200655
000020 0b 73 2d bb b3 a7 43 3c db 23 1d 3c ca b5 af 39
       -0.0026466276 0.011941838 0.009591068 0.00033514044
000030 82 49 10 bc 9e fc 9e 3b 33 09 37 3b 02 92 2c 3c
       -0.008806588 0.0048518917 0.0027929067 0.010532858
000040 b7 68 d9 bb db 21 95 bb ff 52 8b ba 30 0b df ba
       -0.0066347974 -0.004551155 -0.0010629593 -0.0017016884
000050 86 c8 09 bc e7 78 be bc 42 21 59 3c fe 21 2d 3c
       -0.008409625 -0.02325101 0.013252558 0.010567186
000060 0f dd df bb 99 4a 3e 3b cd f0 2f 3c c7 f0 ac 3b
       -0.006831772 0.0029036163 0.010738564 0.0052777263
000070 8b d8 bc 39 ff 08 76 3b 36 9d 88 3b a3 9e 32 3c
       0.0003601949 0.0037541983 0.0041691316 0.01090208
000080 d7 fa f9 ba 40 71 73 ba 45 e0 6a bc e1 25 15 3c
       -0.0019071948 -0.000928659 -0.014335697 0.009103269
000090 f8 a5 d4 bb 2f ad 71 3c b8 cf a7 bb 0d 2a ea ba
       -0.0064895116 0.014750763 -0.0051211976 -0.0017865315
0000a0 fa ea aa 3b d2 e5 2a bc ec 84 03 3c 2f 05 74 3c
       0.0052159997 -0.01043077 0.0080272965 0.014893814
0000b0 20 e3 d7 3b bf 12 14 3c 0c dc 03 3b 90 f6 45 bb
       0.0065883547 0.009037673 0.0020120172 -0.0030206777
0000c0 a5 e8 0f 3b 9f 80 8b 3b 80 fa 25 bb 9f 51 ba 3b
       0.0021958735 0.004257276 -0.0025326312 0.0056859995
0000d0 2c 28 a7 3b 6f 1f 99 bb 06 84 00 3c c3 dd 47 39
       0.0051012244 -0.0046729366 0.007843977 0.00019060732
0000e0 3a 8e f0 3b bf 34 c4 bb a3 b4 de 39 fb f6 b2 3b
       0.0073411735 -0.005987733 0.00042477724 0.0054615713
0000f0 ef 0e e1 bb 92 8b f4 bb d2 96 6b bc bb c4 11 bc
       -0.0068682353 -0.007462927 -0.01437922 -0.008897002
000100 af e0 83 3c 7e 99 43 3c 60 c9 8d 3b 8b 9c 4d 3c
       0.016098348 0.011938451 0.0043269843 0.01254953
000110 8d 90 7a 3a df de 03 3c 28 3e f8 bb 9f 45 06 bc
       0.0009558283 0.008048742 -0.007575769 -0.00819531
000120 e0 e8 6e 3b 90 42 9d bc bd 16 07 3c 51 b3 a2 bc
       0.0036454722 -0.019196779 0.008245167 -0.019860895
000130 67 87 9b 3b 62 b2 0e 3b 50 3e 37 bc 99 78 26 3c
       0.004746366 0.0021773805 -0.01118429 0.010160589
000140 f9 bc 3d bc ac ed 3f 3b 95 0f 78 3a 5f f5 9e bb
       -0.011580699 0.002928595 0.0009462771 -0.004851028
000150 d7 dd c5 ba d5 d3 65 3b 8f cf 81 bc 27 2d e5 bb
       -0.0015096021 0.0035068889 -0.015846042 -0.006993908
000160 f3 e8 3d bc 7e af 35 bc 98 24 42 bc b8 51 25 3b
       -0.011591184 -0.011089204 -0.011849545 0.002522571
000170 24 4f 8f 3b 5a ec 72 bc 1f 65 83 bb 85 df 71 3c
       0.004373448 -0.014826858 -0.0040098573 0.014762764
000180 c0 c5 4b bc 00 1b 72 bb cb 4c a6 3c e3 2b 4f 3c
       -0.012437284 -0.0036942363 0.02030029 0.012644741
000190 30 d7 cf bb 87 68 21 bc 00 d1 f3 3b 3b 31 09 3b
       -0.006342791 -0.009851581 0.007440686 0.0020933885
0001a0 95 2d e3 3b aa f6 42 bb 8b 7a 44 bc b0 18 00 bb
       0.006932924 -0.0029749074 -0.011992107 -0.0019545965
0001b0 0e a9 17 3c 1a 19 db bb 97 9b 33 3c fd ab 49 3c
       0.009256614 -0.006686342 0.0109623885 0.012309072
0001c0 19 fc 98 3b 0f 62 7d 3c 03 1b 7a bc e8 09 fe ba
       0.0046687243 0.0154652735 -0.015265229 -0.0019381614
0001d0 a6 af 28 3c d5 29 f0 bb 1d 31 46 3c d6 a0 97 bc
       0.010295784 -0.0073292055 0.01209667 -0.01850931
0001e0 a0 dd 9e 3b fc f9 c6 3b bc 85 91 3a f2 f8 08 3b
       0.004848197 0.006072281 0.0011102478 0.0020900336
0001f0 d8 61 45 bc ab 07 8a bc e0 0f fb bb 13 29 28 3c
       -0.012047254 -0.01684936 -0.0076618046 0.010263699
