Assets/2Fight.onnx (onnx, 283124 bytes, 10 tensors)

68 f4 [11]
000000 0f d7 6a 41 0d 80 fb 40 ff ce c8 3f 24 d7 c4 3f
       14.677505 7.859381 1.568817 1.5378156
000010 ab 03 c7 3f 87 a4 c4 3f 59 b1 6e 41 8c 9c 03 41
       1.5547994 1.536271 14.918298 8.225719
000020 43 97 cb 42 34 d5 9c 41 a6 e1 cc 42
       101.79543 19.604103 102.44072

action_model._continuous_distribution.log_sigma f4 [1, 3]
000000 c4 9a bb 3a 57 ff 08 bd 7c 3e c9 bd
       0.0014313092 -0.033446636 -0.09826371

action_model._continuous_distribution.mu.bias f4 [3]
000000 f8 a5 0e bc c7 f3 52 bb 2c 2d 45 bc
       -0.008706562 -0.003218876 -0.012034696

action_model._continuous_distribution.mu.weight f4 [3, 256]
000000 4b 1e 3a 3b 02 1f 5a 3b fc 57 67 bc bf 29 30 bc
       0.0028399404 0.0033282642 -0.014120098 -0.010752141
000010 d4 ef c5 bc f4 fc 82 bc 16 1e 41 3c 38 06 be ba
       -0.02416221 -0.015989758 0.011786958 -0.0014497703
000020 e2 15 f0 3c 08 70 05 3b ae 42 7c bc 1e 16 8f 3c
       0.02930731 0.0020360965 -0.015396757 0.017466601
000030 f7 4c 6a 3b a5 f3 d3 3c ad 0b 4e bc 91 b7 1f 3c
       0.003575144 0.025873015 -0.012576026 0.0097483555
000040 64 a9 c0 3b 42 a3 87 bc d4 0e 08 3a 2d a3 79 bc
       0.005879568 -0.01655734 0.0005190198 -0.015236658
000050 67 f7 55 3c c8 31 cc bc 2b 97 88 bc 3b e7 e2 3b
       0.013059474 -0.024926081 -0.016673645 0.0069245375
000060 24 0a ec 3c ab 54 10 3c b4 4a 91 bc 02 77 ca 3c
       0.02881343 0.008809249 -0.017735817 0.02471495
000070 a6 1a 0b bc f8 5f af bb 34 0f 48 bc 90 dc 8b bc
       -0.00849024 -0.0053520165 -0.012210656 -0.017072946
000080 80 a8 29 3c d1 f1 01 3c 85 25 4c bc 37 8b 37 3c
       0.010355115 0.007931189 -0.012460117 0.011202625
000090 52 e1 83 bb 87 f7 d7 3c fc aa 18 bb a8 23 b9 3c
       -0.004024663 0.026363147 -0.0023295274 0.02260001
0000a0 08 e5 3e bc 87 16 b2 bb bf 01 aa 3c 24 30 80 3b
       -0.011651285 -0.0054348144 0.020752786 0.003911989
0000b0 75 89 3e 3c c3 69 15 bc 85 8f 4a bb 71 66 cf bb
       0.011629452 -0.009119454 -0.0030908298 -0.0063293506
0000c0 11 75 21 3c d6 9e bc bb a7 77 0f 3d 13 e9 6d 3c
       0.009854571 -0.0057562394 0.03502622 0.014520901
0000d0 6c df eb 3b 03 6e e6 bc 04 36 cc bb df 32 80 3c
       0.007198265 -0.02812863 -0.006232025 0.015649257
0000e0 e1 a3 8f ba 68 95 22 bc d6 e8 0a 3c 67 eb 9f bb
       -0.0010958874 -0.009923317 0.008478364 -0.004880357
0000f0 33 2a 56 bc 56 6f 04 3c 00 d8 81 bc 94 60 48 3c
       -0.0130715845 0.008083185 -0.015850067 0.012230057
000100 7a 24 3b bc df a7 03 3c 18 6e 06 bc 13 3a eb bc
       -0.011422271 0.008035629 -0.008204959 -0.028714215
000110 fd a4 74 3b 3a e8 08 3d e1 f9 68 3b 3e 14 03 3c
       0.0037329786 0.033424594 0.003554933 0.008000432
000120 cc 22 22 bc 85 bf a7 bb b5 37 fc bb 78 2e fa bc
       -0.0098959915 -0.0051192665 -0.0076970705 -0.030539736
000130 20 41 a7 3c 8b 54 45 3c ef 1c cd 3b 7b 99 18 bd
       0.020416796 0.012044082 0.0062595527 -0.037255745
000140 75 98 53 3b 4b 6c d9 bc 20 88 a7 bc a1 16 85 bc
       0.0032286916 -0.026540896 -0.020450652 -0.016246142
000150 d9 0c 74 bc d9 84 f7 bc a1 54 42 bc 32 a3 7c bc
       -0.014895641 -0.030214714 -0.011860997 -0.015419768
000160 23 2e 99 bb f9 80 11 3d e7 d7 7e 3a 58 a5 cc 3b
       -0.0046746894 0.03552339 0.0009721503 0.0062452964
000170 c8 01 ae bb d2 b9 1b bc 3c b0 0d bd 22 68 ba bb
       -0.005310271 -0.009504752 -0.0345919 -0.005688683
000180 4a f9 a6 3b 87 dc c0 3a 4f 67 ad bb 5d dc 21 bd
       0.0050956355 0.001471416 -0.0052918564 -0.039516795
000190 87 8c ca bc e8 93 b7 3b 18 45 b5 ba e4 00 35 bc
       -0.024725212 0.0056023486 -0.0013829796 -0.011047576
0001a0 04 92 0c 3b d8 94 00 bc 63 12 30 bb 2e b7 90 bc
       0.0021449337 -0.007847987 -0.0026866428 -0.017665472
0001b0 ba 1e 65 3b 71 4d ba bc b3 87 21 bc 95 1c df 3b
       0.0034960941 -0.022742005 -0.009859013 0.006808827
0001c0 d3 eb cb bb b5 8e 44 3b e0 ed 52 3c 03 eb c7 bc
       -0.006223181 0.0029992287 0.012874097 -0.024404055
0001d0 1e 4e 76 39 d8 d2 ed 3c 12 60 ab ba 71 0e 1d 3c
       0.00023489489 0.029031202 -0.0013074896 0.009585963
0001e0 fb ae 61 3b 9e 5a a3 39 89 93 8c 3c 57 fa 45 bb
       0.0034436572 0.00031157298 0.017160194 -0.0030209029
0001f0 6c 86 67 3c 94 75 7c bc d0 c0 f6 bb 6b bc b2 3b
       0.01413117 -0.015408892 -0.0075303093 0.00545459
000200 11 0c c2 3c ba d4 02 bd df da 14 3c 1e b9 a1 bc
       0.023687394 -0.031941153 0.009085386 -0.019741591
000210 93 3f eb bc e4 fa fa b9 9d ab 04 bc 98 d2 5e bc
       -0.028716838 -0.00047870644 -0.008097556 -0.013600014
000220 ed 8a ce 3a eb dd 61 3c 8b be 6d bc e9 b1 54 3c
       0.0015757956 0.0137858195 -0.014510761 0.01298187
000230 c4 c5 88 3b 43 5f bc bc 1f 54 9b bc c7 b3 06 3c
       0.004173966 -0.022994643 -0.01896101 0.008221573
000240 b9 08 19 bc c1 75 a2 3c 7f 91 c0 3b f6 c4 0d bc
       -0.009340459 0.01983154 0.0058767195 -0.008652916
000250 d4 23 34 bd e1 b3 40 bb 24 4d 6d 3b 85 f6 95 bc
       -0.04397948 -0.0029404091 0.003620931 -0.018306026
000260 0c 22 07 3c 9d 05 8f 3c 02 fd b9 bc bb a4 ba bb
       0.0082478635 0.017458731 -0.022703651 -0.005695907
000270 c7 1c 9e 3b 6e cc ba bc 13 67 c4 bc 34 ec 1f 3c
       0.004825208 -0.022802558 -0.02397493 0.009760905
000280 39 cb 20 bb 9f 3e e8 3c ed 3c c4 3c 26 e6 b4 bb
       -0.0024535193 0.028350173 0.023954833 -0.0055206
000290 28 29 70 3b f2 37 93 bc 91 bb 42 bc 56 38 aa bc
       0.0036645625 -0.017971013 -0.01188554 -0.020778816
0002a0 3e 02 53 b9 a7 20 86 3c 2b 8b 6e bb f1 3a 33 3c
       -0.00020123363 0.016372992 -0.0036398869 0.010939346
0002b0 e3 43 c3 bb b7 f4 61 3b c3 c1 c5 bb 0e ce a2 bc
       -0.0059590205 0.0034478137 -0.006035061 -0.019873645
0002c0 7e 32 2c bc 40 cc 14 ba 3d 57 cb b9 f5 81 71 bc
       -0.010510085 -0.00056761876 -0.00038784175 -0.014740457
0002d0 f8 08 04 bc c3 30 e7 ba 20 cd d4 3a 96 c1 2f 3c
       -0.008058779 -0.0017638433 0.0016235448 0.010727307
0002e0 9b 46 c8 3b af 06 93 bc 14 df b3 3b 57 9c a1 bb
       0.0061119325 -0.017947523 0.0054892395 -0.0049319672
0002f0 7a be f1 bc a5 90 f0 3b 06 d8 21 bb 91 1d f5 3b
       -0.029509772 0.0073414617 -0.002469541 0.007480331
000300 d6 38 8e 3c 32 36 c1 bb 9e 46 b3 3c 4c 10 6d bc
       0.017361086 -0.005896353 0.021884259 -0.0144692175
000310 68 bf 35 bc 96 e3 9e bc f9 e9 69 3c cd 4e 29 bc
       -0.011092998 -0.01939563 0.014276975 -0.010333729
000320 0b 40 db bc ef 05 fb bc ba 8b 9d b8 9f 7b 3d 3b
       -0.026763937 -0.030642478 -7.5123695e-05 0.0028912795
000330 03 24 87 bc 30 c2 32 3c 6d 21 8a bc 8f 58 bc 3b
       -0.016496664 0.010910556 -0.016861642 0.0057478617
000340 67 c3 9e 3a 4a 87 3e bb 3b 7c be bc df 2a 96 3c
       0.0012112678 -0.0029072338 -0.023252597 0.01833099
000350 68 b0 cc 3b f7 c7 9f 3c 5d 28 11 ba ef 2e 88 3b
       0.006246615 0.01950453 -0.00055373256 0.0041559855
000360 0f eb 98 bc db 03 46 bc 0c 0d b0 3a 7b 3d 14 bb
       -0.018666772 -0.01208588 0.0013431623 -0.0022619653
000370 91 33 cf 3c 24 4b aa bc 0f 0d 4c 3b 2c 17 d3 3b
       0.025293143 -0.020787783 0.0031135713 0.0064419713
000380 d2 0f d0 3b af 61 20 bd 5f 57 a6 3c c5 de 8f 3b
       0.006349542 -0.03915566 0.020305334 0.00439057
000390 3a 1f c9 ba cb 87 05 bd 9c 16 ee bb 0c 68 59 3b
       -0.0015344389 -0.032600205 -0.007265879 0.003317359
0003a0 29 1e 07 bc 3f 23 22 3d 4e de ad bc f1 7e 69 3c
       -0.008246937 0.039584395 -0.021224167 0.014251457
0003b0 d2 e1 41 bc b1 08 a9 3c a8 b6 00 bd 16 2e 6b bb
       -0.011833625 0.020634027 -0.031424195 -0.0035885624
0003c0 67 74 0f 3b 61 4e a0 3c f0 cb 61 bb ac ef e1 b9
       0.002188945 0.019568624 -0.0034453832 -0.00043093914
0003d0 04 dd 59 bc 27 96 a5 3c 33 7f dc 3b 92 8f bb bb
       -0.013297323 0.0202132 0.0067290305 -0.005723902
0003e0 a0 ee 86 b9 50 02 89 bb d1 03 18 3b ad 3f aa bc
       -0.0002573626 -0.004181184 0.0023195634 -0.020782316
0003f0 6d be 51 bb ad 7c 3f 3c ea e3 50 bb ef 67 0e bd
       -0.0032004372 0.01168744 -0.0031874129 -0.034767088

action_model._discrete_distribution.branches.0.weight f4 [1, 256]
000000 d2 29 d8 3b 88 0b 6a bb 9d 45 35 bb 0c f5 24 bb
       0.0065967822 -0.003571244 -0.00276599 -0.0025170473
000010 a3 48 60 3c 70 50 21 3b 7e 2a 40 3b 1d b9 de bb
       0.013689193 0.0024614595 0.0029322202 -0.0067969696
000020 6d 96 86 3a 50 9b 11 3c fc 31 1d 3c 0f e0 e5 bb
       0.0010268219 0.008887127 0.009594437 -0.0070152353
000030 80 d0 ec 3b cd 05 19 bb 5d 6d fe 3b f2 32 9b bb
       0.0072270036 -0.0023349405 0.007764502 -0.0047362978
000040 67 49 42 bb 32 b9 a3 bb 0f 89 fa bb bf 69 6c bb
       -0.0029645802 -0.0049964422 -0.007645733 -0.0036073772
000050 57 a7 50 3b 9e 5e 83 3b 9b fd 02 3a 5d b0 44 b9
       0.0031838024 0.004009082 0.00049968966 -0.00018757717
000060 6b ce 22 bb 2a f7 ee bb 98 ee fb 3b e2 cb ea ba
       -0.0024842273 -0.007292648 0.0076883547 -0.0017913545
000070 13 6c c0 3b 55 d0 d3 3b 03 de c1 39 48 9c fb 3b
       0.0058722585 0.006464044 0.0003697724 0.0076785423
000080 f8 f9 9e bb 01 58 09 bc 88 d8 4c bb 8a aa 7b ba
       -0.004851576 -0.008382798 -0.0031256992 -0.00096003024
000090 a0 31 77 bb 15 df 81 bb 8c 1a 0c bc 5b 60 ca 3b
       -0.0037718788 -0.003963361 -0.008551251 0.0061760372
0000a0 b3 20 65 bb be cd c0 bb c3 8a 16 ba f0 76 ab 3a
       -0.0034962117 -0.0058839014 -0.0005742723 0.0013081711
0000b0 fd f1 e2 bb bb 82 61 bc d3 d4 a3 bb e3 1e 23 3b
       -0.00692582 -0.013764079 -0.004999736 0.0024890236
0000c0 b3 2e 8d 3b 05 88 51 3c 07 2d 6d 3a e9 3a 2d 3b
       0.0043085455 0.012788777 0.0009047542 0.0026432818
0000d0 fb 0c 5a b9 5f d6 9c bc f5 ec d2 3a 5f 30 eb 3b
       -0.00020794936 -0.019145189 0.0016092347 0.007177397
0000e0 7a 15 91 bb 9c 30 88 bb ab 30 97 3a ed ff 2d bb
       -0.004427609 -0.0041561853 0.001153489 -0.0026550249
0000f0 91 19 a9 3a 1f 1f 2b bc c5 1b d8 bb db 68 d0 3b
       0.0012901296 -0.010444432 -0.0065951073 0.006360156
000100 cf 70 67 3a e0 b7 2e bc 2b 8d 13 3b 5f f9 44 bb
       0.00088287605 -0.010663956 0.0022514563 -0.0030055863
000110 22 f4 94 3b 16 11 8f bb 1b 61 fc ba cd eb c8 3a
       0.0045457045 -0.0043660505 -0.0019255014 0.0015329063
000120 37 ad 29 3a 85 4c f1 ba c0 5e 65 3b 3c 27 9c ba
       0.00064726494 -0.0018409645 0.0034999102 -0.0011913548
000130 3b 08 9f 3b 86 aa 3a 3b 40 f7 a5 3a 44 69 0e 3b
       0.004853276 0.0028482988 0.0012662187 0.0021730224
000140 73 7f 2b 3b 23 7d 07 3a 07 71 58 39 03 f5 ed b8
       0.0026168495 0.0005168488 0.00020641471 -0.00011346678
000150 a2 0a 24 ba da 21 a8 3b 4e af 3e 3c b1 ee 83 3b
       -0.0006257688 0.0051309885 0.011638476 0.004026257
000160 cf f9 c2 bb 9e d7 0a bc 30 0a 01 3c d7 b3 13 3c
       -0.0059501897 -0.008474259 0.007875964 0.009015045
000170 f1 16 49 3b 6f e8 2b 3c b5 c3 dc ba e6 26 1e bb
       0.003068384 0.010492428 -0.0016842993 -0.0024132072
000180 2f f6 19 bc 5f c6 3c 3c 0d 0d 9c ba 49 de 81 39
       -0.009397074 0.011521905 -0.0011905745 0.00024770413
000190 9f eb 64 3b 33 a7 14 3a 30 46 0b 3b 54 3a 22 bb
       0.003493048 0.00056706666 0.0021251552 -0.0024754005
0001a0 07 d3 23 3c 00 ed cc 3b 19 e0 a2 b9 5f 3d 10 bc
       0.009999043 0.0062538385 -0.00031066014 -0.0088036945
0001b0 91 e3 bf bb ba 9f 51 3b f3 11 59 3c 93 a5 d4 bb
       -0.0058559855 0.0031986074 0.013248908 -0.0064894645
0001c0 bd 78 61 bc b3 fd 91 bb 1c 0d 3c 3a af 38 0a 3c
       -0.013761696 -0.004455292 0.00071735843 0.008436366
0001d0 4c bf a1 3b 72 05 f1 ba 6c df 27 3b 5f 35 67 bb
       0.0049361344 -0.0018388464 0.0025615348 -0.0035279614
0001e0 5d 63 ff b9 29 55 a6 3b c5 aa ec 3b ff c0 9d bb
       -0.00048711422 0.00507607 0.0072225058 -0.0048142667
0001f0 27 da 7a bb ea 13 08 3b 07 37 0e 3c 81 12 b6 3b
       -0.0038277002 0.0020763823 0.008680112 0.005556405
000200 25 e8 a2 3a e3 b3 3f 3a 4b 43 66 3b b3 35 74 3c
       0.0012428804 0.0007312877 0.0035135325 0.014905381
000210 ab 18 7c bb 5f c5 6d 3b c5 13 e5 b9 7f 7e ce 3b
       -0.0038466852 0.0036280972 -0.00043693013 0.0063017006
000220 00 11 36 bb 0b 47 fc 3a 7b 84 07 3c a3 25 69 3b
       -0.002778113 0.0019247247 0.008271332 0.0035575412
000230 81 cd 27 3c a7 a4 8c 3b 3b 8b f8 ba 6f be a7 ba
       0.010241867 0.004292089 -0.0018962392 -0.0012797843
000240 40 26 f2 ba 2c 83 2a 3c 7b 98 1e bc fb f0 24 ba
       -0.0018474534 0.01040725 -0.009679909 -0.00062920124
000250 b7 15 b5 39 c0 f5 3a bc 05 cb fb 3b 63 a2 f6 b9
       0.0003453919 -0.01141113 0.007684114 -0.00047041764
000260 ba 99 00 bc f2 8f af bb 12 42 6f bb 62 cb 3f 3c
       -0.007849151 -0.005357736 -0.0036507887 0.011706205
000270 d7 cc fb 3b 90 ed e3 39 81 b1 3c ba 8b 6a 6c bb
       0.007684331 0.00043473812 -0.0007198081 -0.0036074247
000280 e7 fd 26 3c ef c5 23 3c f9 c6 17 3a 51 ff ab 35
       0.010192371 0.0099959215 0.0005789842 1.28148e-06
000290 3f 2a 3e 3b a9 49 9d 3a 72 40 9d 3c 70 d1 70 bb
       0.002901688 0.0012000102 0.019195769 -0.0036745928
0002a0 c2 f3 03 3c f0 63 65 3b 33 eb 7b 39 d7 8d cc 3a
       0.008053722 0.0035002194 0.00024024844 0.0015606236
0002b0 78 a3 19 b9 03 bd fc ba ff e6 9b 39 ef c9 d3 3a
       -0.00014652114 -0.0019282404 0.0002973601 0.0016158203
0002c0 a5 6b 13 3b 2e a6 46 ba df f3 60 bc bb 2a 0a 3c
       0.002249458 -0.0007577863 -0.013730018 0.008433039
0002d0 1e e7 2a bc fc 21 90 bb 8b 07 1c 3c eb 6d ef 3b
       -0.010431079 -0.0043985825 0.009523283 0.0073068044
0002e0 a3 71 20 3b 17 98 57 bc 65 3e 42 3a ba e0 a0 3c
       0.0024481795 -0.01315882 0.000740981 0.019638408
0002f0 f2 92 01 3c 75 aa ff ba a7 f3 45 bc 8b 61 05 bb
       0.00790857 -0.0019505756 -0.012082017 -0.002035233
000300 d1 f4 2c 3b e7 25 32 3c 43 e6 0f 3a 06 e3 ae ba
       0.002639104 0.010873294 0.0005489329 -0.0013342805
000310 6f d3 8b 3b a2 93 20 39 73 19 3f 3a 7c 2e 1f 3c
       0.004267148 0.00015313787 0.0007289864 0.009715673
000320 a0 2d 71 3a 2b 45 ae b7 b1 d8 b6 bb a3 af fe 3a
       0.0009200219 -2.0774625e-05 -0.005580031 0.0019431006
000330 00 b8 45 bb 51 19 13 bb cf ac 26 bb 5d 3d d2 3a
       -0.0030169487 -0.002244551 -0.0025432592 0.0016040016
000340 d3 e5 59 bb 6b 46 ca bb 59 58 80 bb 17 e6 bd 3b
       -0.0033248558 -0.0061729453 -0.003916782 0.005795251
000350 d2 c9 d4 bb be ee b1 3a 2f f1 5e bc 43 34 01 3b
       -0.0064937854 0.0013575179 -0.013607307 0.0019714988
000360 3c 1b 38 bb 9b f0 b8 bb 5c 83 08 bb ca fd 11 bc
       -0.0028092405 -0.005643917 -0.002083025 -0.008910606
000370 4a a6 94 3b 8f ec 01 3c 4f 84 11 3c fa 6d ab 3a
       0.0045364248 0.007929935 0.0088816425 0.001307904
000380 d2 bf ef 3b 74 6d 37 bb e7 17 00 3b 5a 5c 01 ba
       0.007316568 -0.0027988823 0.0019545497 -0.0004934721
000390 77 82 46 ba ae 9f c6 bb 92 14 e9 bb e7 f0 1d b9
       -0.00075725414 -0.006061516 -0.007113048 -0.0001506243
0003a0 05 8a d6 bb 26 cc 1f 3a 03 e6 2f bb 93 8c 80 3a
       -0.006547215 0.0006095789 -0.0026839979 0.0009807519
0003b0 e3 1e 84 ba b3 24 48 3c d1 7f 88 bb e6 67 90 3a
       -0.0010080006 0.012215781 -0.0041656275 0.0011017292
0003c0 48 4a f3 ba 1f bf 41 bb 83 5e fc b9 c8 71 cd 3b
       -0.0018561566 -0.002956338 -0.00048135602 0.0062696673
0003d0 1b 9b 68 bb 87 19 40 bc 88 e2 aa 3b 58 da f5 bb
       -0.003549284 -0.011724836 0.005214993 -0.0075028352
0003e0 0f 02 b7 bb 7f 0a 8c 3b ab 7f 42 3b 2a cb 15 bb
       -0.005584962 0.004273712 0.0029678147 -0.002285669
0003f0 b1 b2 82 3b ad fe cb 39 7d d7 d4 3b 0e 47 10 3b
       0.003988587 0.00038908925 0.006495415 0.0022015008

network_body._body_endoder.seq_layers.0.bias f4 [256]
000000 ac 9f 97 3c c8 f1 49 bc 34 18 05 3d a1 00 14 3d
       0.018508755 -0.012325712 0.032493785 0.036133412
000010 49 a6 5f 3b 20 0c cb bc 8e e3 a3 3a e3 75 5b 3c
       0.0034126213 -0.024786055 0.001250373 0.013394806
000020 e3 33 14 bc 29 3c 6e bb b0 06 2e 3c 6d d5 bf 3c
       -0.009045574 -0.0036351776 0.010621712 0.023417199
000030 76 52 b0 3c 3f 8e 78 3c 0e 9b 0a bb d2 42 8e ba
       0.021523695 0.015170633 -0.0021149549 -0.0010853654
000040 dd 70 f5 ba c0 f7 5a 3c bb d1 a2 bb 48 37 14 3d
       -0.0018725652 0.013364732 -0.0049688495 0.036185533
000050 99 dd b2 3c ee 2b 50 3c 6f 06 aa 3c 8b e2 35 3d
       0.021834182 0.012705786 0.02075502 0.0444055
000060 8e 4d fa ba 13 d9 f8 3c 69 76 be 3c 87 89 49 3c
       -0.00190966 0.030376947 0.023249822 0.0123008555
000070 e4 50 6d 3c 7b 7b 33 3d ef f3 80 3c 8d 58 71 3a
       0.014484618 0.043818932 0.015741317 0.00092066155
000080 5e ff 6b 3c ce 9c ee 3b de 1e 84 3c 98 31 97 b9
       0.014404146 0.007281876 0.016128 -0.00028837915
000090 14 84 cd bb 8d 84 f6 3b fa e8 ba 3c 88 d6 ac 3c
       -0.0062718485 0.0075231255 0.02281617 0.02109839
0000a0 7a 75 ce 3c 10 bc 37 bb dd eb 45 3c f2 71 00 3d
       0.025202502 -0.0028035678 0.01208016 0.031358667
0000b0 56 a1 2d 3c 0b c0 c2 3c ad 05 5c 3c 74 03 cb ba
       0.0105975475 0.023773214 0.013429088 -0.00154887
0000c0 f8 5c 3f 3b f5 d6 c5 3c 84 ff 87 3c 87 7a 35 3c
       0.00291997 0.024150351 0.016601332 0.011076576
0000d0 ee 34 dd 3c 99 00 80 3c db d4 fa bb cd e5 88 bc
       0.027002778 0.015625285 -0.007654769 -0.01671114
0000e0 c3 56 2e 3c bf 5c 44 bc bb ff 08 3d e4 fb f5 3c
       0.010640803 -0.011985003 0.03344701 0.030027337
0000f0 d5 b0 22 3c 24 f5 04 3c 61 74 8d 3c d8 4e 1a 3c
       0.009929855 0.008115087 0.017267408 0.009418212
000100 62 01 f1 3b 67 e5 81 3c 5d 2c 0c 39 4f 84 08 3c
       0.007354901 0.015856458 0.00013367967 0.008332326
000110 db 65 bb bc f2 8d a3 3c b5 98 0f 3c a2 b7 9f 3b
       -0.022875717 0.019965146 0.008764436 0.0048741857
000120 fc ad 94 3c c7 36 90 3c c9 24 c0 3c e8 2b 21 3d
       0.018149368 0.017604245 0.02345504 0.039348513
000130 2f 89 29 3d 56 25 98 3b e1 5b e6 3b 35 ae 2e 3c
       0.041390594 0.0046431227 0.007029996 0.010661651
000140 b1 98 bd 3b e6 f3 00 bc c5 a6 bf bb 5c 1e c8 3c
       0.0057860245 -0.00787065 -0.005848738 0.024428539
000150 54 4d 86 ba 31 b0 2d 3c 28 cb 03 3c 10 85 3e 3c
       -0.0010246434 0.010601089 0.008044042 0.011628404
000160 d5 d6 98 bb fb 59 1f 3c bb c6 55 bc 70 8b 1c 3d
       -0.004664282 0.009726043 -0.013047869 0.038218915
000170 cf b9 1d 3d 63 f1 5e 3d 12 0e f1 3c 1a e9 43 3b
       0.03850728 0.054429423 0.029425655 0.0029893578
000180 f5 fb d9 bc b0 86 ac 3b e6 6d 01 3d 38 eb 05 bc
       -0.0266094 0.0052650794 0.031598948 -0.008173756
000190 f9 aa 9a 3c 2f b8 89 3c 78 c7 8d 3b 66 52 90 3c
       0.018880354 0.016811458 0.004326757 0.017617416
0001a0 b6 06 29 3d 2f 52 04 3c f1 ff 56 3c 1a 54 32 3c
       0.041266166 0.008076235 0.013122545 0.010884309
0001b0 23 fa b3 3b a2 bb c8 3c b5 24 22 3d 8b 3d 0b 3d
       0.005492465 0.024503533 0.039585788 0.03399424
0001c0 64 7a 82 bb 1c 88 e3 3c 9b e2 62 3b f8 74 40 3d
       -0.0039818753 0.027774863 0.003461993 0.04698655
0001d0 d9 57 48 3c 28 2e 94 3b 55 a4 b9 3c a2 af 66 3c
       0.012227976 0.004522104 0.022661367 0.01407996
0001e0 ab 4f 15 3d 27 4a 86 3c 12 a8 b8 3b 8a 67 bd 3c
       0.03645293 0.01639278 0.00563527 0.02312066
0001f0 c7 b8 39 3d d1 2d af 3c ed c9 e2 3a 5f ad 29 3d
       0.045342233 0.021384152 0.001730261 0.041425105
000200 cf 47 06 3b 0e 0f 0d 3d 20 f8 03 3d 43 07 72 3c
       0.0020489579 0.034438185 0.032219052 0.014772239
000210 5c f0 29 3d 01 6c 58 bc 42 38 96 ba 62 e8 27 3c
       0.04148899 -0.013209344 -0.0011460858 0.0102482755
000220 90 72 08 3c ff dd bf 3c a3 74 93 3c d7 dc 23 3c
       0.008328095 0.023421286 0.017999953 0.010001383
000230 1c 17 f1 3c 2c a1 73 3c 4b 4c 44 bd db a4 07 3d
       0.029429965 0.014869969 -0.04792432 0.033116203
000240 d5 75 4c 3d 66 48 8e 3c aa f8 30 bc be 31 70 3c
       0.04991706 0.017368507 -0.010801474 0.014660297
000250 fb 60 e5 3c dc 0a 44 3c c9 76 08 bc 48 ac 8a 3d
       0.028000345 0.01196548 -0.008329102 0.06771141
000260 0c a0 a5 bc bc 22 a7 3c ae 75 da 3c d6 1a b0 bc
       -0.020217918 0.020402305 0.026667442 -0.021497171
000270 2b 18 73 3c b7 cb 5c 3b 16 ee 59 3c 6b 70 27 3c
       0.014837305 0.003369076 0.013301393 0.010219674
000280 20 a7 17 3d ce 9b 2f 3b e3 93 b1 3c 7d bb a6 3c
       0.037024617 0.0026795748 0.021676963 0.020353073
000290 96 9f 70 3c 56 94 f9 3c 93 40 38 3b ac 17 9c 3c
       0.014686486 0.03046624 0.002811466 0.019054256
0002a0 13 e8 c2 3c c7 cb 02 3d 53 72 dd 3c af 15 11 3c
       0.023792302 0.03193262 0.027032053 0.008855267
0002b0 4f 37 a4 3c 01 f6 8b bc a4 dc 36 3c 78 1f 79 bb
       0.020045904 -0.017085077 0.011161003 -0.0038013142
0002c0 06 7f d3 3b c2 6d 47 3c c0 dd bb 3c 61 b0 d9 3b
       0.0064543514 0.012172164 0.022932887 0.0066433405
0002d0 7b 7d 48 3c 21 95 e4 3c 14 61 6e 3c 94 51 d2 3c
       0.012236948 0.027903141 0.014549512 0.025673665
0002e0 08 8a b0 3c 84 ea b4 ba e4 a0 9d 3b 9e 53 8e 3c
       0.021550193 -0.0013802801 0.0048104394 0.017373856
0002f0 ba 10 01 3c ad 31 bd 3c 39 04 20 3c 62 75 6f 3c
       0.007877523 0.023094976 0.009766632 0.014615389
000300 33 3a fe 3c a2 bb a9 3b 1f f3 94 bb 9c 67 03 3d
       0.03103361 0.0051798383 -0.004545584 0.03208123
000310 4b 67 db 3c 34 2b 47 3c a4 27 16 3d 27 e7 4b 3d
       0.026782652 0.0121562965 0.036658898 0.04978099
000320 f4 a2 ec bb b8 be 47 3d 21 43 a0 3c 8c f8 55 3c
       -0.007221574 0.048765868 0.01956326 0.0130597465
000330 eb b9 ed 3c c8 14 c5 3c 23 96 2a ba 0c 31 90 3b
       0.029019317 0.02405776 -0.00065073575 0.004400378
000340 2e 69 9c 3a e0 70 22 3b c4 61 62 3c dc 8c 76 3d
       0.0011933201 0.0024786517 0.013817254 0.060192928
000350 4c b3 1a 3c 9f ff 02 3d eb 85 1c bc c4 89 66 3c
       0.009442162 0.03198206 -0.009553413 0.014070932
000360 ae 8a 8b bc c0 c6 32 3d 20 7a 02 3d 5c 01 e1 bc
       -0.017033901 0.043646574 0.03185475 -0.027466469
000370 69 e3 15 3d cb 48 8f bc 74 cc 25 3d 04 b3 2a bc
       0.03659383 -0.017490765 0.040478185 -0.010418657
000380 29 a7 b2 3c 6d 58 ae 3c 38 cb 91 ba 51 17 ea 3c
       0.021808224 0.0212824 -0.0011123186 0.028575571
000390 4b 36 f4 3c 58 21 2e bb 58 5a 15 3d f8 a7 d3 3c
       0.029811045 -0.0026570167 0.03646311 0.02583693
0003a0 94 20 d9 3c a7 b1 8b 3c b2 91 94 3c 55 08 be 3c
       0.026504792 0.017052485 0.01813588 0.023197332
0003b0 25 36 15 3b 27 e0 5c bc 1f c8 f9 bb 63 11 95 3c
       0.0022767868 -0.013481176 -0.0076227332 0.018196767
0003c0 18 e6 96 3b eb db 2d 3d b2 eb d2 3c 1a 52 5b 3c
       0.004605066 0.04244606 0.025747154 0.013386274
0003d0 00 b0 a0 3b 0a c2 12 3b b1 43 01 3d b7 6d 8e 3c
       0.0049037933 0.0022393488 0.031558696 0.0173863
0003e0 b5 1f b5 3c bb c4 97 bb 29 e4 d4 bc 8e ec 8d 3c
       0.022109846 -0.0046316064 -0.025987701 0.017324712
0003f0 de d0 ae 3b 75 35 e1 3c cf a4 1d 3c 75 48 94 3c
       0.0053349575 0.02749131 0.009621813 0.018100956

network_body._body_endoder.seq_layers.0.weight f4 [256, 11]
000000 74 04 dc 3d 8c b7 b4 3e c7 f0 3b 3f fc 65 2c bf
       0.10743037 0.35296285 0.7341427 -0.67343116
000010 07 52 0b bd 35 a3 50 3e 6b b2 14 3e 32 4a 84 bd
       -0.034013774 0.20374759 0.14521186 -0.06459464
000020 25 2f f2 3e ab ca 22 be f8 1b a6 bd ac c0 79 3d
       0.47301593 -0.15897624 -0.08110803 0.06097476
000030 0e d1 12 3f cb 8c 1e be 02 d0 ed be 2a c5 1c 3f
       0.5735024 -0.15483396 -0.4644776 0.6123835
000040 d6 4f 94 3e 18 ee 2c be 7d ec 21 bb 44 5a 2b 3d
       0.2896716 -0.168877 -0.0024707608 0.04183413
000050 99 b3 65 3e a9 49 fb 3c 5a 97 28 3e 9b 87 1a bf
       0.22431792 0.030674772 0.16463986 -0.6036317
000060 f5 3c 18 bc 5b 22 a2 be 36 1f 50 3e f2 25 1c 3d
       -0.009291877 -0.31666836 0.20324406 0.038122125
000070 21 08 86 3b d0 34 58 be bb 64 04 bf f6 93 36 bd
       0.0040903245 -0.21113896 -0.517162 -0.0445747
000080 38 78 95 3c 1e 83 8b bf 38 00 78 bd c1 52 9a 3e
       0.018245801 -1.0899389 -0.060547084 0.3014126
000090 94 ea 81 3e ac d9 8a 3e 1e b4 cf bd 3b cb 50 3a
       0.2537428 0.27119195 -0.101417765 0.0007964854
0000a0 89 d3 2b be 12 d4 0c 3f 5c 20 ea be aa 3d a1 3e
       -0.16779913 0.55011094 -0.45727813 0.31492358
0000b0 ef 68 5d be 12 f2 c0 3d 44 27 1d 3f 49 9e 81 be
       -0.2162206 0.09421171 0.6138804 -0.25316074
0000c0 ee 65 a0 3e e0 8a 26 be e7 5d 73 3d 9f e5 fc be
       0.31327766 -0.16263914 0.059415724 -0.49393937
0000d0 d8 1f a4 bd 5d 17 5a bc 9e 43 cd 3d 67 4b 8a be
       -0.08013886 -0.013311234 0.100226626 -0.27010652
0000e0 93 b1 fc bd 91 d3 3d 3e e8 70 3e 3e 36 a1 d4 bd
       -0.12338557 0.18537737 0.18597758 -0.10382311
0000f0 23 6b 23 be 58 0a 8b be 66 a7 db bd e4 7c c5 be
       -0.15958838 -0.2715633 -0.10725288 -0.38571846
000100 b5 e8 9b 3e 1f 4d 4e bf 23 db 21 bf b9 14 b3 3e
       0.3045098 -0.8058643 -0.63225 0.34976748
000110 11 08 b8 bd 35 bd c4 3e f8 97 a8 be ed 33 01 bf
       -0.089859135 0.38425604 -0.32928443 -0.5046986
000120 b2 c6 4b 3e 75 02 30 be 44 19 a0 3e e5 bb bc be
       0.19900015 -0.17188437 0.31269276 -0.36862102
000130 e7 76 ac be 2f 15 bb be 53 02 0a be b6 81 93 bd
       -0.33684465 -0.365396 -0.13477449 -0.07202475
000140 3c fa 53 be 91 ad 88 3e be 37 12 bd 5b 4a 3e be
       -0.20700926 0.2669492 -0.03569769 -0.18583052
000150 7c 8f 6a 3a 77 7e 56 bd a5 c5 4c bf d5 95 75 3d
       0.00089477724 -0.0523667 -0.7998908 0.059957344
000160 ad cb 02 3d 09 ba a6 bc f7 eb df bd 67 ab 41 3e
       0.03193252 -0.02035238 -0.109336786 0.18913041
000170 43 92 68 be 5b f3 2a be 17 b2 2c 3e e8 0c 7e 3d
       -0.22712044 -0.16694395 0.16864811 0.062024027
000180 f2 4c 06 be 4d da 5f bf 49 14 3d 3e 8a da 23 3e
       -0.1311529 -0.87442476 0.1846477 0.16001335
000190 c6 5c 9d 3d ae dd 89 3d 80 64 8c bd fa ca 43 bc
       0.07683711 0.06731735 -0.06855106 -0.011950249
0001a0 36 c3 a1 bd ce a8 f0 3d 4f 44 0f bf ca df 8e bd
       -0.07898562 0.11750947 -0.55963606 -0.06976278
0001b0 bd a3 4f 3e 84 45 34 3e 89 dc e6 be f9 a2 98 3c
       0.20277305 0.17604643 -0.4509013 0.018632399
0001c0 c9 75 3b be 48 ce 6c 3d e5 59 0b be 16 2e 3c 3e
       -0.1830665 0.057813913 -0.13608511 0.18376955
0001d0 05 f0 a1 be 68 49 e8 3e fa f8 c0 3e df c2 08 3e
       -0.31628433 0.45368505 0.37689954 0.13355587
0001e0 e4 54 cd be 01 40 12 3e 92 e9 61 3e 12 24 87 3e
       -0.4010383 0.14282228 0.22061756 0.26394707
0001f0 f9 b9 bb bd 9d c6 a5 3e b8 6d 6e 3d 96 1b 02 3e
       -0.09166331 0.32378092 0.058210105 0.12705836
000200 5a 3a 65 3e e6 40 00 3e 83 38 c7 3d 90 f5 05 3f
       0.2238554 0.12524757 0.09727576 0.52327824
000210 e2 26 3c bf cb 44 2b be cc c1 15 be 9e b7 d7 3e
       -0.7349683 -0.16725461 -0.14624709 0.42132276
000220 26 97 a5 bc c9 87 a4 3e 3f 03 bd bc cb 8b a5 3e
       -0.020213675 0.32134846 -0.023072837 0.32333216
000230 34 08 aa 3d d7 c4 2c 3d 83 cb 0b bf 07 15 66 be
       0.08302346 0.04217991 -0.5460741 -0.22468959
000240 12 65 73 3e 2d 9a d7 be a1 5e 8a 3c 54 6c c1 be
       0.23769024 -0.42109814 0.016890826 -0.3777796
000250 cc 7b 88 be 78 f7 c0 bd d6 f8 3f 3e b5 ec 13 bf
       -0.2665695 -0.09422201 0.18747267 -0.5778306
000260 df f1 ac 3e e9 a2 6f 3e 00 83 0f 3e 1e 35 52 3d
       0.33778283 0.23401989 0.14014816 0.051320188
000270 f3 b0 37 be 1c 2e 6e bd c0 b4 70 3e f5 1b 4d bc
       -0.17938595 -0.058149442 0.2350645 -0.0125188725
000280 de c7 92 3e cb 11 88 be 2d 1e 45 bd bb 6b d6 3c
       0.28668112 -0.26576075 -0.04812448 0.026174417
000290 a0 0a 41 be 91 d9 d0 3d b0 b1 bd be eb 7b 05 3c
       -0.1885171 0.101977475 -0.37049627 0.00814722
0002a0 81 60 aa 3e c9 77 4c 3e 80 d4 ba 3e 93 58 96 be
       0.33276752 0.1996757 0.3649025 -0.29364452
0002b0 27 5b f0 be f5 2c 0f be d4 b2 1a 3e 64 71 b3 be
       -0.46944544 -0.13981993 0.1510728 -0.35047448
0002c0 b0 88 b4 be 78 e1 4c 3e 30 d0 a0 bd a0 6e e9 3e
       -0.35260534 0.20007885 -0.078522086 0.45592213
0002d0 02 59 65 bd 11 66 bb ba 99 a6 ed 3e 82 78 cb 3e
       -0.055993088 -0.0014297386 0.46416166 0.39740378
0002e0 d0 ed 8d 3e 99 f9 9d be 60 9e 04 be af 9e 4f be
       0.277205 -0.3085449 -0.1295104 -0.20275377
0002f0 f8 63 09 3e 89 eb 80 be 26 d5 2a bf 6e 8b 8e bd
       0.13417041 -0.251797 -0.6673149 -0.06960188
000300 8e f9 cb 3c fd dc db be 58 f8 ba 3e 61 5b e1 be
       0.02489927 -0.42942038 0.36517596 -0.4401503
000310 51 6d 83 bc 4e 05 ad bd b5 5f cc be eb ef 0e be
       -0.016043337 -0.084482774 -0.3991677 -0.13958709
000320 2e ee 43 3e 28 07 a9 3e 4c 5a 95 3d ab 4b d2 3c
       0.19133827 0.33013272 0.072926134 0.025670847
000330 b7 00 53 3e 6b 1e f3 bd 7b 7d 22 3e d0 1f 9f be
       0.20605741 -0.11871036 0.1586818 -0.3107896
000340 6b f0 c5 3e ed b0 cf 3e 60 26 e2 bd 53 ed fd 3e
       0.38659987 0.4056467 -0.11042476 0.49595127
000350 81 18 50 bf 37 e7 02 bc 8f d3 4a 3e bd 8c 11 bf
       -0.8128739 -0.007989696 0.19807266 -0.56855375
000360 64 ae e8 bc 1d 94 80 3e 27 8b cd 3c bf 8a 2b bf
       -0.028403468 0.25113 0.025090767 -0.67008585
000370 cc e2 11 bf 3c 72 15 be 55 45 10 3f 44 28 87 3e
       -0.5698669 -0.14594358 0.5635579 0.26397908
000380 74 39 a2 3e 85 6a a7 3e 43 47 b7 3d 1d 5a a8 3d
       0.31684458 0.32698455 0.08949139 0.08220313
000390 ec 37 9c 3e f2 73 93 3e 2f a8 93 be 2b 9c a9 3e
       0.30511415 0.28799397 -0.2883925 0.3312696
0003a0 16 6e 96 3e 61 92 12 3e e5 22 2a 3f af be dd 3c
       0.29380864 0.14313652 0.66459495 0.027068464
0003b0 4c 55 3c 3e ff ac 71 3d cf 86 f2 3e 6e 4d c9 be
       0.18391913 0.059002873 0.47368476 -0.39316887
0003c0 27 7c 1c be 6b c7 4d 3e 58 a8 da bd 18 2f 55 3e
       -0.15281735 0.20095603 -0.1067664 0.20818746
0003d0 44 c3 8a bd 54 55 4b 3f ea 6e 1d 3f db f9 f8 bd
       -0.06775525 0.79427075 0.61497366 -0.12157031
0003e0 c7 59 5d be fc 00 d9 be ba 91 40 be a3 d9 0a 3e
       -0.21616279 -0.42383564 -0.1880559 0.13559584
0003f0 be 86 45 3e 08 22 c9 bd 31 51 59 be 3b f9 98 bd
       0.19289681 -0.09820944 -0.21222378 -0.07469412

network_body._body_endoder.seq_layers.2.bias f4 [256]
000000 59 8b 2d 3c 34 47 09 3c d1 0c 70 3b aa 3c 41 3a
       0.010592305 0.008378793 0.0036628733 0.00073714054
000010 14 fa 49 bc 22 7c 96 3c e7 c4 c5 3c ce 8d cb 3c
       -0.01232769 0.018369738 0.024141742 0.024847891
000020 e1 21 10 3c 70 1f d2 3b a3 d8 14 3c 2e b4 77 bb
       0.00879714 0.006412439 0.009084853 -0.0037796604
000030 b1 d8 54 3c 14 bb 6e bc 74 2b 0d 3d 95 99 ae bc
       0.012991116 -0.01457097 0.03446527 -0.021313468
000040 0d f2 1c bc 5f f4 b9 3c c7 5c 1f 3c 55 af b6 bb
       -0.009579194 0.022699533 0.00972671 -0.0055751004
000050 94 a3 d5 bb 5e 6d 84 bb ac 09 4d bc 72 9e 3c bb
       -0.006519744 -0.004041358 -0.012514513 -0.0028780964
000060 83 ee fe ba f3 e0 a9 3c ba 03 33 3c c6 74 d9 3a
       -0.0019449744 0.020737147 0.010926181 0.0016590587
000070 49 2a 19 3c 11 db d7 3c 70 0d 03 3c 98 59 19 bb
       0.0093484605 0.026349576 0.007998809 -0.002339935
000080 b6 f2 69 bc 70 f6 84 35 ea a1 fc 3b 1c 99 2e bb
       -0.014279058 9.906489e-07 0.0077097313 -0.0026641553
000090 23 86 82 3c 5f 5b 59 36 77 6a 61 bc a0 b2 c5 3b
       0.015933102 3.2388705e-06 -0.013758293 0.0060332566
0000a0 e6 95 34 bb 58 86 b5 b9 5b a3 08 bc ad 4d e9 bb
       -0.0027555167 -0.00034623104 -0.008339728 -0.0071198554
0000b0 08 b5 6d 3c 89 33 df b9 51 21 07 bc 0e e7 30 ba
       0.014508493 -0.0004257227 -0.008247689 -0.0006748297
0000c0 5f c3 21 3c af f3 1d bc 95 c0 21 3b 45 1d f9 b9
       0.00987324 -0.009640618 0.0024681438 -0.00047514788
0000d0 2a 64 27 3c 43 c3 00 3c 2a 6c 0a 3a f7 d3 d1 ba
       0.010216752 0.007859054 0.00052804 -0.0016008605
0000e0 6d fe 8a bb 09 59 ce 3c cf 57 69 3c 73 c9 6e 3c
       -0.0042417557 0.02518894 0.014242127 0.014574396
0000f0 6a e9 a3 3b 0f 27 23 bc f6 4f cd 3b a4 00 f0 bb
       0.0050021904 -0.009958043 0.0062656356 -0.007324295
000100 84 55 99 3b 46 36 d6 bb 8a 8e d5 3b 3a d2 d5 ba
       0.0046793837 -0.0065372316 0.006517236 -0.0016313263
000110 2f 8f 83 3c d0 61 3c b8 b6 97 91 bc f8 11 2d bc
       0.016059486 -4.4913788e-05 -0.017772537 -0.010563366
000120 c1 0f a0 3a dc 84 04 3c b2 39 4a 3a 89 66 e6 3a
       0.0012211726 0.008088317 0.0007714286 0.0017578165
000130 e7 9f f7 bb fb f7 61 3b d4 3f c4 3b e4 c3 c4 3b
       -0.0075569036 0.0034480083 0.005989054 0.0060047973
000140 ea 00 92 3b dc 15 00 bc 8e 19 80 bc 09 0d 5a 3a
       0.0044556754 -0.007817712 -0.015637185 0.00083179824
000150 bd 2f 63 bc 80 08 2d 3b f4 66 7b bb 5b f2 59 bb
       -0.013866362 0.0026402771 -0.0038360925 -0.0033256027
000160 fa c3 14 3d 2e bf a2 bb 4e bc ac bc 9f e7 e5 3b
       0.03631971 -0.004966638 -0.021085884 0.007016137
000170 8f 63 35 bb a3 85 12 bb b2 25 ba 3a cc 23 76 3c
       -0.002767775 -0.0022357486 0.0014201908 0.015023183
000180 e7 11 ff 3b 99 f7 78 3c 8c 27 61 3b eb 7c 20 3c
       0.0077841165 0.015195751 0.0034355847 0.009795408
000190 7f 64 08 bb 95 fb e9 bb 97 66 bf 3c e8 6b c0 3b
       -0.0020811853 -0.0071405866 0.023364348 0.0058722384
0001a0 4a f0 02 3a b8 a1 1a 3c bc 03 04 bc 30 25 89 3c
       0.00049949123 0.009437971 -0.008057531 0.016741365
0001b0 45 2b df 3c 3f c0 1c 3a cc bb f4 3c 44 1e 6d bc
       0.027242312 0.00059795746 0.029874705 -0.014472548
0001c0 54 7b 22 bb 31 1b c9 3c 26 9d f6 bb d7 85 be ba
       -0.0024792748 0.024549099 -0.007526058 -0.0014535737
0001d0 c1 91 ff ba 4a f9 d0 bb 57 cf 18 3b b4 6c 40 39
       -0.0019498394 -0.006377374 0.0023316944 0.00018351042
0001e0 8d 77 07 bc 3d ab 9f bb c2 a3 88 bb 74 fa 1a bc
       -0.008268249 -0.004872708 -0.004169912 -0.009459127
0001f0 fe 7f a1 bb 1d a0 16 bc 7f a4 9a bc eb 1f 23 bc
       -0.004928588 -0.009193447 -0.018877266 -0.00995634
000200 75 ab 36 bb df e8 0b 3c bd c1 41 3c e8 87 7b ba
       -0.0027873192 0.0085394075 0.011825976 -0.0009595142
000210 62 ba 99 3c 58 6b ae 3c bc 51 14 3d 26 4f ae 3b
       0.018765632 0.02129142 0.03621076 0.005319494
000220 68 3f 4b 39 b2 bf e3 3a c7 c3 e2 3c cc c7 2b 3c
       0.0001938321 0.0017375855 0.027681245 0.010484647
000230 fe 35 eb 3a bb 12 00 3b f7 7a ba 3c c6 86 da bb
       0.0017945168 0.0019542414 0.022763712 -0.0066688983
000240 2c c5 9e 3c cf d4 dd bb 62 a2 54 3c d4 65 06 bc
       0.019381128 -0.0067697535 0.012978168 -0.008202989
000250 9a fc b4 3b 6e 81 ba 3a df 4f 5d bb ca b3 18 3d
       0.0055232765 0.0014229247 -0.003376953 0.037280835
000260 7c 5a 29 3c 61 90 2b 3c 77 7c e1 3b 4b f3 9e bb
       0.010336515 0.010471434 0.0068812924 -0.00485078
000270 2c f8 27 3c 8d 0a bf 3b 84 46 e8 b9 84 10 c4 3b
       0.01025204 0.005830115 -0.00044303027 0.005983414
000280 25 c6 34 3d 60 0f 2a 3c 16 a2 4b bb 32 69 2d 3c
       0.044134278 0.010379642 -0.0031071953 0.010584163
000290 52 95 87 bb e6 02 0e 3c 0f e3 22 3c ce 0b 40 3c
       -0.0041376734 0.008667683 0.00994183 0.011721564
0002a0 55 8b a1 3c 86 10 53 3b c8 7c b9 3b e1 66 aa 3c
       0.019719759 0.0032205894 0.005660627 0.02080101
0002b0 6d e1 87 bb 6e f8 a1 3c 52 e2 5a 3c 53 74 07 3d
       -0.004146746 0.01977178 0.013359623 0.03306992
0002c0 7e f5 1b 3c 7b 67 6f 3c 97 a9 48 bc 20 6c e9 bb
       0.009518979 0.014612074 -0.012247465 -0.007123485
0002d0 6e 7c 41 3c 85 55 85 3a 4e 60 59 bc 87 b5 88 3b
       0.0118094515 0.0010172582 -0.01326759 0.0041720304
0002e0 95 d6 2b bc 5b d2 f5 3c 53 40 4c bc ba c3 f3 bb
       -0.010488172 0.030007532 -0.012466508 -0.007439104
0002f0 1d 0b 20 3b 84 ea ad bb 73 32 82 bb 3b dc f7 3b
       0.0024420687 -0.0053074975 -0.003973299 0.0075640953
000300 3c f2 0e bc 8f 65 2a 3c 4d b1 2f 3c 8e 2f 18 3a
       -0.008724745 0.01040019 0.010723424 0.0005805426
000310 5c b9 00 3c 29 87 40 bb 72 28 42 bb 1b 0b 3c bb
       0.007856693 -0.0029377437 -0.0029626158 -0.0028693143
000320 47 a7 b4 3c 74 b7 ac 3b f0 2d d5 3a 42 b8 fd bb
       0.02205242 0.0052708928 0.0016264301 -0.0077429125
000330 fc 22 c5 3c f8 4f 67 bc 54 d4 0c bc 05 58 9c 3c
       0.024064533 -0.014118187 -0.008595545 0.01908494
000340 c2 15 f1 3c b6 7b de bc 27 7a e2 3c 7b a6 7d 3a
       0.02942932 -0.0271586 0.027646137 0.00096759916
000350 74 25 e6 3c 21 85 15 bb 24 53 e2 ba 63 34 82 3c
       0.02809403 -0.0022814947 -0.001726721 0.01589412
000360 7d ca 9a 3c 60 1f df bb eb 3c ab 37 f9 0c 5f 3a
       0.018895382 -0.00680916 2.0413156e-05 0.0008508708
000370 3e 52 56 bc 59 2c 13 bc d0 0e e7 bb 2b cd 0a 3c
       -0.0130811315 -0.008982741 -0.0070513263 0.008471767
000380 8c 09 9c 3b 8f d5 bb ba 2e a2 97 3b 83 48 ff 3c
       0.0047618803 -0.0014330613 0.0046274876 0.031162506
000390 22 ed bf 3c 39 fa e6 3b 4d c0 81 ba ae c6 17 3d
       0.023428503 0.007048872 -0.0009899229 0.03705471
0003a0 73 e5 6a bb 65 22 05 3c 95 7a f8 3a c4 82 fb bb
       -0.0035842329 0.008125876 0.0018957431 -0.0076755006
0003b0 32 ab 31 bc 32 4f 3c ba 89 8b 6c 3b 9a 63 d3 3b
       -0.010844039 -0.0007183432 0.0036093912 0.0064510824
0003c0 bd c7 2b 3d 8e 49 27 3c cd 36 c9 3b 40 c9 13 3d
       0.041938532 0.010210408 0.006140566 0.0360806
0003d0 c9 4a b8 3c 42 f5 67 3c dd fb 93 3b 18 fe 5a bb
       0.022496598 0.014157595 0.0045161084 -0.0033415612
0003e0 a3 34 2c 3c 47 7a 00 3d 09 94 ea 3c 07 37 a0 ba
       0.010510596 0.031366613 0.028635042 -0.0012223431
0003f0 70 99 e8 3c c0 e5 e9 ba ad a2 f3 ba e6 99 53 3c
       0.028393477 -0.001784496 -0.001858791 0.01291511

network_body._body_endoder.seq_layers.2.weight f4 [256, 256]
000000 3e 31 9b 3d 79 56 12 3a 64 7d 8a 3c a2 93 d8 3d
       0.075777516 0.00055823434 0.016905494 0.10575034
000010 7e 41 80 bc 32 2e 0b 3d 38 17 86 bb 76 f6 76 bd
       -0.01565623 0.033979602 -0.0040921234 -0.060293637
000020 8b 3a 9e 3d fb 83 86 b9 de 08 d2 3d cf 8a e4 3c
       0.0772601 -0.00025656805 0.102555975 0.02789822
000030 71 dd a1 bc be 71 72 bc 7a 36 14 3d 94 0c 0d 3d
       -0.019758912 -0.014797626 0.036184765 0.034435824
000040 0e a8 bf 3b c5 93 1b bc b4 02 69 3c 56 ad 6b bd
       0.005848891 -0.00949568 0.014221836 -0.057538353
000050 f2 19 f1 3d 32 d8 1e 3d 91 8f 8c 3d 6f 85 4d 3c
       0.11772527 0.0387804 0.068633206 0.01254402
000060 ca 15 44 bd 26 12 98 3c a0 c6 f0 bd 7d aa 54 3d
       -0.047872342 0.018563341 -0.11756635 0.051920403
000070 9b 9f ba 3b 6f f2 34 bd 71 ad 87 bd 2a 61 bc bc
       0.005695296 -0.044176515 -0.06624878 -0.02299555
000080 3b 4a 34 bd db b3 eb 3d 54 67 f4 3c 6a 1d db bc
       -0.044016104 0.11508914 0.029834427 -0.026747424
000090 58 ad 8e 3d bc 8d 04 bd 04 ba bd bc 25 1b b7 bd
       0.069666564 -0.03236173 -0.023159988 -0.08940724
0000a0 92 4d 93 bd a4 1c e8 bd 56 07 07 3d aa 64 9b 3c
       -0.0719253 -0.11333588 0.03296598 0.018968899
0000b0 a9 5e 15 be 9a f3 97 bc b3 0e 9a bc 2f ea c6 bd
       -0.14586891 -0.018548775 -0.018805837 -0.09712636
0000c0 96 f1 bb bd eb da ee 3d 9a bd 07 bb 63 73 e5 bd
       -0.09176938 0.11662849 -0.0020712377 -0.11203649
0000d0 1e 7b 06 bd f8 5a 20 3e a8 32 30 be 09 ed 7c 3d
       -0.032832257 0.15659702 -0.17206824 0.06174949
0000e0 1f 4f b4 3d 6f d4 90 bc 9e 96 33 3d 6c 51 7a 3d
       0.08804154 -0.017679421 0.04384481 0.061112806
0000f0 bc 83 cd bd a6 b4 9c bc 56 b7 27 3d 5d 3b 72 3d
       -0.10034892 -0.019129109 0.040946327 0.059138644
000100 be e4 d3 3d 66 ed 02 3d 79 f9 4a bd 5d 44 3e 3d
       0.103463635 0.031964682 -0.049554322 0.046451915
000110 46 d8 8e 3d 91 58 9d bc b9 de 5e 3d 0c 1e 1f 3b
       0.06974845 -0.01920727 0.054411624 0.0024279384
000120 45 68 a0 3d f4 b3 37 bd f3 52 7a 3d 2f 3a ab bd
       0.07832388 -0.04484935 0.061114263 -0.08360707
000130 66 15 b7 3d bd 2a ce 3d 11 c2 51 bd f7 72 fe 3d
       0.08939628 0.100667454 -0.051210467 0.124242716
000140 44 fd 2e 3e 42 c2 24 bc c5 be 0a bd 8b a7 7b 3c
       0.170888 -0.01005608 -0.03387334 0.01535977
000150 dc fd d2 bc ee 45 e9 3c e7 47 81 bc b5 62 e6 3c
       -0.025755815 0.028475728 -0.015781356 0.028123239
000160 af f5 cb 3d 04 e5 74 bd 0e 57 85 3d 85 87 63 bc
       0.0995897 -0.05978872 0.06510745 -0.013887291
000170 77 cf d6 bb 21 3d 19 be a6 e0 93 bd d9 98 98 3d
       -0.0065554935 -0.14964725 -0.07220583 0.074510284
000180 9e 03 63 bd 9d 97 39 bc 77 82 46 3c 80 1b d6 bc
       -0.05542337 -0.011327651 0.012116066 -0.02613616
000190 2f 35 31 3d bf 73 88 3d 5f 22 12 bd 7c a9 b5 bd
       0.04326361 0.06662702 -0.03567731 -0.08870217
0001a0 b2 5a e6 bd 0b 24 28 be 30 9a 63 3d 50 2c 29 bd
       -0.112477675 -0.1642 0.055566967 -0.041302025
0001b0 13 f7 5b 3d cd bf 72 bc e4 70 ad bd 62 9f 13 3e
       0.053702425 -0.014816237 -0.08468798 0.14416268
0001c0 f0 46 e7 3c c0 0d b3 bc 20 ea 92 3d 9a 53 6e bc
       0.028232068 -0.021857142 0.07173562 -0.014546299
0001d0 b0 5c 7a bd 2b 14 a7 3c 20 9f df 3d a5 d3 94 3d
       -0.06112355 0.020395359 0.109190226 0.072669305
0001e0 38 29 b1 3d d9 01 b7 bc 0b d8 92 3d 49 ff 62 3d
       0.0865044 -0.022339748 0.07170113 0.05541924
0001f0 b3 5f 8c 3d 96 dd 28 3d 15 1e 06 bd 3f e2 29 bd
       0.06854191 0.041226946 -0.032743532 -0.04147553
000200 89 9e 20 bd 30 c9 a7 bc 89 3d eb 3c c7 67 c1 3d
       -0.03921369 -0.020481676 0.028715866 0.09443622
000210 7a b8 27 bd 32 9a b0 3c be 9c b2 3b 20 81 71 3a
       -0.040947415 0.021557901 0.005450814 0.00092126615
000220 3a 2c 49 3d 3b 45 46 bc 5c a5 06 3b 8a c6 65 3d
       0.049114443 -0.012101467 0.002054534 0.056097545
000230 56 0c 4a 3d cd 02 07 3d 84 a4 1a 3d 89 20 b8 3d
       0.04932817 0.032961655 0.03775455 0.089905806
000240 56 15 e8 bd a6 db 13 be b0 3f bf bd 09 d5 45 3c
       -0.113321945 -0.14439258 -0.09338319 0.012074717
000250 ff ec 48 bd 79 8d 4e bd 47 31 d2 bd 91 fb bf ba
       -0.049054142 -0.050427888 -0.10263305 -0.0014647116
000260 25 6f 07 bd 74 0e e0 3c ef 15 c3 bd 43 14 1c 3c
       -0.03306498 0.027350642 -0.09525668 0.009526315
000270 d0 81 0b bd 8d 90 63 bc 7a 8b dc 3c 80 49 be 3d
       -0.034059346 -0.013889444 0.026921976 0.09291363
000280 58 a0 8f 3d f2 4e 02 3e b3 06 2c 3e 3d 33 9b 39
       0.07013005 0.12725428 0.1679943 0.0002960208
000290 24 21 a3 bd 1a 3a a4 bc 8d 1d 8e 3d 19 c2 d0 bd
       -0.079653054 -0.020047236 0.0693923 -0.10193271
0002a0 64 78 e6 3c 01 5f 4d 3b 49 78 a4 ba 9d 24 37 bd
       0.028133579 0.0031337144 -0.0012548055 -0.04471265
0002b0 a0 2d 17 bd 73 e4 b4 bd ab 58 f0 bc 82 fe 61 3b
       -0.036908746 -0.08832636 -0.029339155 0.0034483974
0002c0 cd 4c 15 bd 76 6f b4 bd 5d 93 1d 3d 2d 85 96 bd
       -0.036450196 -0.08810322 0.038470615 -0.0734962
0002d0 eb 2a 8b bd e9 55 09 3e a1 52 5e be 8d 37 a4 3b
       -0.06795295 0.13411678 -0.21711208 0.005011505
0002e0 c9 e3 73 3d cb 82 07 bd 1b 33 8e bd 39 34 27 3d
       0.059543405 -0.03308372 -0.06943341 0.040821288
0002f0 50 97 4e 3d f6 f7 c5 bc b7 4d f8 bd 3e 66 aa 3c
       0.05043727 -0.024166089 -0.12124198 0.020800706
000300 b8 2a b2 bd a1 4d 85 bb 81 8c 2e 3d ec b6 cb 3d
       -0.08699554 -0.004068092 0.042614464 0.09946999
000310 6b 36 cd 3d 44 33 4d bc 1a 85 91 3d 93 ae ea ba
       0.10020145 -0.01252443 0.07105465 -0.001790481
000320 a9 9f 1d bd 73 4e 81 bd e0 80 88 3d 27 2f d4 3d
       -0.038482342 -0.06313791 0.06665206 0.10360556
000330 c3 73 36 3d c0 0e 9b 3b ac cc fe bd d7 1f b5 3c
       0.044543993 0.004731983 -0.12441382 0.022109909
000340 f2 d6 cb 3b f7 46 b4 3d 4d f2 11 3d 14 71 a0 3c
       0.006220692 0.08802598 0.035631467 0.01958517
000350 0c 3f ff 3c a0 34 06 bd eb 58 c0 3d 90 5e 26 3c
       0.031157993 -0.03276503 0.0939196 0.010154381
000360 ae cc f4 bd c7 91 48 3d 15 49 b5 bb c8 9b 86 bd
       -0.11953102 0.04896715 -0.0055323937 -0.06572682
000370 6b be a6 bc fd 49 8e bd 30 54 e5 bc 7f 6e 43 3c
       -0.02035447 -0.06947706 -0.027994245 0.0119282
000380 4d 38 95 bc 8a aa cc bd 89 ae 9a 3b e8 05 64 bc
       -0.018215323 -0.09993465 0.0047205132 -0.013917424
000390 4e 7d 48 bc 5e b2 8a 3d 09 e6 3d bb f9 35 44 bd
       -0.012236906 0.06772302 -0.0028976223 -0.047903035
0003a0 f3 e0 ce bc c0 1c 5c be b1 ff 07 be 88 34 5c 3d
       -0.025253749 -0.21495342 -0.13281132 0.053761035
0003b0 62 9d 09 3e 0d a6 84 bc 14 d1 da 3c 03 92 98 bd
       0.13438943 -0.01619246 0.026711024 -0.074497245
0003c0 fa 7c 5f 3d 01 7e eb bc b1 f3 22 3d 72 03 51 bd
       0.054562546 -0.028746607 0.039783183 -0.051028676
0003d0 e7 e5 1e bd 88 2c af 3d 42 34 9f 3d 9b 32 ac bd
       -0.03879347 0.085534155 0.07773639 -0.0840809
0003e0 e8 bc cf bd 10 14 80 bd b2 9e 9a bd 2d 9e 26 bd
       -0.10143453 -0.062538266 -0.075498 -0.040678192
0003f0 1f dc 71 bc 23 34 a6 bd f7 49 7c 3c b0 39 ff bc
       -0.014761954 -0.08115413 0.015398494 -0.031155437

network_body.observation_encoder.processors.0.normalizer.running_mean f4 [11]
000000 4b e3 5d 41 6b a3 8d 40 67 1d b0 3e c1 2e 2c 3d
       13.867991 4.4261985 0.34397432 0.042036775
000010 19 0b b5 3e 08 b1 25 3d 1b 82 45 41 73 9d 8d 40
       0.3536003 0.040452033 12.344264 4.42547
000020 fe 7d 47 43 1b 3c 8c c1 ef ed 46 43
       199.49216 -17.529348 198.92943
