Assets/Fight - Copy.onnx (onnx, 283124 bytes, 10 tensors)

68 f4 [11]
000000 07 fd 48 41 0b c7 e7 40 ad 06 f3 3f 24 dc e2 3f
       12.561774 7.243047 1.8986412 1.7723432
000010 83 1b f4 3f 65 b8 e3 3f d5 5b 48 41 93 0c eb 40
       1.9070896 1.7790648 12.52242 7.345285
000020 5d 64 cf 42 ba cc e8 41 11 af cf 42
       103.69602 29.099964 103.84193

action_model._continuous_distribution.log_sigma f4 [1, 3]
000000 3c 94 2f bf 55 19 7c bf 36 4c c5 be
       -0.6858556 -0.98476154 -0.38534707

action_model._continuous_distribution.mu.bias f4 [3]
000000 82 74 83 bc 67 0f e2 bc 3b 0f ae 39
       -0.016046766 -0.027595235 0.00033199214

action_model._continuous_distribution.mu.weight f4 [3, 256]
000000 6e a0 b9 bc 40 82 15 3c a8 53 48 3c 62 b1 8c 3c
       -0.022659507 0.009125292 0.012226976 0.017174426
000010 df f2 70 bd b5 f3 b8 bb cd 38 01 3a aa 44 9a bb
       -0.05882537 -0.0056442865 0.00049294234 -0.0047078924
000020 22 28 c9 3c e4 42 10 bd 08 8c e7 bc 99 51 96 3c
       0.02455527 -0.035220042 -0.028265014 0.018349456
000030 be 3f 2e 3c 6e 24 85 3c 61 a4 10 3c de c0 20 bc
       0.0106353145 0.016252723 0.0088282535 -0.009811608
000040 15 83 b0 bb 2e 97 67 bc 7f de 0d bc 26 43 61 bc
       -0.00538672 -0.014135165 -0.008659004 -0.01374892
000050 05 25 d8 3c 5b f3 0c bd bc af da bc 3f 85 19 bc
       0.02638484 -0.03441177 -0.026695125 -0.009370147
000060 7f d9 84 3a df 75 24 3b a2 ab 94 3b 9a dc b1 3c
       0.001013562 0.002509467 0.004537062 0.021711636
000070 68 10 28 bd 12 64 d8 bb 39 1a 4c bc c3 2f fe bc
       -0.04103127 -0.006603726 -0.012457424 -0.031028634
000080 c3 f5 93 3c d9 df a7 bc ea 61 28 bc f1 57 5e 3b
       0.018061524 -0.020492481 -0.010277251 0.003392693
000090 7c d7 95 bc e1 eb f3 ba db 11 04 bd 72 f4 62 3d
       -0.018291228 -0.0018609726 -0.03224359 0.055408902
0000a0 a2 4a 95 bc 10 08 68 3c f8 37 00 39 83 87 27 bc
       -0.018224064 0.0141620785 0.00012227881 -0.01022518
0000b0 aa 5d b7 3c d1 e5 03 bd 98 d8 90 bc dd 60 cf bc
       0.02238353 -0.032201592 -0.017681405 -0.025314743
0000c0 f0 ce 5b 3c cf a4 93 bc db cd 57 3d c7 fa 9c 3c
       0.013416037 -0.018022923 0.052686553 0.019162549
0000d0 40 72 be 3a f4 51 1f bd d0 d3 8d 3c c0 71 55 bb
       0.0014529899 -0.038896516 0.017312914 -0.003256902
0000e0 b9 c1 20 bd 42 64 18 3c 80 61 92 3c 42 e7 33 3c
       -0.03924725 0.009301247 0.017868757 0.010980429
0000f0 41 f2 48 bb a9 fe a2 3c ef 70 ed bc de 65 ea 3b
       -0.0030661973 0.019896822 -0.028984515 0.007153257
000100 1b ca 2f bc 5b 30 aa bc 30 79 20 3c b2 7a 2d bd
       -0.010729338 -0.02077501 0.009794518 -0.04235334
000110 ce 10 e8 bb df 48 55 3c dc e0 02 bd d7 3c c7 bb
       -0.0070820814 0.013017862 -0.031952724 -0.0060802507
000120 19 d2 a7 bc 6a e4 e8 bb a0 7d 19 3d bd 3b 9b bc
       -0.020485925 -0.007107307 0.03747332 -0.018949384
000130 73 2f 50 3d fb 0e 91 bb 0d 96 f2 3c 8d ad 17 bd
       0.0508265 -0.0044268346 0.029612565 -0.037030745
000140 db 04 bf bb e3 d8 23 bd 66 49 07 3b 23 dd 26 3c
       -0.0058294362 -0.04000176 0.0020643114 0.010184559
000150 a1 53 6c bd ce ce b3 bc ea ef 20 bd 25 f5 0c 3c
       -0.057696942 -0.021949198 -0.0392913 0.008603369
000160 16 51 38 3c f4 0e 9f 3c f8 62 ec bc 86 56 3f 3b
       0.011249801 0.01941631 -0.028855786 0.002919586
000170 ec 00 ac 3c 28 13 aa 3c b5 69 24 bd 75 12 f2 3b
       0.020996533 0.020761088 -0.040139873 0.007387454
000180 a4 e3 da 3c 1f a1 17 bb 9f 51 e8 bc c5 e6 06 bd
       0.026719876 -0.0023136807 -0.028359232 -0.032934923
000190 c2 57 ab bc 9f 0c ee 3b c3 53 a3 bc 6f 16 0c bd
       -0.02091587 0.007264688 -0.019937402 -0.03420108
0001a0 c7 85 f0 3c 29 69 c5 bc 66 48 10 3d a6 31 97 bc
       0.029360665 -0.024097996 0.035225295 -0.018456291
0001b0 f5 90 25 bc b9 c2 b6 bb 20 7d 56 3c 76 d9 d1 3b
       -0.010105361 -0.005577412 0.013091356 0.006404097
0001c0 cb 2e be bb e1 a6 80 bc 5a a1 62 bb 81 db 35 3c
       -0.005803918 -0.015704574 -0.0034581036 0.011099697
0001d0 02 9d 7b bc a7 d0 17 3d 8f cf 15 bb 5f c3 9a 3c
       -0.015357258 0.03706422 -0.002285931 0.018891988
0001e0 b3 a2 5e bc 0e da bd 39 38 ce 50 3c a3 06 ea 3a
       -0.013588595 0.00036211353 0.012744479 0.0017854761
0001f0 a0 42 03 3c 6e 35 72 3c 36 8f 31 bd 59 ef db 3c
       0.00801149 0.014783246 -0.043349467 0.026847528
000200 ad ca 40 3d a6 89 39 bd d8 1a f7 3c 3c e7 36 bd
       0.047068287 -0.045297287 0.030164167 -0.044654116
000210 01 0e 44 bd 83 b4 ac bc 31 09 9c bb d6 b5 5c bd
       -0.047864918 -0.021082168 -0.004761838 -0.05388435
000220 9a 70 11 bc d0 8a af 3c cb 51 51 3b 8b 70 2d bc
       -0.008876944 0.021428496 0.0031939622 -0.010585914
000230 d4 26 1b 3c 3c 4f 05 bd b7 12 22 bd 58 f0 3a 3d
       0.009469707 -0.032546267 -0.03956863 0.045639366
000240 f0 7a 3b 3c 34 41 a7 bc 60 e2 6e bc 75 85 06 bc
       0.011442885 -0.020416833 -0.014580339 -0.00821053
000250 b8 e2 44 bd 70 29 0d bc f6 1d 98 3c 69 97 96 3c
       -0.04806778 -0.0086158365 0.018568974 0.018382745
000260 2b db 1c 3d 7d 96 81 3c 12 85 7e bc b7 3e 5d bc
       0.038294952 0.015818829 -0.015534656 -0.013503722
000270 c4 5e 4c 3c 35 9a fc bc 3c e4 2d bd 2c 53 45 3c
       0.012473766 -0.03083525 -0.04245399 0.0120437555
000280 38 13 13 3d fb 46 08 3d 8e d4 17 3d 8e 6b 89 bc
       0.035907 0.033270817 0.037067942 -0.016774919
000290 75 19 13 bd 87 ca 20 bc 89 70 d3 3c bd f7 1d bd
       -0.03591295 -0.009813911 0.025810497 -0.03856634
0002a0 1f cc 66 3a d3 5e 39 3d d1 1c cb bc fa 7e 3e 3b
       0.000880422 0.045256447 -0.024794014 0.0029067383
0002b0 93 01 f3 38 20 4d 47 3d 9c 8b 30 bc 09 68 69 3c
       0.00011587436 0.048657537 -0.010775473 0.014245995
0002c0 8d 9c 1d 3d e5 91 a9 3c b4 53 8e 3b fc 03 03 bd
       0.038479377 0.02069945 0.0043434743 -0.03198622
0002d0 23 c7 8a bc a3 0c fa bc 1f 4b 9e bc 81 b4 1d 3d
       -0.016940659 -0.030523604 -0.01932293 0.03850222
0002e0 0a 63 5f bb ff a0 54 3b 95 1e f6 bb ad 6a 05 bd
       -0.0034086131 0.0032444594 -0.00751097 -0.032572437
0002f0 1e 46 80 bc f5 3a 8e 3c 4f 13 bc 3b 51 40 98 3c
       -0.015658434 0.017362097 0.0057396065 0.018585356
000300 a3 73 b9 3c 19 c6 c1 b7 80 1e 03 3d c0 2e e7 bc
       0.022638148 -2.309964e-05 0.03201151 -0.028220534
000310 84 40 c9 bc 59 58 9c bc 1b a4 0d 3c 1f f2 2e bc
       -0.024566896 -0.019085096 0.008645083 -0.010677843
000320 3b 29 9d 3c dc 8b e3 bb de 91 2e bc f4 b3 93 bc
       0.0191847 -0.006944163 -0.010654895 -0.018030144
000330 04 63 92 bb 6f 1e dd 3c 2c 0d dc 3c 8e 89 d4 3b
       -0.00446737 0.02699205 0.02686175 0.0064861244
000340 81 af 83 3c 1a 08 c3 bc 82 3d 54 bc f6 80 36 3c
       0.016074898 -0.023807574 -0.012954118 0.011139145
000350 b0 75 62 bb b1 13 a8 bb 46 2b 9b 3c f1 4d ec bc
       -0.003455501 -0.0051293005 0.018941533 -0.02884576
000360 81 a6 97 bc 62 74 44 bd 36 a5 80 3b 96 bb e2 bc
       -0.018512012 -0.047962554 0.0039259447 -0.027677339
000370 4b 4e 19 3d ec 47 96 bc fe a6 0c bc 70 f7 9b 3c
       0.03742818 -0.018344842 -0.008584736 0.019038886
000380 85 67 07 3d 5a 66 3b bd 48 7a f4 3b 8e 22 16 3c
       0.03305771 -0.045751907 0.007460866 0.009163512
000390 40 82 54 3b 66 c2 0f bd 45 ea 2b bc ea fb c2 3c
       0.0032426268 -0.035097502 -0.010492866 0.023801763
0003a0 a4 c6 a3 3c 5a 78 0a 3c bd 87 cb bc 47 b1 80 3a
       0.01999218 0.008451546 -0.024844998 0.0009818458
0003b0 10 dc 0f bd d1 83 f5 3c eb ed f5 bc 08 9a ce bc
       -0.035121977 0.029970082 -0.030020675 -0.025219932
0003c0 95 5f 3a 3d c6 6c ae 3c b3 61 4a 3c 8d 79 4b 3c
       0.04550131 0.021292102 0.012352395 0.012419117
0003d0 54 5b 7e bc 04 44 00 39 c6 78 86 3b 8e ab 98 bb
       -0.015524704 0.00012232369 0.004103753 -0.004659123
0003e0 36 c3 07 bc de 91 b3 bc fd 9c 66 bb 15 1f 9b 3a
       -0.008286288 -0.02192014 -0.0035188787 0.0011834825
0003f0 65 2b 06 3c a4 1c 8f 3c 4b d7 51 3b e0 08 ff bc
       0.008189057 0.017469712 0.0032019194 -0.031132162

action_model._discrete_distribution.branches.0.weight f4 [1, 256]
000000 d2 29 d8 3b 88 0b 6a bb 9d 45 35 bb 0c f5 24 bb
       0.0065967822 -0.003571244 -0.00276599 -0.0025170473
000010 a3 48 60 3c 70 50 21 3b 7e 2a 40 3b 1d b9 de bb
       0.013689193 0.0024614595 0.0029322202 -0.0067969696
000020 6d 96 86 3a 50 9b 11 3c fc 31 1d 3c 0f e0 e5 bb
       0.0010268219 0.008887127 0.009594437 -0.0070152353
000030 80 d0 ec 3b cd 05 19 bb 5d 6d fe 3b f2 32 9b bb
       0.0072270036 -0.0023349405 0.007764502 -0.0047362978
000040 67 49 42 bb 32 b9 a3 bb 0f 89 fa bb bf 69 6c bb
       -0.0029645802 -0.0049964422 -0.007645733 -0.0036073772
000050 57 a7 50 3b 9e 5e 83 3b 9b fd 02 3a 5d b0 44 b9
       0.0031838024 0.004009082 0.00049968966 -0.00018757717
000060 6b ce 22 bb 2a f7 ee bb 98 ee fb 3b e2 cb ea ba
       -0.0024842273 -0.007292648 0.0076883547 -0.0017913545
000070 13 6c c0 3b 55 d0 d3 3b 03 de c1 39 48 9c fb 3b
       0.0058722585 0.006464044 0.0003697724 0.0076785423
000080 f8 f9 9e bb 01 58 09 bc 88 d8 4c bb 8a aa 7b ba
       -0.004851576 -0.008382798 -0.0031256992 -0.00096003024
000090 a0 31 77 bb 15 df 81 bb 8c 1a 0c bc 5b 60 ca 3b
       -0.0037718788 -0.003963361 -0.008551251 0.0061760372
0000a0 b3 20 65 bb be cd c0 bb c3 8a 16 ba f0 76 ab 3a
       -0.0034962117 -0.0058839014 -0.0005742723 0.0013081711
0000b0 fd f1 e2 bb bb 82 61 bc d3 d4 a3 bb e3 1e 23 3b
       -0.00692582 -0.013764079 -0.004999736 0.0024890236
0000c0 b3 2e 8d 3b 05 88 51 3c 07 2d 6d 3a e9 3a 2d 3b
       0.0043085455 0.012788777 0.0009047542 0.0026432818
0000d0 fb 0c 5a b9 5f d6 9c bc f5 ec d2 3a 5f 30 eb 3b
       -0.00020794936 -0.019145189 0.0016092347 0.007177397
0000e0 7a 15 91 bb 9c 30 88 bb ab 30 97 3a ed ff 2d bb
       -0.004427609 -0.0041561853 0.001153489 -0.0026550249
0000f0 91 19 a9 3a 1f 1f 2b bc c5 1b d8 bb db 68 d0 3b
       0.0012901296 -0.010444432 -0.0065951073 0.006360156
000100 cf 70 67 3a e0 b7 2e bc 2b 8d 13 3b 5f f9 44 bb
       0.00088287605 -0.010663956 0.0022514563 -0.0030055863
000110 22 f4 94 3b 16 11 8f bb 1b 61 fc ba cd eb c8 3a
       0.0045457045 -0.0043660505 -0.0019255014 0.0015329063
000120 37 ad 29 3a 85 4c f1 ba c0 5e 65 3b 3c 27 9c ba
       0.00064726494 -0.0018409645 0.0034999102 -0.0011913548
000130 3b 08 9f 3b 86 aa 3a 3b 40 f7 a5 3a 44 69 0e 3b
       0.004853276 0.0028482988 0.0012662187 0.0021730224
000140 73 7f 2b 3b 23 7d 07 3a 07 71 58 39 03 f5 ed b8
       0.0026168495 0.0005168488 0.00020641471 -0.00011346678
000150 a2 0a 24 ba da 21 a8 3b 4e af 3e 3c b1 ee 83 3b
       -0.0006257688 0.0051309885 0.011638476 0.004026257
000160 cf f9 c2 bb 9e d7 0a bc 30 0a 01 3c d7 b3 13 3c
       -0.0059501897 -0.008474259 0.007875964 0.009015045
000170 f1 16 49 3b 6f e8 2b 3c b5 c3 dc ba e6 26 1e bb
       0.003068384 0.010492428 -0.0016842993 -0.0024132072
000180 2f f6 19 bc 5f c6 3c 3c 0d 0d 9c ba 49 de 81 39
       -0.009397074 0.011521905 -0.0011905745 0.00024770413
000190 9f eb 64 3b 33 a7 14 3a 30 46 0b 3b 54 3a 22 bb
       0.003493048 0.00056706666 0.0021251552 -0.0024754005
0001a0 07 d3 23 3c 00 ed cc 3b 19 e0 a2 b9 5f 3d 10 bc
       0.009999043 0.0062538385 -0.00031066014 -0.0088036945
0001b0 91 e3 bf bb ba 9f 51 3b f3 11 59 3c 93 a5 d4 bb
       -0.0058559855 0.0031986074 0.013248908 -0.0064894645
0001c0 bd 78 61 bc b3 fd 91 bb 1c 0d 3c 3a af 38 0a 3c
       -0.013761696 -0.004455292 0.00071735843 0.008436366
0001d0 4c bf a1 3b 72 05 f1 ba 6c df 27 3b 5f 35 67 bb
       0.0049361344 -0.0018388464 0.0025615348 -0.0035279614
0001e0 5d 63 ff b9 29 55 a6 3b c5 aa ec 3b ff c0 9d bb
       -0.00048711422 0.00507607 0.0072225058 -0.0048142667
0001f0 27 da 7a bb ea 13 08 3b 07 37 0e 3c 81 12 b6 3b
       -0.0038277002 0.0020763823 0.008680112 0.005556405
000200 25 e8 a2 3a e3 b3 3f 3a 4b 43 66 3b b3 35 74 3c
       0.0012428804 0.0007312877 0.0035135325 0.014905381
000210 ab 18 7c bb 5f c5 6d 3b c5 13 e5 b9 7f 7e ce 3b
       -0.0038466852 0.0036280972 -0.00043693013 0.0063017006
000220 00 11 36 bb 0b 47 fc 3a 7b 84 07 3c a3 25 69 3b
       -0.002778113 0.0019247247 0.008271332 0.0035575412
000230 81 cd 27 3c a7 a4 8c 3b 3b 8b f8 ba 6f be a7 ba
       0.010241867 0.004292089 -0.0018962392 -0.0012797843
000240 40 26 f2 ba 2c 83 2a 3c 7b 98 1e bc fb f0 24 ba
       -0.0018474534 0.01040725 -0.009679909 -0.00062920124
000250 b7 15 b5 39 c0 f5 3a bc 05 cb fb 3b 63 a2 f6 b9
       0.0003453919 -0.01141113 0.007684114 -0.00047041764
000260 ba 99 00 bc f2 8f af bb 12 42 6f bb 62 cb 3f 3c
       -0.007849151 -0.005357736 -0.0036507887 0.011706205
000270 d7 cc fb 3b 90 ed e3 39 81 b1 3c ba 8b 6a 6c bb
       0.007684331 0.00043473812 -0.0007198081 -0.0036074247
000280 e7 fd 26 3c ef c5 23 3c f9 c6 17 3a 51 ff ab 35
       0.010192371 0.0099959215 0.0005789842 1.28148e-06
000290 3f 2a 3e 3b a9 49 9d 3a 72 40 9d 3c 70 d1 70 bb
       0.002901688 0.0012000102 0.019195769 -0.0036745928
0002a0 c2 f3 03 3c f0 63 65 3b 33 eb 7b 39 d7 8d cc 3a
       0.008053722 0.0035002194 0.00024024844 0.0015606236
0002b0 78 a3 19 b9 03 bd fc ba ff e6 9b 39 ef c9 d3 3a
       -0.00014652114 -0.0019282404 0.0002973601 0.0016158203
0002c0 a5 6b 13 3b 2e a6 46 ba df f3 60 bc bb 2a 0a 3c
       0.002249458 -0.0007577863 -0.013730018 0.008433039
0002d0 1e e7 2a bc fc 21 90 bb 8b 07 1c 3c eb 6d ef 3b
       -0.010431079 -0.0043985825 0.009523283 0.0073068044
0002e0 a3 71 20 3b 17 98 57 bc 65 3e 42 3a ba e0 a0 3c
       0.0024481795 -0.01315882 0.000740981 0.019638408
0002f0 f2 92 01 3c 75 aa ff ba a7 f3 45 bc 8b 61 05 bb
       0.00790857 -0.0019505756 -0.012082017 -0.002035233
000300 d1 f4 2c 3b e7 25 32 3c 43 e6 0f 3a 06 e3 ae ba
       0.002639104 0.010873294 0.0005489329 -0.0013342805
000310 6f d3 8b 3b a2 93 20 39 73 19 3f 3a 7c 2e 1f 3c
       0.004267148 0.00015313787 0.0007289864 0.009715673
000320 a0 2d 71 3a 2b 45 ae b7 b1 d8 b6 bb a3 af fe 3a
       0.0009200219 -2.0774625e-05 -0.005580031 0.0019431006
000330 00 b8 45 bb 51 19 13 bb cf ac 26 bb 5d 3d d2 3a
       -0.0030169487 -0.002244551 -0.0025432592 0.0016040016
000340 d3 e5 59 bb 6b 46 ca bb 59 58 80 bb 17 e6 bd 3b
       -0.0033248558 -0.0061729453 -0.003916782 0.005795251
000350 d2 c9 d4 bb be ee b1 3a 2f f1 5e bc 43 34 01 3b
       -0.0064937854 0.0013575179 -0.013607307 0.0019714988
000360 3c 1b 38 bb 9b f0 b8 bb 5c 83 08 bb ca fd 11 bc
       -0.0028092405 -0.005643917 -0.002083025 -0.008910606
000370 4a a6 94 3b 8f ec 01 3c 4f 84 11 3c fa 6d ab 3a
       0.0045364248 0.007929935 0.0088816425 0.001307904
000380 d2 bf ef 3b 74 6d 37 bb e7 17 00 3b 5a 5c 01 ba
       0.007316568 -0.0027988823 0.0019545497 -0.0004934721
000390 77 82 46 ba ae 9f c6 bb 92 14 e9 bb e7 f0 1d b9
       -0.00075725414 -0.006061516 -0.007113048 -0.0001506243
0003a0 05 8a d6 bb 26 cc 1f 3a 03 e6 2f bb 93 8c 80 3a
       -0.006547215 0.0006095789 -0.0026839979 0.0009807519
0003b0 e3 1e 84 ba b3 24 48 3c d1 7f 88 bb e6 67 90 3a
       -0.0010080006 0.012215781 -0.0041656275 0.0011017292
0003c0 48 4a f3 ba 1f bf 41 bb 83 5e fc b9 c8 71 cd 3b
       -0.0018561566 -0.002956338 -0.00048135602 0.0062696673
0003d0 1b 9b 68 bb 87 19 40 bc 88 e2 aa 3b 58 da f5 bb
       -0.003549284 -0.011724836 0.005214993 -0.0075028352
0003e0 0f 02 b7 bb 7f 0a 8c 3b ab 7f 42 3b 2a cb 15 bb
       -0.005584962 0.004273712 0.0029678147 -0.002285669
0003f0 b1 b2 82 3b ad fe cb 39 7d d7 d4 3b 0e 47 10 3b
       0.003988587 0.00038908925 0.006495415 0.0022015008

network_body._body_endoder.seq_layers.0.bias f4 [256]
000000 7e 49 e3 3c a4 6c d2 3b 08 68 01 3d da d8 68 bc
       0.027745005 0.0064216424 0.031593353 -0.014211858
000010 7a b9 2a 3b a4 b1 b8 bc f1 cb 27 bd b4 53 2a bd
       0.0026050494 -0.022545643 -0.040965978 -0.04158373
000020 db 72 c7 bc a4 59 cd 3c d9 82 c7 bc 78 9c 54 3d
       -0.02434676 0.025067158 -0.024354385 0.051907033
000030 76 b0 b9 bb 21 6e 5f bc 4a 6c 50 3c cd d0 b5 bc
       -0.0056667877 -0.013637097 0.012721131 -0.02219429
000040 73 d5 c8 3c 72 9c 1e bc b1 4b 16 bc 4b 28 af 3d
       0.024515843 -0.009680854 -0.00917332 0.08552607
000050 f2 2c a8 3c 78 29 ad 3c e4 8c 27 3c 55 66 04 3d
       0.020529244 0.021137938 0.010226462 0.032324154
000060 03 02 d5 3c 08 81 36 3d 88 17 2c bd a6 25 8a 3b
       0.026001936 0.044556648 -0.04201463 0.004215914
000070 ad 82 b3 ba 54 d7 9e bc 3f 94 2b 3d a7 84 3b 3c
       -0.0013695561 -0.019389786 0.041889425 0.011445201
000080 fc c1 89 bc 9b 7d c1 ba 90 88 a3 3c 5c 78 80 bc
       -0.016816132 -0.0014762165 0.019962579 -0.015682392
000090 60 ae a6 bc 7f ae 3e 3d fa 84 84 bc ed 06 ca 3c
       -0.02034682 0.04655313 -0.01617669 0.024661506
0000a0 68 e5 f7 3c 37 1b 1f bc dd ca 05 3d ef cd 18 3c
       0.030260757 -0.009711078 0.03266417 0.009326442
0000b0 82 55 43 bc a1 4d b4 3d 57 96 10 39 0f 7a 2d bd
       -0.011922242 0.08803869 0.00013788916 -0.042352732
0000c0 14 99 35 3c 7e f1 b1 3c 2b b7 57 bd 0b 26 9d 3c
       0.01108386 0.021721598 -0.052664917 0.01918318
0000d0 f2 5c d4 3b af 60 58 bd a1 3d c0 3b 8b a1 42 bd
       0.0064808065 -0.05282658 0.0058667217 -0.04751734
0000e0 77 de 29 3c e4 50 56 bc 78 3d 81 3c b6 6d ce 3c
       0.010367981 -0.013080809 0.01577638 0.025198799
0000f0 8b 21 81 3d cb d4 27 3d 41 d8 e5 ba 18 6e aa bc
       0.06305226 0.04097442 -0.0017535762 -0.02080445
000100 f9 18 ee 3c bd fb bc 3c 0f f2 70 b7 cc 28 35 3c
       0.029064642 0.023069257 -1.4361473e-05 0.01105709
000110 0b c5 20 3c ba 97 f8 3c 1b ad 88 3c a9 b4 d1 bd
       0.009812604 0.030345786 0.016684106 -0.10239536
000120 ba c2 f5 3c bc 53 13 3c b4 ac 6c bc de 5e cf bb
       0.03000008 0.008992132 -0.0144454725 -0.0063284477
000130 b0 da c8 3c 66 37 f3 3c 4a 1c aa bb 49 aa 53 3d
       0.02451834 0.029689502 -0.0051913606 0.05167607
000140 ca 84 8f bc fd 2b d1 bb 54 5b 16 3c b1 e9 a5 3b
       -0.017519373 -0.0063834176 0.009177048 0.0050632586
000150 cb 48 7a 3b 70 ec 2c bd f8 f2 2f 3c 30 0f b0 bb
       0.003819036 -0.042217672 0.010739081 -0.0053729042
000160 8a b8 e1 bc a8 a4 0f 3d ff 8f 67 3b 63 52 fc bb
       -0.027553815 0.035069138 0.003533363 -0.007700251
000170 39 d6 96 3c 07 35 36 3d 70 61 05 3d ff dd db bc
       0.018412696 0.044484165 0.032563627 -0.026839254
000180 09 03 f8 bc c0 1b 86 bb 53 f5 dc bc 0d 4c 26 bd
       -0.030274885 -0.0040926635 -0.026972448 -0.04059987
000190 d3 8e 38 3c 1e 61 93 3b e9 58 8d 3c 0a 06 15 3d
       0.011264521 0.0044976613 0.01725431 0.036382712
0001a0 7d 4a 86 3d e9 a0 df 3c 79 26 22 3d ca c9 ff 3c
       0.06557176 0.027298408 0.03958747 0.03122415
0001b0 67 6e 5f 3c 4b 37 7f 3c 86 89 3a 3d 90 2f 1c 3d
       0.013637162 0.015577148 0.04554131 0.038131297
0001c0 a8 38 15 3d 5c 33 83 3c f4 ff d5 3c e4 b3 45 3d
       0.036430985 0.016015701 0.026123025 0.04826726
0001d0 d1 23 0d 3d 68 f1 04 bc 8c ee a1 3b 6b 04 b5 bd
       0.034457985 -0.008114196 0.004941767 -0.08838733
0001e0 56 42 1f 3d 0d 4c 2b 3c 44 2c 4f 3d 7b f3 90 3c
       0.038881622 0.010455144 0.050579324 0.017694226
0001f0 19 b2 27 3d 68 f4 fb bb ac e7 b9 3c 06 95 01 3c
       0.04094133 -0.0076890476 0.022693478 0.007909065
000200 29 68 75 bc 7c c2 36 3d 08 f1 b9 39 ab fc 19 bd
       -0.014978447 0.04461907 0.00035465532 -0.03759448
000210 f0 41 4e 3c 8e f5 00 bd 2c 6a 2d 3d d1 fd 21 bd
       0.012588963 -0.03148418 0.04233758 -0.0395487
000220 54 c5 04 3d cf 8b 59 3d d4 cc 9f 3c c4 8b a6 3c
       0.03241475 0.053111847 0.01950685 0.020330317
000230 bf 80 59 3c 31 da c1 3c 07 39 74 bd 3f 87 3b 3d
       0.013275324 0.023663612 -0.059624698 0.045783278
000240 b4 18 3b 3d 48 de 4e 3b df 05 9e bc cf 03 82 bc
       0.045677856 0.0031565595 -0.019289909 -0.015870957
000250 ff 0c 61 bc 83 85 88 bb db a1 1a bb a2 f9 71 3d
       -0.013736009 -0.0041663065 -0.0023595009 0.05907596
000260 1a 48 37 bd f5 57 ad 3c 14 bc 74 3c 85 f1 c2 bc
       -0.044746496 0.021160105 0.014937419 -0.023796806
000270 ef 44 9b 3c 43 ab ab bc 10 1a bd bc f9 e5 86 3c
       0.018953769 -0.020955687 -0.023083717 0.016467081
000280 b7 9d 7a 3c 5a 03 98 ba 81 2c bc bb eb fd de 3b
       0.015296391 -0.0011597679 -0.00574261 0.0068051717
000290 60 95 b4 ba 8a a7 74 bd a6 81 33 3c 99 bb 0c bb
       -0.0013777427 -0.05973009 0.010956204 -0.0021474122
0002a0 c6 9d f2 3b 42 e0 59 3d c3 72 8b 3d 1e 9e 17 bd
       0.007404062 0.053192385 0.068089984 -0.037016027
0002b0 36 49 5f 3c 89 0e a1 bb ce 70 54 bd 93 81 af ba
       0.013628295 -0.004915063 -0.05186539 -0.0013390057
0002c0 47 13 06 bc e0 d8 88 bc 71 7f bc bb 54 f3 e1 bc
       -0.008183307 -0.016704977 -0.005752497 -0.027581848
0002d0 8a e7 fd 3b 0f 35 f2 3b f8 a8 27 bd 1d 12 8e 3c
       0.007748549 0.007391579 -0.040932626 0.017342621
0002e0 ee 11 6f 3c 8f 07 bf 3c 20 ba 0f 3d a9 b2 64 bc
       0.014591677 0.023319034 0.035089612 -0.0139586115
0002f0 37 ef 90 bc 84 d8 6b 3b 25 c4 b6 bd f5 28 15 3d
       -0.017692192 0.0035987208 -0.0892413 0.036416013
000300 27 ca fb bc a5 69 36 3c 0a 1a 3f 3c 39 82 de 3c
       -0.030736042 0.011133586 0.011663923 0.027161704
000310 cb 8a 43 3d 2b 06 75 3c 05 3e 14 3d 2c 95 85 3d
       0.047739785 0.014955084 0.03619196 0.06522593
000320 0d c7 dd bc 81 8c 0a 3d 24 ce bb bc 9e bf 4e 3d
       -0.027072454 0.0338254 -0.022925444 0.05047571
000330 0d 8c 5c b7 04 68 58 bc ea 7d 7d 3c 07 6f d6 3c
       -1.314563e-05 -0.013208393 0.015471915 0.026175989
000340 b8 27 1d ba c2 a8 d1 bb b1 42 0a 3c 7c 66 93 3d
       -0.0005994993 -0.0063982913 0.008438752 0.07197282
000350 92 3e 0c 3c e3 be 68 bc cf 83 eb bc 6a 08 37 3d
       0.00855984 -0.014205667 -0.028749375 0.04468576
000360 61 da 8a bb 1a 52 16 3d db b2 ee 3b fb ea 25 bd
       -0.0042374586 0.036699392 0.007284505 -0.040507298
000370 9c f4 b3 3d 74 56 91 bc 63 00 64 3d 12 46 b7 bc
       0.0878689 -0.01774142 0.05566443 -0.02237228
000380 cb 11 eb 3c 06 a3 cf 3c 71 ee 0c 3d fd ec 4b 3c
       0.028695008 0.02534629 0.034407083 0.012446639
000390 1b 66 07 3d 56 87 de bc 64 30 83 3c fa d0 03 3d
       0.03305636 -0.027164143 0.016014285 0.032181717
0003a0 80 bc e1 3c 08 4c c9 3c 03 52 17 3d d2 ec 78 3c
       0.027555704 0.024572387 0.036943447 0.015193181
0003b0 8c 1e 0f 3d b3 94 21 bb 1f 76 97 3c a8 70 4a bc
       0.03494124 -0.0024655282 0.018488942 -0.012355961
0003c0 9c b1 f9 bb 57 9d ac 3c a5 7d 5c bd ff 48 cf 3c
       -0.0076200496 0.02107112 -0.05383076 0.025303362
0003d0 9d c5 65 38 0a 32 af 3b a7 8b c6 3c e5 3b 78 3c
       5.4781896e-05 0.0053465413 0.024236513 0.015150999
0003e0 c0 db 09 3b 7f 06 3f bc f7 f0 06 bd 91 f9 0c 3d
       0.0021035522 -0.011659264 -0.032944646 0.034417693
0003f0 5d 88 45 bd 38 0c 6b 3b 31 75 04 3d 73 d0 23 bd
       -0.04822575 0.0035865437 0.032338325 -0.039993715

network_body._body_endoder.seq_layers.0.weight f4 [256, 11]
000000 0c 5d 88 3d 69 85 b3 3e 4a bc 37 3f 32 70 29 bf
       0.06658372 0.3506272 0.7177168 -0.6618682
000010 7a 93 56 bc 80 9b 53 3e d3 5a dd 3d 06 c5 d4 bc
       -0.013096685 0.20664787 0.10808339 -0.025972854
000020 df 34 e9 3e 9d 68 2c be f8 69 9b bd e3 16 8f 3c
       0.4554815 -0.16836782 -0.07588571 0.017466968
000030 84 09 0f 3f 7b fc 1a be 6a 90 ed be 74 42 24 3f
       0.55873895 -0.15135376 -0.46399242 0.641639
000040 db f9 92 3e 52 90 08 be ed ff 20 3c bf d6 d0 3c
       0.2870625 -0.13336304 0.009826642 0.025493024
000050 8a 11 87 3e 2a b0 18 3d b6 09 1b 3e 06 a2 1a bf
       0.2638057 0.03727738 0.15140423 -0.6040348
000060 88 9f 01 bb b8 20 9f be 96 ec 58 3e 13 7f 0b 3d
       -0.0019778926 -0.3107965 0.21184 0.034056734
000070 de be ee ba c9 de 50 be 45 bb 06 bf b6 f6 3b bd
       -0.0018214842 -0.20397486 -0.526295 -0.04588958
000080 07 eb 03 3c 61 8b 92 bf b9 71 b2 bd 59 db 94 3e
       0.00805164 -1.1448785 -0.08713097 0.290736
000090 ee 07 90 3e fe a6 84 3e 5e cc 00 be d7 00 a1 3d
       0.2813105 0.25908655 -0.1257796 0.07861488
0000a0 79 4e 2d be 04 68 00 3f ef 74 ea be 59 24 a0 3e
       -0.16924466 0.50158715 -0.45792338 0.3127773
0000b0 49 79 67 be 0c 23 b6 3d 96 e1 19 3f 9b 54 94 be
       -0.2260486 0.088934034 0.6010984 -0.289708
0000c0 5e d2 b2 3e 77 72 3f be 1d c5 61 3d f3 a9 ea be
       0.34926122 -0.18696009 0.055119622 -0.45832786
0000d0 97 f7 9f bd bc 50 55 bc 9b c2 8b 3d 70 cd 98 be
       -0.07810896 -0.013019737 0.068242274 -0.29844236
0000e0 b9 b0 33 be cc da 52 3e 81 cf 88 3e 47 a5 b1 bd
       -0.17547883 0.20591277 0.26720813 -0.08674102
0000f0 45 8e 47 be 8a c5 50 be 55 dd f5 bd d8 b9 ba be
       -0.19487865 -0.20387855 -0.12005106 -0.36469913
000100 09 5c bc 3e c4 be 56 bf 82 c0 27 bf b8 5b b8 3e
       0.36788967 -0.83884835 -0.6552812 0.36007476
000110 ef 00 e4 bd 28 72 c5 3e eb be b4 be b0 94 fa be
       -0.111329906 0.38563657 -0.3530191 -0.48941565
000120 be 4c 86 3e 36 9c 81 be ce 80 8f 3e e0 17 bb be
       0.26230425 -0.25314492 0.28027958 -0.36541653
000130 27 2b bb be 19 ce b7 be b3 16 31 be d6 88 76 bd
       -0.3655636 -0.35899428 -0.17293815 -0.06018909
000140 08 8e 59 be cd f8 73 3e 91 d0 95 bc 9f dc 0d be
       -0.21245587 0.23825379 -0.018287929 -0.13853692
000150 78 c9 06 bc 5d dd ae bd 43 e3 4a bf f7 c6 8b 3c
       -0.008226745 -0.085383154 -0.79253024 0.017062647
000160 5a 1a 91 3c 5f 75 0e bd 37 03 fe bd 9c 91 4e 3e
       0.01771276 -0.034779903 -0.12402957 0.20172733
000170 c0 57 79 be 2c d3 26 be d7 47 2a 3e ad 57 f6 3b
       -0.2434988 -0.16291493 0.16628967 0.007517776
000180 69 a0 0b be 39 6e 64 bf 4f c9 20 3e 5f bc b8 3d
       -0.1363541 -0.89230686 0.15701793 0.09020304
000190 4c d8 b4 3d e9 0a cd 3d d6 34 96 bc 82 e7 39 bd
       0.08830318 0.100118466 -0.018335741 -0.0453868
0001a0 36 20 82 bd 4e e0 ec 3d 31 31 1e bf aa ca 8d bd
       -0.063538 0.1156622 -0.6179381 -0.06923421
0001b0 c2 63 55 3e 07 54 85 3e 1c cf da be 51 25 44 3c
       0.20838836 0.2604067 -0.42736137 0.011971788
0001c0 0d c7 45 be 31 f9 e1 3c 34 1e 37 be f8 8a 36 3e
       -0.19314213 0.027584644 -0.17882615 0.1782645
0001d0 a2 93 9a be 18 2d ed 3e 51 3b aa 3e 21 94 1e 3e
       -0.3019076 0.46323466 0.3324838 0.15486194
0001e0 42 22 e0 be 3e 4d c6 3d 07 e0 6d 3e f3 d0 8c 3e
       -0.43776137 0.096827015 0.23229991 0.27503166
0001f0 fe ee c9 bd 07 14 a6 3e 98 15 94 3d f5 60 d9 3d
       -0.09860037 0.32437155 0.07230681 0.10614196
000200 e2 dd 6d 3e 0b 74 c9 3d d4 06 21 3e d9 38 15 3f
       0.23229173 0.098365866 0.15725261 0.5828987
000210 c0 54 3d bf 25 5c 4e be bb 24 15 be 8e 7c d7 3e
       -0.73957443 -0.20152338 -0.14564793 0.42087215
000220 7d 21 21 bd f7 9c 8b 3e eb 49 57 3d 7c 18 a1 3e
       -0.039338578 0.27268192 0.052560728 0.31463993
000230 cd dc 7a 3d 86 2b 86 3d fb d9 12 bf 1e 2d 84 be
       0.06124573 0.0655127 -0.5736386 -0.25815672
000240 dc 1d 62 3e 0a f6 db be 3d 4a 18 3d b1 bd bb be
       0.22081703 -0.4296115 0.037180174 -0.3666816
000250 b2 5b 6f be 5f 4f e8 bc b5 82 18 3e 60 bf 0e bf
       -0.23374823 -0.02835816 0.14893611 -0.55760765
000260 2b 77 c1 3e c4 15 85 3e c8 97 07 3e a2 e3 33 3d
       0.3778623 0.25993168 0.13241494 0.04391826
000270 51 fa 3e be 5d 55 5e bd 17 d6 84 3e 33 03 79 bc
       -0.18650176 -0.054280628 0.25944588 -0.015198517
000280 ff c4 8f 3e 5d 11 a3 be c5 ba 97 bc 24 f1 0d 3c
       0.28079984 -0.31849185 -0.018521676 0.008663449
000290 73 c5 5f be 48 0f fe 3d 9a 22 b4 be 60 3b c2 3c
       -0.21852665 0.124052584 -0.3518265 0.023709953
0002a0 ff ad ad 3e e8 11 40 3e 1f 86 b4 3e 51 51 a9 be
       0.3392181 0.1875683 0.35258576 -0.33069852
0002b0 62 27 02 bf 14 9c 13 be fd 21 0c 3e 2a 45 bb be
       -0.50841343 -0.14415008 0.1368484 -0.36576205
0002c0 45 12 cc be e2 e8 31 3e 84 ec c7 bd 2e 0a ec 3e
       -0.3985769 0.17373994 -0.09761909 0.46101516
0002d0 98 8c 9a bd 45 a4 6a bc 7f cb 04 3f 13 f8 bd 3e
       -0.075463474 -0.0143213915 0.5187301 0.37103328
0002e0 c8 34 8b 3e 28 4d 94 be 9c 22 16 be 84 af 30 be
       0.27188706 -0.28965116 -0.1466164 -0.17254454
0002f0 32 83 06 3e 60 13 6c be 40 a0 2b bf a6 92 ab bd
       0.13135985 -0.23054266 -0.670414 -0.0837758
000300 cb 3a 56 3d 49 e2 da be 5e fa c2 3e c7 20 ed be
       0.052302163 -0.42750767 0.3808164 -0.4631407
000310 29 e0 08 bd af 47 da bd 98 11 d4 be ba 7c 17 be
       -0.0334169 -0.10658204 -0.41419673 -0.14793673
000320 fe a6 4e 3e 39 74 af 3e 51 9c 78 3d 72 12 c7 3c
       0.2018089 0.34268358 0.06069595 0.024300788
000330 cf 4f 7b 3e 99 ef f3 bd 79 fe 2a 3e 7b cf 9a be
       0.24542163 -0.11910934 0.16698636 -0.3023642
000340 ae 33 d6 3e 39 87 e9 3e 36 a0 9a bd c4 a5 02 3f
       0.41836303 0.4561098 -0.07550089 0.5103419
000350 88 df 4d bf 36 61 b4 3c ce 8c 2e 3e db c0 2a bf
       -0.80419207 0.02201901 0.170459 -0.66700524
000360 09 8c 47 3c 36 be 7a 3e 91 ea e9 bc 2c a7 32 bf
       0.012179383 0.24486622 -0.028554233 -0.69786334
000370 73 3f 11 bf 78 5b 05 be 03 15 12 3f eb 1f 63 3e
       -0.5673744 -0.13023174 0.5706331 0.22180144
000380 de 4b ac 3e f9 0d ab 3e 29 7a dd 3d 15 3e e7 3d
       0.33651632 0.33409098 0.10814316 0.11291138
000390 b9 44 a2 3e bc d1 9b 3e 2e ed 9b be 1c f6 ad 3e
       0.31693056 0.30433452 -0.3045439 0.3397683
0003a0 77 dd a2 3e 00 aa 0c 3e ac 08 28 3f 9f 2f d2 3c
       0.3180959 0.13736725 0.6563823 0.025657473
0003b0 e3 86 5a 3e b2 60 56 3d 98 2b e4 3e b0 e8 ce be
       0.21340518 0.05233831 0.4456451 -0.404119
0003c0 5a c4 1c be 79 f4 58 3e 42 9f d3 bd 08 87 4f 3e
       -0.15309277 0.21187009 -0.103331104 0.20266354
0003d0 c8 4e a3 bd e6 90 4c 3f 67 40 13 3f 99 de bc bd
       -0.07974011 0.799086 0.57520145 -0.09222145
0003e0 3a 78 50 be 88 89 fd be c1 23 46 be 01 e4 10 3e
       -0.20358363 -0.4951899 -0.19349577 0.14149477
0003f0 4b 95 3e 3e 9e 83 af bd 81 e6 3c be 02 d2 40 bd
       0.18611638 -0.08570026 -0.18447305 -0.04707528

network_body._body_endoder.seq_layers.2.bias f4 [256]
000000 33 06 66 3c 4e 75 80 3a 15 cc 0a 3d 4c 13 b9 bc
       0.014039564 0.0009800585 0.033886034 -0.02259221
000010 d9 da bb bc 6b e0 60 bc d5 01 a1 3c 8b ad d1 3c
       -0.022931503 -0.01372538 0.019654194 0.025595447
000020 e0 71 26 3c 7a b1 ea bc 9c 75 d0 3c 64 c6 e0 ba
       0.010158986 -0.02864908 0.025446706 -0.0017148969
000030 81 f7 f5 3c 83 a6 e1 bc 5c a1 2d 3d 15 71 a0 3d
       0.030025246 -0.02754522 0.042390212 0.07834069
000040 4a a0 2e 3d 64 9d bd 3b 87 0c 21 3c c3 16 8b 3c
       0.042633332 0.0057865847 0.009829647 0.016978627
000050 ad 7f c7 3c 86 1f 9e bc 36 ca 06 bd 3c 40 89 bd
       0.024352873 -0.01930214 -0.032907687 -0.06701705
000060 f0 ed d2 3b 09 3c 8a ba f6 55 3c 3d f8 36 12 bc
       0.0064370558 -0.0010546456 0.045980416 -0.008924238
000070 d5 44 ae bc 3d bc fb 3b 69 d0 30 3d 51 05 90 bb
       -0.021273056 0.007682352 0.043167505 -0.004395165
000080 7b 79 5f ba e4 1d b3 bc 0a 9c 6a 3b 6b 5f 9c 3b
       -0.0008524877 -0.021864839 0.0035798573 0.004772117
000090 6f d2 0b bc e8 19 8a 3c da b8 77 bc db e0 15 bd
       -0.008534058 0.016858056 -0.015119756 -0.036591392
0000a0 03 f2 7b 3b 32 9b 92 3c ed cf e4 b9 0d 47 08 bc
       0.003844381 0.017896269 -0.00043642466 -0.008317721
0000b0 4a 11 f8 ba a7 fe a1 3c 05 c9 bf 3c a1 be b1 3b
       -0.0018926051 0.019774748 0.023411283 0.005424336
0000c0 a1 76 0a 3c 35 87 8c b9 da c9 22 ba 72 b5 a0 bd
       0.008451135 -0.00026803618 -0.0006209888 -0.07847108
0000d0 0d 15 84 bc f2 5d 98 3c 90 5d 47 bd 17 5f 9d bc
       -0.016123319 0.018599484 -0.048673213 -0.019210381
0000e0 1b cb 8b bc 27 f1 10 3b 35 af e1 bc b8 f2 1c 3d
       -0.017064622 0.0022116394 -0.027549366 0.038317412
0000f0 45 40 12 3d 32 bd 21 3d 98 81 a2 3b 65 32 ea 3b
       0.035705823 0.03948707 0.0049592964 0.007147121
000100 54 83 10 ba cc 94 f6 3a c4 95 5d bb d4 e3 86 bc
       -0.00055127335 0.0018812655 -0.003381119 -0.016466059
000110 48 5b 01 3d 57 cb f1 bc 12 89 32 3d 73 c1 88 3c
       0.031581193 -0.029515905 0.04358775 0.016693806
000120 54 d8 35 3d ee 84 d5 3b 27 bd a8 bc 35 eb f8 3b
       0.04439576 0.0065160906 -0.020598007 0.0075963982
000130 52 d4 d5 3c 53 f7 ca 3a 99 06 b2 bb 2d 3c d2 3c
       0.026102219 0.0015485085 -0.0054329154 0.02566346
000140 e0 b2 72 3c 82 4f 7e 3c 8c 82 8c bd 49 e5 05 3d
       0.014813155 0.015521886 -0.06860837 0.032689366
000150 48 1c 5e 3d d3 45 a4 bc da dd 3c bc 02 e0 df 3c
       0.05422619 -0.020052826 -0.011527503 0.027328495
000160 a8 2d 47 3d 3f e0 2e bd 0c 8a 83 bd 69 b0 1b 3d
       0.048627526 -0.042694326 -0.06422815 0.038010035
000170 93 7f df 3c ee 79 07 3d 27 32 32 bc 3b c0 e9 bc
       0.027282512 0.033075266 -0.010876215 -0.028534045
000180 aa e2 ed 3a 67 24 e0 3c 8d 16 da bc 38 85 31 3c
       0.0018149216 0.027361108 -0.026622081 0.0108349845
000190 ed f0 1e 3c ff 9f 15 3c 56 05 da bb e0 e1 6d 39
       0.009700996 0.009132384 -0.006653468 0.00022686226
0001a0 bb ba 45 bb 0b ea 1c bb 36 aa d3 bc 83 b9 5b bc
       -0.0030171114 -0.0023943211 -0.025837999 -0.013410929
0001b0 27 9a 2c 3b 22 e0 87 3d e6 e8 00 3d de ad ba bb
       0.0026337 0.06634547 0.03147211 -0.005696996
0001c0 59 a1 12 bb 4f 54 d1 3c 46 92 41 bd 80 78 9e bc
       -0.0022374003 0.025552897 -0.047258638 -0.019344568
0001d0 36 45 30 bd d3 1d 0d 3c 33 62 86 bc 34 3c dc bc
       -0.043034755 0.008613068 -0.016404247 -0.026884176
0001e0 06 a2 e7 bc b4 c6 dd b9 32 78 96 bb d8 21 19 3c
       -0.028275501 -0.0004230045 -0.004591965 0.009346448
0001f0 9a 86 fa bc c5 e4 18 3d 79 7e 1f bd 26 c8 6e bd
       -0.030581761 0.037327547 -0.038938973 -0.058296345
000200 39 7e fc bc 37 4a 0a bd d7 0f 1e 3c 17 1c 93 bc
       -0.030821906 -0.033762183 0.009647331 -0.01795773
000210 de 04 a0 bc 95 b1 91 bc aa 1d ee 3c 07 c1 86 bc
       -0.01953357 -0.017784873 0.02906688 -0.016449464
000220 89 8a 01 bd e0 bf 3a bc da 4b 06 3d 24 0d d1 3c
       -0.031626258 -0.011398286 0.03278718 0.025518961
000230 00 89 30 bd 03 50 1e bd 26 8d 01 3d 41 6d c0 bc
       -0.043099403 -0.038650524 0.03162875 -0.023489596
000240 7d f9 43 3c f3 c2 17 bd 47 f4 1f bd c9 3a 04 3c
       0.011961338 -0.037051152 -0.03905132 0.008070656
000250 7f 45 83 bc f0 0c 47 3c 16 8c 18 bd db cc bb 3c
       -0.01602435 0.012149081 -0.03724297 0.022924831
000260 0f 05 ec 3c ac a1 44 3b ea bb 39 bc 27 19 b8 3c
       0.028811006 0.003000359 -0.011336306 0.022472931
000270 cc d3 a3 3b f8 4c d4 bc 21 5c 92 3d 85 85 45 3c
       0.0049996134 -0.025915608 0.071464784 0.012055759
000280 38 dc 23 3d 10 f1 8c bc 19 42 32 3d 3e 43 f9 3c
       0.04000494 -0.017204791 0.043520067 0.030427571
000290 7f 8c ef 3c 77 e0 e5 3c 83 b4 11 bc 05 c3 94 bc
       0.029241798 0.028061135 -0.008893135 -0.018159399
0002a0 cd f6 2b 3d 2d 2f 93 bc 43 95 17 3d cf 52 60 3c
       0.041983414 -0.017966831 0.03700758 0.013691618
0002b0 2c e3 c8 bc dd 45 c6 3c f1 71 87 3c dd 7f ed 3c
       -0.024522386 0.024203235 0.016533824 0.028991634
0002c0 8f bf 6d 39 ea ac 46 bc f8 64 4a 3d eb ca 8f bd
       0.00022673442 -0.012126187 0.049412698 -0.070211254
0002d0 b8 05 6d bc 97 c3 fb bb 07 6a a4 bb 2f 0c 9f 3c
       -0.0144666955 -0.0076832282 -0.0050175223 0.01941499
0002e0 07 19 87 3c 3d 36 fc 3c f6 4f 1d bd 82 1f a1 bc
       0.016491426 0.030787582 -0.038406335 -0.019668344
0002f0 84 49 8f 3d 39 89 6c 3c 11 ab 63 bc b3 83 e9 3b
       0.06996444 0.014437013 -0.013895766 0.0071262955
000300 1f a3 99 bd d7 00 48 3c e6 b8 26 3c f0 29 fa bc
       -0.07501816 0.0122072315 0.010175919 -0.030537575
000310 8e 31 52 3c bc 7d d4 bc d9 c5 0c bd af 83 ab 3a
       0.012829198 -0.025938861 -0.03436837 0.0013085509
000320 b9 59 45 3c bd 07 4a 3b 41 ac cd 3c cc 57 6d 3b
       0.012045317 0.0030827366 0.025106551 0.003621566
000330 f3 e4 b8 3c d0 52 a4 bc 03 2a 51 3c 9c 72 ea 3c
       0.022570109 -0.02005902 0.012766364 0.028619103
000340 d3 3c 06 3d 92 fa 10 b9 0c 7a 82 3c eb dd 1b bc
       0.03277285 -0.00013826255 0.015927337 -0.009513359
000350 06 75 44 bb 02 9a 06 bd fb 3a dc 3c ad 20 8d 3c
       -0.0029976978 -0.032861717 0.026883593 0.017227495
000360 7c 30 8c 3c f1 4f cb bc cf b1 78 3b 66 db ee bc
       0.017112963 -0.024818392 0.003794778 -0.029157352
000370 29 a1 33 bc fd cb c0 b8 de 1d 16 bb 0a 31 23 3d
       -0.010963717 -9.193269e-05 -0.0022905986 0.03984169
000380 b6 d7 9c 3c 0c a0 a6 bc 51 e8 4e bd f6 40 4e 3d
       0.019145828 -0.020339988 -0.050514523 0.05035492
000390 77 b3 89 3c 05 01 b6 bb 24 2c f1 3b 1d 35 da 3c
       0.016809208 -0.0055543208 0.0073599983 0.026636655
0003a0 e4 ea f6 bc be d3 35 3d 85 08 de ba ab 8b 67 3b
       -0.030141301 0.044391386 -0.0016939795 0.0035331051
0003b0 7f ed 32 bd 55 d9 46 bc 26 fa 88 bb 63 15 15 bd
       -0.043683525 -0.012136777 -0.0041802106 -0.03639735
0003c0 68 42 6e 3d c4 eb b5 3c de ac 10 3d 9d 61 4d 3d
       0.0581688 0.022207148 0.03532111 0.05014192
0003d0 4c 6d 01 3d 17 13 8e 3c 2c 22 6d ba b2 61 86 bc
       0.031598374 0.017343087 -0.00090459245 -0.016404007
0003e0 08 99 ea 3b 34 c5 62 3d 85 2b 8e 3c 53 56 14 3c
       0.007159356 0.05536385 0.017354736 0.009053784
0003f0 e1 52 30 3d c6 91 c6 bd ae 8f c2 3c 40 90 e3 3b
       0.04304779 -0.09695773 0.023750152 0.006944686

network_body._body_endoder.seq_layers.2.weight f4 [256, 256]
000000 f0 7a 86 3d f2 cd 12 3d 65 c7 a9 3c bf d5 a5 3d
       0.06566417 0.035840936 0.020724962 0.080974095
000010 09 75 1d bd 15 60 eb 3c ae 30 13 bc a3 b6 4f bd
       -0.03844169 0.028732339 -0.008983774 -0.050711285
000020 31 9b af 3d 2a 14 45 bd 50 99 ae 3d f7 66 53 3d
       0.08574522 -0.048114933 0.08525336 0.051611867
000030 8d 3e 38 bd 0e 31 a3 bc c4 c7 61 3c 41 95 0a 3d
       -0.044981528 -0.019920852 0.013780538 0.033833746
000040 be d5 58 bc 34 75 39 3c 51 e4 8d bc 36 8f 5c bd
       -0.013234554 0.011319447 -0.017320784 -0.053847514
000050 4f 20 b3 3d 42 35 3a 3d f6 25 89 3d dc 91 83 bc
       0.08746397 0.045460947 0.066966936 -0.016060762
000060 0c 0b 95 bd 2c 72 0f bc f2 e4 fe bd 64 b5 6c 3d
       -0.07277498 -0.008755248 -0.124460116 0.057790175
000070 1a 49 48 ba ca 7a 88 bd 14 21 9a bd a6 f5 ce bc
       -0.00076402875 -0.06664045 -0.075258404 -0.025263619
000080 64 0a 65 bd 36 f6 c9 3d 35 da 8e 3c 0c 51 40 3c
       -0.055918112 0.09861414 0.017438034 0.011738073
000090 f2 05 16 3d b1 88 f4 bc 76 87 a3 bc 85 d8 c0 bd
       0.036626764 -0.029850336 -0.019962054 -0.09416298
0000a0 90 30 d6 bd 8d c3 b7 bd e8 a7 34 3d 6b bd 43 bc
       -0.10458481 -0.08972845 0.04410544 -0.011947016
0000b0 02 82 1b be 98 dc 53 bd f8 93 bc bb d5 a8 9e bd
       -0.15186313 -0.051724046 -0.005754944 -0.07747046
0000c0 8b ac 9e bd fa 14 02 3e ed 60 2b bd e9 5d 09 be
       -0.07747754 0.12703314 -0.041840483 -0.1341473
0000d0 a6 71 50 bd 11 71 03 3e d0 ee 40 be 70 aa 1b 3d
       -0.050889634 0.128361 -0.188411 0.03800434
0000e0 fd b8 60 3d be 35 14 bd 5b 2f 86 3b 4e 1f 23 3d
       0.05486392 -0.036184065 0.0040950007 0.039824776
0000f0 8e 48 09 be 2b f2 bf 3c 27 6b ae 3c 0b a4 97 3d
       -0.13406584 0.023430904 0.021291329 0.074043356
000100 98 49 b6 3d bd 4a 18 3d 49 37 92 bd cd 3e 09 3d
       0.08900756 0.03718065 -0.07139451 0.033507157
000110 54 e9 ae 3d 6e bc 2f bd f4 f4 0f 3d 27 cf df 3b
       0.085405976 -0.04290431 0.035145715 0.0068301144
000120 f7 dc 98 3d 10 f2 4c bc ba 1b af 3d 85 92 07 be
       0.07464021 -0.012508884 0.0855021 -0.13239487
000130 74 a7 c8 3d 5e 6e d4 3d f5 eb 8b bd f0 92 39 3e
       0.09797564 0.10372613 -0.068321146 0.18122458
000140 c9 80 1a 3e e7 6a 7e bc 47 f4 96 bc 2e e0 ce 3b
       0.1508819 -0.015528417 -0.018427027 0.0063133454
000150 80 64 d0 bc 7c 7d 84 3b 1d cf 77 3c 61 cd 37 3d
       -0.025438547 0.004043279 0.015125063 0.0448736
000160 81 cb 5f 3d 89 36 9f bd 40 15 79 3d 7d b6 34 bc
       0.054637436 -0.07774074 0.06081128 -0.011029837
000170 19 2f e5 bb 80 0a 0a be d5 7f cc bd 71 ae 6c 3d
       -0.00699414 -0.13480568 -0.099853195 0.057783548
000180 4e 77 72 bd d6 94 59 bc a7 32 18 bb 9d 3e 1b bd
       -0.05919581 -0.013280114 -0.002322355 -0.03790151
000190 6d b5 3c 3d 9e 59 e2 3c e8 02 34 bd 24 e2 2a be
       0.04607146 0.027630623 -0.043948084 -0.16687828
0001a0 a9 d2 e0 bd 39 89 47 be c4 d9 38 3d ac 5b 83 bd
       -0.1097768 -0.1948594 0.045129552 -0.064139694
0001b0 77 f6 ea 3c 3f c6 0c bd 3f 60 f0 bd 35 de 09 3e
       0.028681977 -0.03436875 -0.117371075 0.13463672
0001c0 22 1d 02 3d 2d dd e7 bc 07 2b 8b 3d 68 60 0c 3c
       0.031766064 -0.028303707 0.06795316 0.008567907
0001d0 87 48 23 bd d7 a8 8e 3c b7 f6 c9 3d 68 c1 90 3d
       -0.03986409 0.017414493 0.0986151 0.07068139
0001e0 ae e6 ac 3d 1c 98 1c bd 7a 8d 9e 3d 0b 95 a0 3d
       0.08442436 -0.038231 0.07741828 0.07840928
0001f0 fb 8d aa 3d f2 bf ce 3c 4b 1f b9 bc 94 ff 96 bc
       0.08327862 0.025238011 -0.02259793 -0.018432416
000200 4d 59 08 bd e1 07 97 bc 28 6e 51 bb 87 90 af 3d
       -0.03328829 -0.018436374 -0.0031956527 0.08572488
000210 24 6f 96 bd 83 ae 9f 3c e1 2b c3 3b e8 fd 01 3b
       -0.07345417 0.019492393 0.0059561585 0.0019835178
000220 53 0c 8d 3d 9b 8b d1 3b eb b2 75 bd 16 b2 56 3d
       0.06887116 0.006394816 -0.059985083 0.05241593
000230 55 35 0b 3d e8 90 41 bd a7 73 ec 3c 77 f8 ec 3d
       0.03398641 -0.047257334 0.028863741 0.115708284
000240 34 a5 da bd 67 01 33 be d6 87 dc bd fb 84 a8 3c
       -0.10676041 -0.17481004 -0.10768096 0.020571223
000250 83 6c 97 bd 2d 6d 43 bd 9c 97 89 bd b8 89 c7 bc
       -0.07393744 -0.04771154 -0.0671837 -0.024357662
000260 7b 6f 38 bd 5c 34 f5 bc 42 e6 85 bd da 2c df 3c
       -0.04502819 -0.029932193 -0.06538059 0.027243067
000270 72 e8 0d bd cc fe 86 bc 1a 05 96 bb c1 91 c9 3d
       -0.034645505 -0.016478918 -0.004578245 0.098422535
000280 fe 91 b7 3c b2 0b 0c 3e ba 7d 16 3e 4c ed 69 3c
       0.022408482 0.13676336 0.14696398 0.014277767
000290 49 b1 b4 bd ea ca 10 bd 3f e1 f8 3c 53 ad 9a bd
       -0.08822877 -0.035349764 0.030380843 -0.0755259
0002a0 1e 92 97 3c 07 3e 84 bb e5 22 82 3d 10 b1 2d bd
       0.018502291 -0.0040357145 0.06354312 -0.042405188
0002b0 ed 52 7d bd 87 5d b7 bd ef 06 1f bd 43 eb ab bb
       -0.061846662 -0.08953386 -0.03882497 -0.0052465512
0002c0 f1 2c 5b bc 3b e2 e2 bd 15 0c de 3c fa 17 c6 bd
       -0.013377414 -0.11078306 0.02710537 -0.09672542
0002d0 b7 1c 9f bc de b8 0f 3e 24 c5 80 be a3 6e 8f bc
       -0.019422872 0.14035365 -0.25150406 -0.01750881
0002e0 ee df 8a 3d 7a 75 68 bd b3 21 57 bd 8f 73 1b 3d
       0.067809924 -0.05675266 -0.052522372 0.037952002
0002f0 b2 e7 58 3d 8a 18 5a bd c9 e8 e6 bd 67 f6 66 3d
       0.052955337 -0.05324606 -0.11274869 0.05638733
000300 ac 0b c0 bd ef f7 e5 bb d3 4e 1b 3d e0 d2 df 3d
       -0.09377226 -0.0070180814 0.03791697 0.10928893
000310 b3 26 bf 3d 0b 8e c0 bc 30 7e 22 3d f1 af ac 3c
       0.09333553 -0.023505231 0.039671123 0.02107999
000320 d7 36 03 bd 92 b2 b1 bd af f1 b3 3d 04 80 03 3e
       -0.03203472 -0.08676638 0.08786332 0.12841803
000330 85 60 29 3d 32 dd 70 bc 27 c0 e8 bd ac c2 07 3b
       0.041351814 -0.014701175 -0.11364775 0.0020715399
000340 c6 91 39 3b 1a 14 c1 3d 95 47 df 3c 24 4e 70 bc
       0.0028315648 0.09427662 0.027255813 -0.014667068
000350 4e 86 31 3d 93 eb f4 bc b0 bd a7 3d 8e a1 44 bc
       0.043340974 -0.029897487 0.08190477 -0.012001408
000360 ac 2b c9 bd b6 91 fc 3c 66 b9 03 bd 74 34 90 bd
       -0.09822783 0.0308312 -0.03215923 -0.07041255
000370 ca d7 50 bd 43 57 79 bd 1f 77 1d bd e9 e6 5b 3c
       -0.050987042 -0.060874235 -0.03844368 0.0134217525
000380 c6 28 6f bb 5b 6b 00 be 68 f5 23 3c 53 d9 3c bd
       -0.0036492809 -0.12540953 0.01000724 -0.046105694
000390 1e db 23 bd d6 1d 41 3d 24 7f d5 bc 97 8d 70 bd
       -0.04000389 0.047147594 -0.026061602 -0.05872878
0003a0 9b 7b 6c bc d4 2d 6d be c1 de 17 be ae 1c 80 3d
       -0.014433767 -0.23162013 -0.14831068 0.0625547
0003b0 89 c5 43 3e ba 78 91 bb 65 e9 1a 3d a8 64 c0 bd
       0.19118322 -0.0044394406 0.03782024 -0.09394199
0003c0 d2 83 84 3d bd c2 49 bd e6 fd 22 3c d6 d8 30 bd
       0.06470455 -0.049257983 0.009948229 -0.04317554
0003d0 52 90 f8 bc 7c 4c 34 3d d3 5e 43 3d ee f3 bd bd
       -0.030342255 0.044018254 0.047697853 -0.092750415
0003e0 c8 5e c7 bd 37 00 a8 bd f2 60 e4 bd 26 b2 63 bd
       -0.09734875 -0.08203166 -0.11151303 -0.055589817
0003f0 f8 57 d7 bc 3a 33 dc bd 4a da 31 bc 34 e9 9a bd
       -0.026287064 -0.10751958 -0.010855267 -0.07564011

network_body.observation_encoder.processors.0.normalizer.running_mean f4 [11]
000000 d0 cc 16 41 98 d1 9b 40 ba ad 84 3e d3 ea 3d 3e
       9.425003 4.869335 0.25913793 0.1854661
000010 61 98 87 3e 07 67 41 3e 9e 82 12 41 d6 57 9b 40
       0.26483443 0.18886958 9.156889 4.854472
000020 5d 5b 43 43 6a 91 ac c1 73 3a 43 43
       195.35689 -21.571003 195.22832
