Assets/Fight.onnx (onnx, 283124 bytes, 10 tensors)

68 f4 [11]
000000 3d c6 36 41 d2 a8 fb 40 eb d7 c0 3f fb 6b d3 3f
       11.423398 7.864358 1.5065893 1.6517328
000010 6c 78 b5 3f a8 4b ca 3f db 7e 3a 41 93 13 00 41
       1.4177375 1.5804338 11.655971 8.004779
000020 9b 7c fa 42 e5 99 aa 41 2f b5 ed 42
       125.24337 21.325144 118.853874

action_model._continuous_distribution.log_sigma f4 [1, 3]
000000 ec d7 5b bd 26 79 ba bc e2 a7 ce bc
       -0.053672716 -0.022762846 -0.025226537

action_model._continuous_distribution.mu.bias f4 [3]
000000 1c 33 2a ba 4c df 12 bd 20 eb 29 3b
       -0.0006492601 -0.035857484 0.00259275

action_model._continuous_distribution.mu.weight f4 [3, 256]
000000 da ed ae bc 08 90 12 3d 6e f2 88 bc b7 aa 6e bb
       -0.02135365 0.03578189 -0.016717162 -0.0036417672
000010 0e 7e ae bb c9 ed 12 3b 88 a3 86 3b 2c 82 3b bc
       -0.0053250855 0.0022419563 0.00410885 -0.01144461
000020 95 bb 3c bc bf bc 2a bc 0d 34 81 3c 63 23 07 bc
       -0.011519332 -0.010420977 0.01577189 -0.008248183
000030 8d d7 f2 3b b7 a5 db bc 50 ab 40 bc 51 65 98 3b
       0.0074109496 -0.026812417 -0.011759594 0.0046507497
000040 7f 66 67 bc 05 1d ce ba c5 0c e2 3c 48 4a 94 3c
       -0.014123558 -0.0015725201 0.02759398 0.018101826
000050 e9 7f 49 bc e1 bd bf b9 3e 96 82 bc b7 78 ee bc
       -0.012298563 -0.0003657183 -0.015940782 -0.029110296
000060 24 bf 24 bd 5d 33 0d bb 2d 32 dc bb ae 55 8a bc
       -0.04022135 -0.0021545507 -0.0067198486 -0.016886558
000070 62 87 30 3d d7 ce f8 3a 5d 4f 99 b9 90 da 25 bc
       0.04309786 0.0018982542 -0.00029241564 -0.01012291
000080 3d 16 e5 bb 61 dd 0a b9 f7 d7 9b bb 42 6a 9e ba
       -0.0069911764 -0.00013243176 -0.0047559696 -0.0012086111
000090 14 2a 4a 3c 9f db 8b 3a d8 12 d1 3c 78 b8 f0 3b
       0.012339134 0.0010670311 0.02552168 0.007346209
0000a0 12 7d ee 3b b6 f4 05 bd dd f1 8c bb 98 ff 93 3c
       0.007278093 -0.032704078 -0.0043012933 0.018066213
0000b0 17 0e d0 bc da a1 87 3b 79 c8 72 bc c4 57 46 bc
       -0.025397344 0.0041391673 -0.014818304 -0.012105886
0000c0 6e 1b a4 3b 30 95 89 bc 00 76 97 3b 9a 54 94 3c
       0.0050081527 -0.016794771 0.004622221 0.018106747
0000d0 a9 5e 5c bb 33 d9 33 bc 4a 76 8d bc 8d 46 a0 3c
       -0.0033625758 -0.010977077 -0.017268319 0.019564891
0000e0 92 97 0a bc f4 b0 bb 38 57 49 cd bc d6 23 49 bc
       -0.008458989 8.949815e-05 -0.025059385 -0.01227661
0000f0 26 5b 81 3c 00 06 aa b9 e4 48 04 bc aa 40 83 3b
       0.015790533 -0.00032429397 -0.008074019 0.0040055113
000100 1c 01 a7 bc b9 82 31 3b 85 28 44 3b 63 1c 2e bc
       -0.020386271 0.0027085973 0.0029931378 -0.010626885
000110 23 23 da bb 7e 9c 9a 3b 61 8e c9 3c 50 2d 04 ba
       -0.0066570207 0.0047183624 0.024604024 -0.00050421525
000120 0b c6 94 3b 26 81 fb bc a6 c1 2f bc 11 ed 13 bc
       0.00454021 -0.030701231 -0.010727322 -0.009028689
000130 8e c1 66 bc e6 f3 0d bc cf 4e 42 3c 1b b8 a6 bc
       -0.014084233 -0.008664107 0.01185961 -0.02035146
000140 c7 02 12 bb 62 6e cf 3c a6 de e4 ba 31 8a 5a ba
       -0.0022279487 0.02532119 -0.0017461374 -0.0008336632
000150 8b 8b 16 3c 2c 11 1b 38 30 c5 dd bc 79 4a 9a 3c
       0.009188543 3.6970872e-05 -0.027071565 0.01883434
000160 dd fd b8 3b 2d c7 a9 bb 8a b8 d7 bb 7d a5 d4 3b
       0.0056454972 -0.0051812143 -0.006583278 0.0064894543
000170 54 7b 5f 3c 00 f9 aa bc 76 e3 2d bc 06 ca 4c bb
       0.013640244 -0.020870686 -0.010613313 -0.0031248345
000180 7d 4f c0 ba 2b 64 12 bc 7d c2 f8 ba e0 b7 b1 bb
       -0.0014672127 -0.008935015 -0.001897886 -0.005423531
000190 5b a6 5a 3c 74 3a ae bb 6d f8 34 bc 8e 61 dd 3a
       0.013345326 -0.0053170267 -0.011045557 0.0016890035
0001a0 b6 a9 7d 3c 16 57 c3 3a 13 64 02 bd c0 8f 92 3a
       0.015482357 0.0014903273 -0.03183372 0.0011181757
0001b0 a8 92 87 3c 32 37 1f bc 87 c0 89 bc be 94 51 3b
       0.016549423 -0.009717749 -0.016815437 0.0031979526
0001c0 55 8e b1 bb c2 bb fb 3b 4a df 29 3b 90 17 11 3c
       -0.0054185786 0.0076822946 0.0025920444 0.008855715
0001d0 53 af b8 3b df ba 10 39 66 16 fb bb ec b5 93 bb
       0.0056361347 0.00013802525 -0.007662582 -0.0045077708
0001e0 8b 32 52 3c 49 78 8e 3b f8 e3 29 3a ba ea 23 3a
       0.012829433 0.004347835 0.00064808084 0.00062529335
0001f0 b7 7b 23 bc 93 cf 8a bc b0 31 81 bb 2b 75 5b bc
       -0.009978226 -0.016944682 -0.003942691 -0.013394634
000200 e4 26 8d bc 32 26 3d bc 59 5c 1a bc cd 39 30 3c
       -0.017230459 -0.011544751 -0.009421431 0.010755968
000210 7f c7 73 bc ca 45 b8 bc d6 ad b0 bc 1f f5 b4 3c
       -0.014879107 -0.022494216 -0.021567266 0.02208954
000220 9e bc db b9 25 16 ba bb 7f 03 5b 3b cf 6d 04 bc
       -0.00041911466 -0.0056789094 0.0033418832 -0.008082821
000230 a2 d1 46 b8 f0 74 ca 3c 20 6d 83 bb f9 0c 4e 3c
       -4.7402114e-05 0.024713963 -0.0040108114 0.012576335
000240 b4 73 d1 ba 8e 10 5e 3a 43 f5 4c 3c 32 03 a9 ba
       -0.0015979917 0.0008471095 0.012509647 -0.0012894629
000250 b7 de 13 bc 05 c4 8c bc b3 3c d6 bb 20 eb cc bb
       -0.009025267 -0.017183313 -0.0065379976 -0.006253615
000260 53 c4 6a 3b 5d 19 6e ba 1b 2e ac 3a 62 2d c2 3a
       0.0035822585 -0.0009082759 0.0013136299 0.001481455
000270 1f 1b 48 bc 1a 90 39 3c 75 8d b4 3b 89 51 00 bc
       -0.012213497 0.01132586 0.005510027 -0.0078319395
000280 ed 45 86 3c 4a 75 a4 3c 2d cf 16 bd 46 b9 92 bc
       0.016390765 0.020075459 -0.036818672 -0.01791061
000290 9a 23 a9 3b 8f 90 ab bb de 60 16 3c 82 f4 8b bc
       0.0051617147 -0.0052357386 0.009178368 -0.017084364
0002a0 c8 0e 05 3c 6b eb 1a 3c ae d7 8b 38 2b 79 be bb
       0.0081212 0.009455542 6.66821e-05 -0.005812784
0002b0 e3 a3 71 3b 68 5d bf 3b 56 b1 9d 3b d6 54 40 bb
       0.0036871366 0.0058399923 0.0048124 -0.002934744
0002c0 85 e7 5e 3a ec 72 88 bc 4c f2 2e bc 11 85 94 3c
       0.0008503127 -0.016656362 -0.010677885 0.018129857
0002d0 44 b4 d3 3b 8f 28 8d bc ff 6b 2f b9 10 36 74 3b
       0.0064606983 -0.017231254 -0.00016729532 0.003726367
0002e0 4d 25 c1 b9 d6 cc 60 bc af d3 3d bc 97 90 a0 bc
       -0.0003683962 -0.013720712 -0.011586114 -0.019600196
0002f0 1c a5 81 bc e7 80 1a 3c db e2 25 bc 09 88 8c bc
       -0.0158258 0.009430147 -0.010124887 -0.01715471
000300 1d e7 cf bc 16 23 4f bb 98 2d 28 bc 0e 50 bf 3b
       -0.025378758 -0.0031606606 -0.010264777 0.0058384007
000310 6a 76 bb bc bb 8a 3a 3b db ac 30 bc 4f 6a 84 bc
       -0.022883613 0.0028464037 -0.010783399 -0.016163973
000320 6b 99 c1 bc 2b f0 75 3c cc 16 12 bc 5d 7e eb bc
       -0.023632726 0.015010874 -0.008916568 -0.028746778
000330 ea 09 9d 3b 08 2f 06 3c b1 59 0a bc 47 6b 4f bb
       0.0047924416 0.008189924 -0.008444236 -0.0031649636
000340 eb f8 6e bc 15 24 a5 bc 08 59 76 ba d0 62 b1 3b
       -0.014585714 -0.020158807 -0.0009397422 0.0054133907
000350 e8 fc f6 bc 90 2d 6f 3c 42 8a fe 3a f4 a8 20 3c
       -0.030149892 0.014598265 0.0019419866 0.009805907
000360 49 14 82 b9 f9 74 89 bc f5 cc 6f 3c c6 f5 8a 3c
       -0.00024810646 -0.01677941 0.014636268 0.016962897
000370 0f 83 c8 3b 05 b3 d0 bb 83 53 98 39 53 4a 90 bc
       0.006119139 -0.006368997 0.0002905392 -0.017613566
000380 3b 4c 4c bb f6 70 71 bc f3 f5 34 bc 74 c4 a6 bb
       -0.0031173367 -0.014736405 -0.011044967 -0.005089337
000390 5a 86 09 3c 10 ab 5b bc dd 4f 85 bb d8 e1 20 bc
       0.008393848 -0.013407484 -0.0040683583 -0.00981947
0003a0 4e 9b 1c bb 11 45 6c bc 43 13 49 bc aa 9e 48 bb
       -0.002389628 -0.014420764 -0.012272659 -0.003061215
0003b0 07 63 3d bc 13 b6 da bc e2 05 58 3b 34 cd 67 3b
       -0.0115592545 -0.026698148 0.003296249 0.0035370113
0003c0 05 69 92 bc d6 5a e4 bb 48 e6 a1 3b e5 a3 e6 3b
       -0.017872343 -0.0069688363 0.0049407817 0.0070385807
0003d0 64 f8 32 bc 8e 0e 9a bc 03 3d 49 ba 0a aa b0 bc
       -0.010923479 -0.018805768 -0.0007676633 -0.021565456
0003e0 94 d6 3b bc 33 ea 87 bc 6f 06 dc bb 5a f8 65 3a
       -0.011464734 -0.016591167 -0.006714634 0.0008772664
0003f0 e9 4b 62 bc b4 8a 46 3b 06 56 3d bc 25 bf 1e 3d
       -0.013812044 0.0030295076 -0.011556154 0.03875651

action_model._discrete_distribution.branches.0.weight f4 [1, 256]
000000 6f e9 a5 3b 1b e6 a8 bb 11 51 82 bb ea 17 2c bb
       0.005063228 -0.005154384 -0.003976949 -0.002625937
000010 31 9c 93 bb 92 95 ba bb e0 02 d2 3b f8 43 a5 bb
       -0.0045047035 -0.0056940997 0.006409034 -0.005043503
000020 37 14 4e bb f0 e2 d9 3b 82 2c 6b bb 6b 1a e2 3a
       -0.0031445154 0.0066493675 -0.0035884683 0.0017250305
000030 f7 28 23 38 3a d8 4e b8 5c 94 a5 bb 67 d6 b2 3a
       3.890038e-05 -4.9315604e-05 -0.005053086 0.0013644219
000040 a5 c1 33 3b aa dc 23 3b fd 76 87 bb 89 da 4b bb
       0.0027428654 0.0025003352 -0.0041340576 -0.00311056
000050 67 95 36 3a af af b8 3b d2 e7 3a bc 23 9a 47 bb
       0.00069650117 0.0056361775 -0.011407809 -0.0030456863
000060 d4 ac ac 3b 32 e3 f3 3a 9f 71 ed 3a 67 50 8b ba
       0.005269626 0.0018607138 0.0018115527 -0.001062882
000070 df 88 cc ba 9e 12 17 3b 2f 75 c3 bb f8 39 07 3c
       -0.0015604756 0.0023051868 -0.005964897 0.008253567
000080 4f 7b 00 3b 57 b0 a3 3b 42 81 eb b9 b2 ac 58 bc
       0.0019604748 0.0049953866 -0.00044918997 -0.0132247675
000090 7b 1c 46 3b 9c ab bb 3b a3 65 45 bc 50 5a 86 ba
       0.0030229378 0.0057272445 -0.012048158 -0.0010250304
0000a0 63 2f 2a bb 06 97 13 3b 08 9d bf bb eb e5 42 bb
       -0.0025968186 0.0022520437 -0.005847577 -0.0029739093
0000b0 42 51 98 3a 8a b1 5a bb a4 5c 2c bb 9f 25 c8 3b
       0.0011620896 -0.0033369982 -0.0026300335 0.0061080004
0000c0 e5 00 41 bb 30 44 d9 3b 8f 42 7a 3b 25 84 4b 3b
       -0.0029449996 0.006630443 0.0038186645 0.0031054106
0000d0 be d9 a1 3b a6 76 84 ba fd 9e f0 3b 8d 19 4a bb
       0.004939287 -0.0010106161 0.0073431716 -0.0030837983
0000e0 a0 0d 08 3b 7a b0 cd 3b e7 a5 67 bb e3 55 09 3c
       0.0020760074 0.006277141 -0.0035346688 0.008382293
0000f0 8f 8c 01 bc 47 94 85 3b 1b b5 f3 bb e5 ad 42 3c
       -0.007907047 0.004076514 -0.007437361 0.01188228
000100 85 9c cb bb d2 6a 65 bc 88 67 ce 3b 17 00 be 3b
       -0.006213727 -0.014002519 0.006298963 0.0057983506
000110 4b 62 12 bc 12 58 19 3c 15 e5 fa bb 39 fc 31 bb
       -0.008934568 0.0093593765 -0.0076567032 -0.0027158393
000120 af 91 a4 3b 8a 89 8e b9 27 8e 80 bb 60 0b 01 bb
       0.0050222497 -0.00027186825 -0.003923196 -0.0019690618
000130 a3 a3 8d 3b e3 65 32 bb 6a 5b d1 3b f6 a8 9e 3b
       0.0043224855 -0.0027221374 0.0063890712 0.004841919
000140 7c 7d 82 ba e3 24 2e bb d5 63 6e bc bf 02 df b9
       -0.000995561 -0.002657228 -0.014550169 -0.0004253592
000150 4a fc 6c bb ab 0e 84 bb a2 0f dc 3b 88 95 93 bb
       -0.0036161118 -0.004030069 0.0067157308 -0.0045039095
000160 98 67 e3 bb fa a1 5d 3b 09 3f 26 3c 18 e8 c7 3b
       -0.0069398396 0.003381847 0.010146865 0.006100666
000170 06 9d 99 bb 7b 3d a5 3a d7 8d 6b 39 b0 2b c5 ba
       -0.004687908 0.0012606824 0.00022464186 -0.0015042927
000180 3f 99 ff ba d8 98 dd 3a 55 54 7b bb c3 81 5a bb
       -0.0019500627 0.0016906513 -0.0038349826 -0.0033341504
000190 43 0e 17 bc 45 8e 75 3b af 40 be bb 98 af 66 3b
       -0.009219709 0.0037468832 -0.0058060507 0.0035199877
0001a0 bb 3c 34 3b 4c c6 af bb 4d 74 e3 3b b8 08 94 bb
       0.0027502018 -0.005364215 0.0069413544 -0.004517641
0001b0 9a 20 12 3c 91 9e 2d bb 05 01 18 bb 64 02 47 bb
       0.008918906 -0.0026492218 -0.0023193967 -0.0030366415
0001c0 ce 37 4b 3b ab 82 ea bb 13 19 ed ba c8 fb eb 3b
       0.0031008604 -0.00715669 -0.0018089138 0.0072016455
0001d0 be 9a 41 ba ff 7c 27 bb 05 df 69 3b 69 9d c0 3b
       -0.0007385424 -0.0025556681 0.0035685909 0.0058781398
0001e0 43 dc a1 3b 00 46 6d bb 66 da b8 bb 75 d8 8c 3b
       0.0049395873 -0.0036205053 -0.0056412695 0.0042982646
0001f0 da e6 25 bc 8b c9 6f ba 85 6c 4d b9 ab 9d 15 bc
       -0.01012584 -0.00091471587 -0.0001959075 -0.009131829
000200 97 13 dc 3a 3f fb 1a bb 37 9b a0 b8 54 06 38 39
       0.0016790506 -0.002364829 -7.6583055e-05 0.00017549965
000210 67 70 e5 bb 13 55 6c ba 5a 06 1f bb 6c 85 a2 b9
       -0.007001925 -0.00090153626 -0.002426526 -0.00030998455
000220 5b 1a b9 ba 9f 50 ba 3b cd 1a 0b 3c 3b ee 0f bc
       -0.0014122234 0.0056858803 0.0084902765 -0.008784826
000230 13 35 0c 3b 13 9f f9 ba 75 f9 01 3b d6 21 a9 3b
       0.002139394 -0.00190446 0.0019832526 0.0051615043
000240 df 58 20 3c f1 75 b3 ba ef c4 b9 3b f0 10 3d 3b
       0.0097868135 -0.0013691765 0.0056692283 0.0028849207
000250 8b 38 3f 3b 30 8d f6 bb d8 39 ea 39 c0 58 a6 3b
       0.002917799 -0.007524155 0.00044675055 0.005076498
000260 3c 36 29 bb a0 9d 5a bb 46 b9 35 bb b0 3c f9 39
       -0.002581968 -0.0033358112 -0.002772884 0.00047538197
000270 e7 5b 59 bb 89 24 09 39 96 83 0f 3c 60 df 02 3a
       -0.003316635 0.00013078949 0.0087594 0.0004992392
000280 63 24 5f bc 74 32 31 bc 42 fc 16 3b ff 34 6f bb
       -0.013619515 -0.010815252 0.002303854 -0.0036500094
000290 25 04 5e bc 5d 0f 4e bb a7 07 35 bb 50 c3 ea 3a
       -0.013550793 -0.0031442263 -0.002762297 0.0017910991
0002a0 67 c8 e5 ba f8 eb 6b 3a 80 38 df 3a af 35 d9 3b
       -0.0017531038 0.00089997007 0.0017030388 0.006628714
0002b0 a2 73 1c 3b c2 6c bf bb ff 0f d7 3b 53 95 ea bb
       0.0023872633 -0.0058418224 0.006563186 -0.007158914
0002c0 37 b6 15 38 a3 f8 ef b9 e7 13 b2 3a 56 0a 1a bc
       3.569407e-05 -0.0004577088 0.0013586254 -0.009401878
0002d0 6a f5 a2 3b d7 33 63 3b d8 65 8e 3a 5f 58 61 3b
       0.0049731033 0.003466835 0.0010864092 0.0034384949
0002e0 fd 90 06 3c 78 12 55 3c 75 f8 6a 3b d3 7e ae bc
       0.008213279 0.013004892 0.0035853658 -0.021300709
0002f0 08 17 75 bb 58 09 04 3a 03 22 9d 3b 40 c5 0b bb
       -0.003739776 0.0005036793 0.0047953143 -0.0021327287
000300 8d d0 55 37 3e 93 21 bb 43 0a 06 bc ed f9 11 bb
       1.2744346e-05 -0.0024654414 -0.0081811575 -0.0022274212
000310 bb c3 04 3c c6 48 12 3b be 65 90 bb 0f 43 83 3b
       0.008103306 0.0022321208 -0.00440666 0.0040057967
000320 43 db cc ba b1 11 88 bc 98 fe a1 3b cd a2 f4 3a
       -0.001562931 -0.016609998 0.00494368 0.0018664241
000330 a3 ca aa 3b 2f 03 8b 3a ea ec 05 bc 9b 3a 65 3b
       0.0052121445 0.0010605807 -0.0081741605 0.0034977559
000340 b7 69 0d bc 4b 40 b0 3a aa 44 98 bb 40 d7 fa 3b
       -0.008631161 0.0013446895 -0.0046468573 0.0076550543
000350 c3 ca f3 3a 63 f5 81 bb 99 94 19 bc 1d a6 19 3c
       0.0018599856 -0.00396602 -0.009373807 0.009377983
000360 bd 06 ee bb f5 9f 5d bb cd 34 96 39 67 a3 49 3a
       -0.007263987 -0.0033817266 0.0002864957 0.00076918904
000370 3b 7b 68 bc 2a 3b 9c bb 39 37 19 bb 6b ab 9d 3b
       -0.014189537 -0.004767795 -0.0023378863 0.0048116944
000380 47 13 15 bb b6 26 c0 39 d1 1c 39 bb 35 77 79 bb
       -0.0022747086 0.00036649936 -0.0028245936 -0.0038065438
000390 1d d5 14 bc 58 08 51 3b 8c a5 32 bb 09 86 0d 3b
       -0.009084013 0.0031895842 -0.0027259318 0.0021594784
0003a0 35 e2 5c 3b 57 98 a3 3c 0b 76 35 bc 37 e7 0f bc
       0.0033704166 0.019970102 -0.011075507 -0.008783153
0003b0 c5 a7 81 3a a5 72 33 3a ef 12 99 bb 2d 44 63 bb
       0.0009891918 0.00068453915 -0.0046714465 -0.0034678087
0003c0 b5 e5 df 3b f9 66 46 bc 03 8f ad ba c7 39 97 3b
       0.006832803 -0.0121095115 -0.0013241473 0.004615042
0003d0 aa 6d b5 3b be 66 94 bb e7 a2 5e 3b c7 4a 03 3c
       0.0055367546 -0.0045288494 0.003397161 0.008013434
0003e0 ea a6 32 bb d3 d9 c6 ba 05 5b e5 bb b5 d9 e0 3a
       -0.0027260133 -0.0015171118 -0.0069993758 0.0017154726
0003f0 7e 28 8e bc cf 7e dd 3b 41 11 94 bb d2 0e fc bb
       -0.017353293 0.0067595015 -0.0045186584 -0.0076921964

network_body._body_endoder.seq_layers.0.bias f4 [256]
000000 12 1f 2a 3d 07 36 2b bd 75 2d c1 3b 38 de 92 3c
       0.041533537 -0.04179957 0.0058953115 0.017928228
000010 4b 37 dd 3c d2 91 20 3d 2f b1 2f 3d 2f 8f b7 3b
       0.027003905 0.039201565 0.042893585 0.0056017856
000020 b8 7f f7 3b 5d ef ff 3c b5 1c 52 bc 2e 16 08 bd
       0.007553067 0.031242067 -0.012824227 -0.033224277
000030 0b c8 e8 3c dc 46 05 3c 5f f2 0c 3c 98 88 95 3c
       0.0284157 0.00813457 0.008602708 0.01825361
000040 14 6d 0a bd bf 9b 5c 3c 5d 80 cf 3c 82 45 fd 3c
       -0.03379543 0.013464867 0.025329763 0.030916933
000050 77 d0 cb bc 60 10 d8 3c 77 b4 21 3d f7 ee fc bc
       -0.024879677 0.026374996 0.039478745 -0.030875666
000060 50 50 0e bc 37 3e a0 3c ed 33 2e 3d 1a e6 16 bc
       -0.00868614 0.019560916 0.04252999 -0.009210134
000070 e6 21 22 3d fe 15 a4 3c 34 72 c4 bc f3 1f 28 3d
       0.03958311 0.020030018 -0.023980238 0.041046094
000080 3a de 3d 3c 54 3d bd 3c dc 26 7d 3c 75 24 cb 3c
       0.0115886275 0.023100533 0.015451159 0.024797658
000090 3e 10 0f 3d 68 01 b4 3c 31 2b b1 bc 5d 77 76 bb
       0.0349276 0.021973327 -0.02162704 -0.0037607767
0000a0 45 a2 f5 3b df a9 9c 3c 01 9b 86 3c f9 d8 09 bc
       0.0074961507 0.01912397 0.016431333 -0.008413547
0000b0 28 39 27 3d d1 2f 1a 3d 6a cc 40 bc fd 81 d0 3a
       0.040825993 0.037643258 -0.011767486 0.001590788
0000c0 eb 3f 18 bd 75 06 54 3c 1a 99 d6 3c 05 18 a3 3b
       -0.037170332 0.012940993 0.026196051 0.0049772286
0000d0 ed 72 2a bb 72 fd f4 3c 00 ea 7e bc d5 99 4a 3c
       -0.0026008443 0.029906008 -0.01555872 0.012365778
0000e0 b8 b9 71 3a 39 4b 09 3c c3 d2 bf bc 15 1e 22 ba
       0.00092210947 0.008379751 -0.023415929 -0.0006184292
0000f0 9b 35 d8 3b a1 57 34 3b ba 54 b5 3c d6 ab 90 bc
       0.006598187 0.0027518051 0.022135127 -0.017660063
000100 b2 16 9f 3b bb 01 e7 39 1f f6 e5 3c 25 b8 ad bc
       0.0048550004 0.00044061043 0.028071461 -0.021205971
000110 a0 e9 85 bb e6 33 75 3c 1c fb 82 ba 8a 8f 43 ba
       -0.004086688 0.014965987 -0.0009993049 -0.00074600487
000120 25 2e 88 bc bc 77 21 3d 44 ac cb bc 18 51 f4 3c
       -0.016623566 0.03942083 -0.024862416 0.029823825
000130 95 ee bc ba a5 05 ee bc 15 5e c9 3b 39 4d c1 bb
       -0.0014414365 -0.029055426 0.0061452487 -0.0058990982
000140 23 55 36 3b fe 57 28 bc 1c 7b 43 3d 9e 51 ff ba
       0.0027821742 -0.010274885 0.047724828 -0.001947928
000150 5d ab 06 3d 54 b6 19 3d 61 1f 9f 3c 03 81 09 3d
       0.03287827 0.037527397 0.019424142 0.0335703
000160 43 92 ae 3c c6 7a c1 3c 76 e5 1f 3d ab f0 2b b9
       0.021309977 0.023618113 0.03903719 -0.00016397487
000170 3d c9 02 3d 5a 0b 11 bc 37 4a fe bc 5f 8d 05 bd
       0.031930197 -0.008852804 -0.031041248 -0.032605525
000180 65 0c e9 3c a1 26 eb bc 16 bc 53 bb c4 dc 2f 3d
       0.028448293 -0.028704943 -0.0032308153 0.042935148
000190 6b fd 15 3c bb ea b7 3c 76 8f c1 3c a7 42 23 3d
       0.009154658 0.022450795 0.023627978 0.039858487
0001a0 5b 5f fd 3c e4 0e 39 3c 6c 75 6c 3c cc 34 4d bc
       0.030929258 0.011295054 0.014432292 -0.012524795
0001b0 d5 65 a7 3c ad da 30 3c 7e e8 8b 3c 9b 54 3c 3d
       0.0204343 0.010794324 0.017078634 0.045979124
0001c0 33 c2 ff 3c dd 5c 6b 3c a2 8a b8 3c c6 ef 6d bc
       0.031220531 0.014365402 0.022527043 -0.0145224985
0001d0 8d ce 1b 3d 8e 57 54 bc 1d b2 a7 bc 16 d5 d5 bc
       0.03803878 -0.012960328 -0.020470673 -0.026102584
0001e0 07 46 c7 3b b6 ea 85 3c 1b 0d af bc a4 e3 be 3c
       0.006081346 0.01634727 -0.021368554 0.023301907
0001f0 aa 62 2b 3c bd 51 97 b9 fe b3 88 3c e8 25 2c 3d
       0.010460535 -0.00028861864 0.01668739 0.042028338
000200 8d a6 e0 bb 80 49 33 3d c4 cd 47 3b c2 96 9a 3c
       -0.006855792 0.043771267 0.0030487636 0.018870715
000210 54 5d 00 bc 3f 20 42 3d 49 80 36 3d 73 cc ba bc
       -0.007834751 0.047394034 0.044555936 -0.022802567
000220 bf c7 c4 bc 93 b2 91 3c 67 e1 09 3d 0d 95 be bc
       -0.024021028 0.017785346 0.033662226 -0.023264432
000230 43 34 b0 bc c6 b5 e5 3c c7 dc f2 bc 02 65 b8 3c
       -0.021509295 0.028040778 -0.02964629 0.022509102
000240 03 2b a1 3c 29 fa 03 3d 19 3f 79 3c 9f ac a9 bc
       0.01967383 0.032220993 0.015212798 -0.020712195
000250 e8 a1 00 bd 64 f0 e3 3c 21 ee fa 3b 31 29 53 3c
       -0.031404406 0.027824588 0.0076577817 0.012888239
000260 b4 8d a3 b9 d3 f9 26 3c be f6 0f 3d 63 dd bb 3c
       -0.0003119536 0.010191399 0.03514742 0.022932714
000270 a4 7b 1d bb dc 68 8d bc 95 57 29 bc df 6b 98 3c
       -0.0024029994 -0.017261915 -0.010335823 0.018606124
000280 4e ee 2b 3d de 83 aa 3c 1f 80 70 3c b6 e8 0f 3a
       0.041975312 0.020814832 0.014678984 0.0005489694
000290 2f f4 f1 3c 0f c3 ff 3c c2 20 a2 bb cc 49 63 bc
       0.029535381 0.03122094 -0.0049477527 -0.013872575
0002a0 aa fe dc 3c 0c e6 a4 3c 83 67 ae ba a4 e1 9e 3b
       0.026976902 0.020129226 -0.0013305995 0.004848676
0002b0 a0 b4 ef 3b 0f d7 e8 bc e1 36 82 3c d3 d4 70 3c
       0.0073152333 -0.02842286 0.015895309 0.014699179
0002c0 a0 92 97 bc b6 a6 74 3a a6 56 79 3c 57 7c 0f 3d
       -0.018502533 0.0009332703 0.0152184125 0.03503069
0002d0 9e 15 14 3d 65 64 bf 3c 45 26 c6 3c a5 c4 dc 3c
       0.03615343 0.023363302 0.02418817 0.026949236
0002e0 ae 67 10 3d 9c 8e d8 3c 1f 55 17 3d 60 68 aa bc
       0.035255127 0.026435189 0.036946412 -0.020801723
0002f0 41 be 31 3d 03 36 15 3d 2c 17 32 3d 42 fc 03 bc
       0.04339433 0.036428463 0.04347913 -0.008055748
000300 e5 c6 49 3d 87 22 fe 3c 0b e9 28 bd 17 21 b7 bc
       0.049261946 0.031022323 -0.041237872 -0.022354646
000310 1d c4 1c 3c cb 98 75 bb c2 5e a8 bb 50 1b 24 3d
       0.009568241 -0.0037475105 -0.005138249 0.04006511
000320 81 78 33 3d 5f 14 0c bd e9 a2 dc 3c 85 b0 35 3d
       0.043816093 -0.034199115 0.02693315 0.044357795
000330 01 3e f4 3c d5 65 21 3c 17 8f e5 3c b4 14 00 3d
       0.029814722 0.009850939 0.028022332 0.031269744
000340 25 f4 03 3d 22 62 b2 3c 2d f0 fd 3a c7 a8 e2 3c
       0.032215256 0.021775309 0.0019373946 0.02766837
000350 0c 16 b7 3c 7e d2 05 3d d4 89 b1 3c a2 07 da 3c
       0.02234938 0.032671444 0.021672167 0.026614968
000360 dc 69 0f 3c ae 7a 15 3d 0b 77 0e 3d c5 04 e5 3c
       0.008753266 0.03649395 0.034781497 0.027956376
000370 44 f8 ab bc 89 b3 07 3d 44 4a 1e bc 71 c6 16 3d
       -0.020992406 0.033130202 -0.009661261 0.036810342
000380 35 61 34 3d b3 b4 20 3d 16 38 40 3c a8 f5 6d bc
       0.044038016 0.03923483 0.011732122 -0.014523901
000390 f3 5a df 3c df 1a f0 bb 33 d0 4b 3b 5e 12 3e 3c
       0.027265048 -0.007327422 0.0031099438 0.011601059
0003a0 1f cc 11 3d 42 d7 c5 3b c3 39 0f 3b 4e 3b a0 bc
       0.035595056 0.0060376236 0.0021854497 -0.019559529
0003b0 04 5d c6 3c a4 41 11 3d 6d ef 4e 3c 2e 27 04 3d
       0.024214275 0.03546299 0.012630326 0.032263927
0003c0 2d ea 40 3b 94 b2 fb 3c e2 71 9f 3c 45 ac 35 bc
       0.0029436455 0.030724801 0.019463483 -0.011088436
0003d0 4a 4a 52 bc c9 e3 f7 3c 83 fb db bc 40 1f 01 3d
       -0.012835095 0.030259984 -0.026853329 0.031523943
0003e0 75 30 42 3d 4c f9 98 3c 34 1f 80 3c a5 5e ca 3c
       0.047409493 0.018673562 0.015639879 0.024703333
0003f0 c2 e2 ed 3c c7 e1 ea 3c 94 a4 bd bc 06 a1 4d bb
       0.02903879 0.028672112 -0.023149766 -0.0031376495

network_body._body_endoder.seq_layers.0.weight f4 [256, 11]
000000 47 28 de bd 34 18 72 3c cd dc 90 3d d7 e1 c7 3e
       -0.10847526 0.014776278 0.070733644 0.3903949
000010 42 9b b3 3e 03 74 6d be 7b f3 e1 be d7 8b 53 3e
       0.3507939 -0.23188786 -0.44131073 0.20658813
000020 40 e6 4d 3e e2 5e 0a 3e 55 1d ec be b4 7b 86 be
       0.20107365 0.13512757 -0.4611613 -0.26266253
000030 d3 36 21 3d c8 7b 72 bd 55 6b e2 be 28 95 a3 be
       0.039358925 -0.05920008 -0.44222513 -0.31949735
000040 a9 0b a9 3e e1 e4 b5 be da 91 8a bc f4 20 72 be
       0.33016708 -0.35526183 -0.01691525 -0.23645383
000050 26 23 fe bd a8 1b 93 3d 83 20 b3 3e f5 9d 14 3e
       -0.12409048 0.071830094 0.34985742 0.14513381
000060 ad 98 29 3e bd b3 72 be 1e 5e 6f 3e f5 dc da 3d
       0.16562147 -0.23701377 0.23375747 0.106866755
000070 aa fd dd 3e e9 dd 1b 3d d4 65 2d be bc cd bd be
       0.43357593 0.038053427 -0.16933376 -0.37071025
000080 f2 b1 20 be 61 74 e1 be 6f ac 2a 3e ff 5a b2 3e
       -0.15692881 -0.44034103 0.1666734 0.3483505
000090 1d 00 46 3e 29 04 50 3e 7e 3d e6 3d 6a 65 90 3e
       0.1933598 0.20314087 0.112421975 0.28202373
0000a0 53 85 94 3d 58 74 af 3e 4b 81 7f 3d 05 16 e3 bd
       0.07251992 0.3426845 0.062379163 -0.11088184
0000b0 80 7b 31 be 44 6b 10 3f 40 ce 02 3f 81 8c e9 3e
       -0.17332268 0.56413674 0.5109596 0.45615008
0000c0 a4 a2 6f be 1e b1 8a bd 6b 3c d4 bd 8d f5 14 bd
       -0.23401886 -0.06772064 -0.10363086 -0.036366988
0000d0 89 9d c7 be fd d6 12 3e 49 59 fa be ae 83 e2 3d
       -0.38987377 0.14339824 -0.48896244 0.11060272
0000e0 77 40 95 be 69 34 03 3f 86 6f 50 be 34 c1 1f 3e
       -0.29150745 0.51251847 -0.20355043 0.15601045
0000f0 51 af 96 be ce a3 49 3d 93 1f 9b 3e 74 62 d1 3e
       -0.2943063 0.049228482 0.30297527 0.40895426
000100 5f 95 dd be 73 fb 0a bd 58 e1 8f 3e fa 17 86 bd
       -0.43278024 -0.033931207 0.2810161 -0.06547542
000110 a8 8d e6 bc dc fa 0b be e1 4e 4e 3d 89 3a 8f be
       -0.028143719 -0.13669914 0.050368194 -0.27974346
000120 69 1e 2d 3f 3f 34 2d 3e d2 4c de be 3e 28 4c 3f
       0.6762453 0.16914462 -0.43417984 0.79748905
000130 30 f0 a8 3d f4 52 91 3c 5f 67 0b bf a3 ee 73 be
       0.08248937 0.01773975 -0.54454607 -0.23821501
000140 80 91 15 be 08 2f bd 3e 30 ad 90 3d ef 9d 05 be
       -0.14606285 0.36949944 0.07064283 -0.13048528
000150 a8 2d cb be f0 c7 00 3e 3e fb d9 bd 38 7c c1 bd
       -0.3968327 0.1257627 -0.10643624 -0.09447521
000160 b3 eb b1 be 8c dc ba bc df b2 14 bf f0 4e ed 3e
       -0.34750137 -0.022810243 -0.58085436 0.46349287
000170 64 ac d0 3b c0 07 9c bd e2 92 0e be 58 4a 5d be
       0.006368207 -0.07618666 -0.13923219 -0.21610391
000180 de e9 f9 bd b1 fb ac bc 19 76 8c bd 11 e5 ce bc
       -0.1220281 -0.02111611 -0.06858463 -0.025255712
000190 d2 d8 4b be 15 f2 c3 3b 9f e0 d2 3d 99 2d 2c 3e
       -0.19906929 0.005979786 0.10296749 0.16814269
0001a0 a8 ae 1a 3d 6d 00 6b 3d 6b e1 06 bf bb 53 cb 3d
       0.03776422 0.057373453 -0.5268771 0.0992808
0001b0 d1 c8 0b 3e 19 bc a7 3e d9 8a 06 3d 27 c0 9b 3e
       0.13650824 0.32760695 0.03284726 0.30420038
0001c0 17 51 55 be ef 58 40 be bf af d1 be fc 29 76 3d
       -0.20831715 -0.18783925 -0.40954396 0.060098633
0001d0 04 b7 aa 3e 0a 09 74 be 10 11 64 be 71 d3 be be
       0.33342755 -0.23831573 -0.22272134 -0.37270692
0001e0 f2 90 90 be b7 9e 90 be 9f a7 d3 3e 1c d3 67 3e
       -0.28235584 -0.2824609 0.41338822 0.22639126
0001f0 f3 b0 b8 3e d5 69 c0 be b5 e3 f3 be 2c c8 dd bc
       0.36072502 -0.37580743 -0.47634664 -0.027072988
000200 7f 25 21 3e 30 b1 2a 3d 42 eb 4f be cd 4e a5 bd
       0.1573696 0.041672885 -0.20304587 -0.08071671
000210 b9 0a a1 3e 04 38 19 3f 75 76 70 3e 9b 5b 87 3d
       0.31453493 0.598511 0.23482688 0.06609269
000220 26 4f d5 3e 5b 78 85 be 70 19 3e be 78 cf 34 3e
       0.41661948 -0.26068386 -0.18564391 0.17657268
000230 b7 d8 e6 3e a6 0b a7 3d fb 9b c4 3e 07 87 1c be
       0.45087215 0.08156519 0.38400254 -0.15285884
000240 a9 8c d2 bd 06 33 31 3d 47 3b 64 3a a9 ef cd be
       -0.10280735 0.04326155 0.0008706343 -0.4022191
000250 ba 39 dd be 59 08 ee be 71 15 2d 3f 11 05 2d 3e
       -0.43208104 -0.46490744 0.6761084 0.16896464
000260 92 fa 9f be 25 d7 00 3f 6b f7 dd be 43 79 92 3b
       -0.31245857 0.50328285 -0.43352827 0.004470022
000270 fc 71 49 bf bf 29 f8 3d aa 76 dd be f1 ff e5 3e
       -0.7868955 0.121173374 -0.43254596 0.4492183
000280 fa b2 54 3e ee 82 43 3e 39 cc 37 be 3c 94 29 bd
       0.20771399 0.19092914 -0.17948999 -0.041401133
000290 b4 54 91 be 3d 16 d4 be cb 0f c5 3e ce 94 fb bd
       -0.28384936 -0.41423216 0.38488612 -0.122842416
0002a0 ea 0a 9a be 55 82 18 bd c7 ae ec be 6a 6c ed bd
       -0.30086452 -0.03723367 -0.46227095 -0.11592944
0002b0 05 48 48 3c a0 11 a0 be 57 cd 0a 3e a7 6d ea 3e
       0.012224202 -0.31263447 0.13554893 0.45786783
0002c0 1a d6 54 be 4f f1 9d 3e 9d d3 25 bf 6b c5 a2 bd
       -0.20784798 0.30848166 -0.6477602 -0.07947811
0002d0 8a 26 ad be fb 40 56 bd 59 ca 84 bd 1d 68 25 bc
       -0.33818465 -0.052308064 -0.06483907 -0.010095623
0002e0 58 1c 9a be 98 aa c8 3d 43 d8 e6 3d ab 3c 8a 3c
       -0.3009975 0.09798163 0.112717174 0.016874632
0002f0 89 1a 4a 3e 55 d6 cd 3e 37 b2 ab 3e c4 ac 8a 3e
       0.19736685 0.40202585 0.33534405 0.27084935
000300 3d 45 2b 3e 37 ba 18 bd 88 97 8a 3e 08 f6 cd 3d
       0.16725631 -0.037286963 0.27068734 0.10056692
000310 6a ed 9d 3e 22 50 cd bd 03 fa 02 bf 05 03 9d 3e
       0.30845195 -0.1002505 -0.5116274 0.30666366
000320 48 15 26 3e a5 b1 3c 3d 70 bd 42 3c fc d7 91 3e
       0.16219056 0.046067853 0.011885986 0.28485096
000330 b2 f7 22 be 0f 35 da 3e e1 88 47 be 08 ae 29 be
       -0.15914801 0.42618605 -0.19485809 -0.16570294
000340 db e2 ef be 35 c7 1d 3e af be b9 be fb ac 78 be
       -0.46852764 0.15408023 -0.36278293 -0.24284737
000350 c3 f9 2f bf a0 90 10 3c 26 4d 4c be 1a 18 02 3e
       -0.6874048 0.008823544 -0.19951305 0.12704507
000360 66 39 83 be 6a 55 d7 be 94 70 48 bd 94 ca e6 be
       -0.2562973 -0.42057353 -0.048935488 -0.4507643
000370 53 a9 98 3e 86 65 71 3e f1 52 06 bf 2b c5 5a be
       0.29816684 0.23573884 -0.5247031 -0.21364276
000380 3f 29 84 3e b3 b7 fd bd 11 ab cc be 64 35 2a be
       0.25812718 -0.123885535 -0.39974263 -0.1662193
000390 6e d3 e0 3d b5 ce 06 be 0e 78 8a 3c a1 44 c8 bc
       0.10977827 -0.1316479 0.01690295 -0.024446787
0003a0 e9 ea a4 3e 49 1d 75 3d 0e 6b d9 3d a6 3d 86 3e
       0.32210472 0.05984238 0.10616122 0.2621891
0003b0 34 82 a0 3d 0e 5f 7a bd e6 d4 90 bd c5 ce 4f bf
       0.07837334 -0.061125807 -0.07071857 -0.8117488
0003c0 e5 26 93 3c 54 42 dd bc 1c 45 a6 bd 67 5d 3f be
       0.017962882 -0.027009167 -0.0811865 -0.18687974
0003d0 b8 5c 0c 3f df ff 0c be cf d9 61 be 07 2f dd 3d
       0.5482898 -0.13769482 -0.22055744 0.107999854
0003e0 73 42 27 3e 64 cf e4 be 91 e1 4e 3f 58 73 3d be
       0.16333942 -0.44689476 0.8081294 -0.18501031
0003f0 f9 d0 5a be d3 45 83 3d 2b 18 7b 3f a6 5a 1b bc
       -0.21368779 0.06409802 0.9808375 -0.0094820615

network_body._body_endoder.seq_layers.2.bias f4 [256]
000000 ed 46 9c 3a 3f 4d a6 3b 7a 82 c1 b9 79 ec bb 3c
       0.0011922993 0.0050751264 -0.0003690904 0.022939907
000010 d3 bd 9e 3b b5 dc 8c 3c 64 78 0b 3c 25 ab 32 bd
       0.004844406 0.017195085 0.00851259 -0.043620247
000020 f1 da 29 bd d5 2f eb 3c e0 11 a1 3c a1 ef 09 3c
       -0.041468564 0.028709332 0.019661844 0.008418948
000030 f8 9c fe bb b8 f6 16 3c 2d da 1d 3d 3c 38 8f bc
       -0.007770177 0.009214096 0.038538147 -0.01748287
000040 43 c8 e4 3b 50 06 16 3c 1b e9 c1 3b 08 05 1d 3d
       0.006981881 0.009156778 0.005917681 0.038334876
000050 cb ad 35 bd 36 d3 d0 bc 40 53 2e 3c 79 e6 c0 3a
       -0.044355195 -0.025491338 0.0106399655 0.0014717124
000060 d2 bb d6 bb 0f 13 e5 bc 61 aa 39 3c 60 af b7 3c
       -0.0065531516 -0.02796319 0.011332125 0.022422493
000070 dd e9 87 3c 70 f1 24 3b 2a 7e 1a 3d 29 3b 77 bc
       0.016591007 0.0025168322 0.037717976 -0.0150897885
000080 ed 50 0a 3d 5b 3e 09 3d 3b 8a 61 bd f6 f4 f0 bc
       0.033768583 0.033506732 -0.055063467 -0.029413681
000090 fd cb 17 bd 80 fd 43 bd 14 da 6a 3c 50 6a 6d 3c
       -0.037059773 -0.04784918 0.01433422 0.014490679
0000a0 ef 2c 34 3d de c2 9d 3c b3 93 d3 3c e2 f2 10 3c
       0.043988165 0.019257959 0.025827264 0.00884697
0000b0 47 cf 32 3b d7 c4 a1 bc 47 c2 24 bc 7c 9a 80 bc
       0.0027284191 -0.01974718 -0.010056085 -0.015698664
0000c0 1a 3c 31 3d ca 82 a1 3b 24 f2 12 bd a0 59 ca 3c
       0.043270208 0.0049289213 -0.035875455 0.02470094
0000d0 84 31 40 bd bf ba a0 3c 01 c4 0b 3c d1 30 1a bc
       -0.04692222 0.019620297 0.008530618 -0.009411053
0000e0 52 cf 8a bc ea 3c 38 3d 5e f6 d5 3b 31 a3 a5 b9
       -0.016944561 0.044979967 0.0065296134 -0.0003159284
0000f0 b5 2c 3e bc bb c6 f0 3c c9 99 91 bc 10 32 38 bd
       -0.011607339 0.029391637 -0.017773526 -0.04496962
000100 28 19 15 bc 75 61 99 3c f9 67 f5 3c ed 1c b7 bc
       -0.009100236 0.018723229 0.029956805 -0.02235266
000110 58 50 4c 3c 72 4b 03 bd 82 2b b6 3b d3 4b 9c 3b
       0.012470327 -0.032054372 0.0055593858 0.004769781
000120 81 ba 00 bd 34 61 18 b9 e2 66 88 bb 0f be 6a bc
       -0.031427864 -0.0001453206 -0.004162655 -0.01432754
000130 ca 08 3a 3c ba ed 59 bc 41 41 d8 3b ee 35 55 ba
       0.011354635 -0.013301307 0.0065995757 -0.00081333413
000140 4a dd 0a bd 97 4f d7 bc c0 6f 3c 3d 58 05 21 3d
       -0.033902444 -0.026283069 0.04600501 0.039311737
000150 09 5d a5 bb a5 ce 08 bb cb fd b6 3b 1c 0d cf bb
       -0.005046491 -0.0020875123 0.0055844537 -0.0063187014
000160 f3 a5 89 bc f3 6f 16 3c eb 0f a8 3c f3 89 9f bb
       -0.016802764 0.009181964 0.020515403 -0.0048687398
000170 29 44 da bb 12 62 bb 3c b4 1b eb bb 5b 63 ee 3b
       -0.0066609574 0.022873912 -0.0071749333 0.0072750277
000180 ef 37 4f bd 0f 3a 08 bd 30 19 b7 3c f1 9e 1c bd
       -0.05059045 -0.033258494 0.022350878 -0.038237516
000190 62 2a 90 bc 26 30 27 bd 65 97 ea 3c 1c f6 09 bd
       -0.017598335 -0.040817402 0.028636644 -0.033681974
0001a0 8f d0 5b 3c a4 7b 0a bd ae bd a6 3c cc 95 2b 3d
       0.013416423 -0.03380932 0.020354118 0.041890904
0001b0 d8 3b 23 bc b7 89 0b 3d 25 be db 3b 66 d0 91 3c
       -0.009962998 0.034066882 0.0067060166 0.017799567
0001c0 d2 b5 05 3d 2f 98 36 bd 5f 1e f6 3c 71 6f 1e bd
       0.0326441 -0.044578727 0.030043779 -0.038680498
0001d0 8d f5 81 bc 00 25 f9 bc 98 85 00 3d 19 fc 08 3d
       -0.015864158 -0.03041315 0.031377405 0.033443544
0001e0 6b 73 9b 3c b4 f0 27 bc 49 3a 26 3d 3e cc 1f 3c
       0.018975934 -0.010250259 0.04058293 0.009753285
0001f0 47 e4 82 bc ed 8d a2 3b b4 8d 54 3c ca 47 6e bc
       -0.015977992 0.0049607665 0.012973238 -0.014543483
000200 24 ae a3 3b 94 5d 25 3d 63 7a 6c 3c 27 18 09 bd
       0.0049951244 0.040372446 0.014433476 -0.0334703
000210 99 00 28 3b 56 45 1e bc 1c 68 a6 bc 23 10 dc 3b
       0.0025635122 -0.009660086 -0.020313315 0.006715791
000220 f2 d5 e4 3c 05 e3 19 bd de f4 3d bd c1 70 e1 bc
       0.027934048 -0.03757002 -0.0463761 -0.027519586
000230 fc 8b e5 bc 3b 7b be 3b fa 61 dc 3c 5e eb ba 3c
       -0.028020851 0.00581303 0.026902188 0.02281731
000240 06 60 16 3d ab 33 26 3d bd cb 0e bd fb 6a 08 bd
       0.03671267 0.04057662 -0.03486227 -0.03330515
000250 5a 8b b6 bc 59 f2 22 3c 98 47 b7 bc be ff 5f bd
       -0.022283245 0.0099454755 -0.022373006 -0.054687254
000260 0d 74 a4 bc 4d 49 c7 3c cc 3c d2 3c 20 70 b5 bc
       -0.020074869 0.024326945 0.025663756 -0.022148192
000270 70 e4 8b bc 11 c6 6b bb 2a bd 25 3d fd 42 90 3c
       -0.0170767 -0.003597621 0.040463604 0.017610068
000280 8d d8 18 bd f9 c4 b1 3c e2 36 66 3b c0 93 47 bc
       -0.037315894 0.02170037 0.0035127928 -0.012181222
000290 b4 88 c5 bc de 8d 80 3c e7 74 cb bc 31 0a 42 bb
       -0.024113037 0.015692648 -0.024836017 -0.0029608125
0002a0 e9 00 1c 3d ac 29 a7 bb 2a 86 fd 3c be 11 06 bd
       0.038086805 -0.005101403 0.030947763 -0.032731764
0002b0 21 1d 1f bd 02 98 1c 3d bf 70 cd bc 87 d3 87 3c
       -0.03884614 0.038230903 -0.025078176 0.016580356
0002c0 54 a0 08 3d 44 3e 1e bd f6 5f 25 bd d5 b8 f3 3c
       0.033356026 -0.0386336 -0.04037472 0.02975122
0002d0 13 60 7c bc fd f0 87 bc 3d ea 56 3d a6 d9 fb bc
       -0.015403765 -0.016594404 0.05246948 -0.030743431
0002e0 ee 45 e5 bc 88 30 9a 3b 6a 56 71 bc db 38 8e 3c
       -0.027987447 0.0047054924 -0.014730075 0.017361095
0002f0 8f c4 9d bc 22 1f aa 3c 2e a8 b9 3c 4b 44 de bc
       -0.019258766 0.020766798 0.022663202 -0.027132174
000300 fe e1 12 bc 68 6c 1f 3c b5 5c 13 bc a9 e7 07 bd
       -0.008965014 0.009730436 -0.008994271 -0.033179913
000310 db 1a 20 bb 8e b1 4c bd b4 cf fe ba b7 42 e3 3c
       -0.002443007 -0.049974017 -0.0019440562 0.027741773
000320 37 78 fe 3b 01 45 63 3c b2 68 14 3b 86 da c3 3a
       0.0077657956 0.013871432 0.002264541 0.0014942444
000330 a6 6d 19 3d 97 74 b7 bc 90 a4 bb ba d9 7a f7 3c
       0.037458085 -0.022394462 -0.0014316011 0.030209946
000340 5b 84 96 bb ba 53 7e bb 00 47 ba 3c 71 1d 4b bd
       -0.0045934147 -0.003880723 0.022738934 -0.049588624
000350 26 ce 5b bb af 25 39 ba e8 45 f1 3c ef 7f be bc
       -0.0033539622 -0.0007062805 0.02945228 -0.023254363
000360 7e ea 07 bc 7c b4 d9 3a 5a 1e 61 3c 7c a3 ba 3c
       -0.008295653 0.0016609575 0.0137401465 0.022783034
000370 4d 3a f6 3b fb 6d 4c bd 99 5c fc bc 32 83 d2 bb
       0.007514274 -0.049909573 -0.030805873 -0.006424331
000380 dc a3 4d 3c 0a 45 2a 3d de 6b 23 bd 30 22 dc bc
       0.012551274 0.041569747 -0.039897792 -0.02687177
000390 55 0c df bc b9 53 aa 3c ec b9 20 bd 0d 9f 1f bc
       -0.02722756 0.020791875 -0.03923981 -0.0097425105
0003a0 b7 a7 11 bd e1 8a 0a 3d df 43 13 bc 30 0c c5 3c
       -0.035560336 0.03382385 -0.00898835 0.024053663
0003b0 b6 c2 97 bc ae f4 83 3c c7 10 c4 3c 87 ad fd 3c
       -0.018525463 0.016107883 0.023933781 0.030966533
0003c0 a4 47 0d bc 5d d1 84 3b d2 13 4b bd 4e a4 e2 3c
       -0.0086230375 0.0040532784 -0.04957945 0.027666237
0003d0 de e7 8d 3a ee 72 b9 bc fa 14 11 bd 5a ff 9e b7
       0.0010826548 -0.02263781 -0.035420395 -1.8953975e-05
0003e0 d4 39 20 bd 68 3c a4 3c d1 62 18 bd 54 89 1e bd
       -0.03911765 0.020048335 -0.037203614 -0.038705185
0003f0 d5 83 af bc 6d 64 1d 3d 25 96 d0 bb b0 3d ca b9
       -0.021425167 0.03842585 -0.006365555 -0.00038574403

network_body._body_endoder.seq_layers.2.weight f4 [256, 256]
000000 e5 e1 fd 3b 8e b7 3a 3c 9b de ab bd b2 b5 a3 3d
       0.007747876 0.011396302 -0.08392068 0.0799364
000010 bf 79 10 bc e1 14 d2 bd 9c 2c 81 bd 5d 23 d4 bc
       -0.008818089 -0.102578886 -0.06307337 -0.025895769
000020 d9 67 87 3c 4f a8 a5 3d 29 e5 f8 bc 9c 93 89 bd
       0.01652901 0.08088743 -0.03038271 -0.067176074
000030 18 a7 05 bd cb be 63 3d 39 d3 c9 ba 0a 95 6c bd
       -0.032630056 0.055601876 -0.0015398032 -0.057759322
000040 50 90 71 3b 4a 9a bb 3c c4 c9 5e 3d ec 94 06 bc
       0.0036859699 0.02290072 0.054391637 -0.008214217
000050 27 b0 d1 3b 45 be 29 be ef 02 a4 3d 0a 00 b5 3d
       0.006399173 -0.16576488 0.08008372 0.08837898
000060 a3 e1 ef 3c 3f b1 04 bd 10 03 18 3d 4d c4 32 3d
       0.029282397 -0.032395598 0.037112296 0.04364424
000070 9f be bd bb 27 0c 69 3d e3 59 80 bd f2 3d 02 3d
       -0.005790546 0.056896355 -0.062671445 0.031797357
000080 d2 0f 6d bd 4b 71 34 3d 69 ee f0 3d c1 be 54 3c
       -0.057876416 0.044053357 0.11764223 0.012984932
000090 a4 4a ae 3d d1 56 30 3c 39 a6 ac 3d 3f 49 a0 bd
       0.0851033 0.010762886 0.08430142 -0.078264706
0000a0 0e f8 e5 3c b9 87 07 3d c0 a8 03 3c 06 7d 50 3d
       0.028072383 0.03308842 0.008035839 0.05090048
0000b0 9b 2d 08 be f0 0e a5 bd de fd 13 bd 8a fd 9f 3d
       -0.13298647 -0.0805949 -0.03613078 0.078120306
0000c0 0d b2 52 3c d0 3d 6c bc a7 ce 6c 3a 6f f1 ea bc
       0.012859833 -0.014419034 0.0009033479 -0.028679578
0000d0 a6 06 3e be 24 25 e2 3d e4 50 26 3d 3a cc a4 3d
       -0.18557224 0.1104224 0.040604487 0.080467656
0000e0 ed 70 7c 3c 74 9a 3f 3c 3e f7 2f bc 74 07 e8 bc
       0.015407783 0.011694539 -0.0107400995 -0.028323866
0000f0 2d 34 59 3d 14 c7 ed bd aa 77 5d 3d 11 c7 17 3d
       0.053028274 -0.11610237 0.0540692 0.03705508
000100 8c e9 a2 bd bc 76 a3 3c 53 ae ab bc ba 68 f2 bd
       -0.07954702 0.019954078 -0.020957148 -0.11836381
000110 fe 6b 04 3d 14 62 4d 3d 1a f7 98 3c 69 d2 1e 3d
       0.032329552 0.050142363 0.018672515 0.03877488
000120 bd 55 aa 3c 12 56 8b bc b1 82 a9 3d fb f8 0e bd
       0.020792836 -0.017008815 0.082768805 -0.034905415
000130 07 d4 a8 bd c1 0d 33 3d 17 08 f2 bc ee c0 3b 3d
       -0.08243566 0.04371429 -0.029544873 0.04583829
000140 88 4f 01 bd a0 ce 8c bd b5 e3 b0 ba 78 f4 d5 3b
       -0.031569988 -0.06875348 -0.0013495596 0.006529387
000150 40 ea 70 bd 4c 78 12 3d 38 3a 2d bd ae d2 08 3d
       -0.05881715 0.035759255 -0.04229185 0.033404045
000160 1f ef 4e bd bd e7 48 bd 6d f9 e7 bc e9 70 65 bd
       -0.050521012 -0.049049128 -0.028317178 -0.056015883
000170 79 e7 5a 3d 5d 76 ba bb d7 35 20 3e f9 ba 3c 3d
       0.053443406 -0.0056903795 0.15645538 0.04607675
000180 e1 b6 c2 3d f2 67 ef 3c d7 ab 66 3d c3 b8 55 bc
       0.09507538 0.02922437 0.056316223 -0.013044539
000190 94 5d 64 3d 29 be 26 bd d3 87 26 bd 0c 6d 1e bd
       0.055753306 -0.040708695 -0.040656876 -0.038678214
0001a0 b9 00 b5 bd d2 0b 98 bb a6 39 c3 3d 89 15 82 bd
       -0.088380285 -0.004640081 0.0953248 -0.06351764
0001b0 e5 a7 33 3d 3a 47 42 bc 6f 78 b0 3d a5 97 7e 3c
       0.04386129 -0.011857802 0.08616721 0.015539085
0001c0 22 0e ba bd d4 74 f3 bb 35 2c 71 bd 58 9a 5a bd
       -0.09084727 -0.0074296985 -0.05888005 -0.05336985
0001d0 c1 db 95 bd aa 6c d0 3b ae 6a 9b bc 6c e0 bb bd
       -0.07317305 0.00636061 -0.018971767 -0.091736645
0001e0 a6 71 fd 3d bc b2 a0 bd 9c 62 86 bd be 78 e7 bd
       0.12375192 -0.07846591 -0.06561777 -0.113023266
0001f0 f2 ef 0a 3c cb f2 cd 3d e9 9f a6 bc 83 5f 9c 3c
       0.008480059 0.10056075 -0.020339923 0.019088512
000200 59 9d 93 bd 34 50 8a 3d 5a ae 7a 3c 66 b2 d5 bd
       -0.07207746 0.06753579 0.015300358 -0.104344174
000210 14 15 9c bd 60 4d ba bc da 11 24 3d 17 1d df bc
       -0.07621208 -0.022741973 0.040056087 -0.02723555
000220 60 93 03 bc a3 10 75 bc c5 03 69 bd 87 8c 32 bc
       -0.008030742 -0.01495758 -0.05688836 -0.010897762
000230 6e e4 a1 39 95 46 d2 bd 10 72 80 3c 95 fc c0 bd
       0.00030878506 -0.10267369 0.01567939 -0.09423176
000240 69 12 aa bd 16 67 19 3e ee 81 d0 bd 00 c6 46 bd
       -0.08304293 0.1498073 -0.10181032 -0.04852867
000250 35 64 33 3d b5 02 1c 3c 17 5b d2 bb b4 b9 e7 bd
       0.043796737 0.00952213 -0.00641955 -0.11314717
000260 16 c7 3d bc 8d 52 3d 3c bf 13 92 3d 04 fd ef 3c
       -0.01158311 0.011555326 0.071326725 0.029295452
000270 14 33 86 bc ae 7d 92 3d 73 93 06 bd c8 8b 1e bd
       -0.016381778 0.07152878 -0.032855462 -0.038707525
000280 31 8a ec 3d 9c f9 ca bd 73 4e 3b 3d 16 be 9f 3d
       0.115497954 -0.099108905 0.045729112 0.07799928
000290 fd fa bb bc fa 0f d2 bb 5b 2e 4f bc b9 0c ed 3c
       -0.022946829 -0.006410596 -0.012645329 0.02893673
0002a0 bf 71 c3 3d 0b 74 14 3d 02 a4 b5 3c ec f9 72 3d
       0.0954318 0.03624348 0.022172932 0.059320375
0002b0 26 43 8e bc e4 80 6b bc e2 57 5a bd 58 00 9d 3d
       -0.017366003 -0.014373992 -0.053306468 0.07666081
0002c0 e0 28 5c 3b 87 08 b9 3d ba d1 6e ba a3 1a 95 bc
       0.00335937 0.090348296 -0.0009110231 -0.018201178
0002d0 eb 0c 70 3d 45 0c 76 bd 64 aa 30 bd 2b 7a f1 bd
       0.05860607 -0.060070295 -0.043131247 -0.1179088
0002e0 00 61 71 bd 5a fc bc bc b0 a5 88 3d cb 10 ff 39
       -0.058930397 -0.02306955 0.066722274 0.00048649902
0002f0 37 74 a3 bc ac e6 89 3d 19 bd 8c bd ef b5 87 bc
       -0.019952876 0.0673345 -0.06872005 -0.016566245
000300 0c 86 90 bd af 07 02 bd de 2e 95 bc 39 88 a8 3c
       -0.070568174 -0.03174561 -0.018210825 0.020572769
000310 ba 0f 85 3d 2a 1b c4 bd 2b 3f d6 bb 22 37 da bc
       0.0649714 -0.09575494 -0.006538292 -0.026637617
000320 66 c5 3d 3d fb d5 b9 bd 61 5a b2 bd 7b 97 7b 3d
       0.046330832 -0.09074017 -0.08708645 0.06142376
000330 b8 f7 5b 3d eb d4 ed bd 36 c7 63 bd 0c 90 e8 bc
       0.05370304 -0.116128765 -0.055609904 -0.028389
000340 f7 c9 44 bd 34 b8 a5 3d 09 44 a6 bc 62 78 53 bd
       -0.04804417 0.080917746 -0.020296114 -0.051628478
000350 47 00 8b bd 28 ef 0e 3c f7 15 89 bd f0 17 0a bd
       -0.06787162 0.0087240115 -0.066936426 -0.033714235
000360 4c ff 00 be 8b 83 73 3c b8 4c 4a 3c ef ee 05 bd
       -0.12597388 0.014862905 0.012347393 -0.032698568
000370 f6 12 48 bd 0f 25 f5 3b e8 40 c8 3b b0 8a 21 3e
       -0.048846208 0.0074812244 0.006111253 0.15775561
000380 d6 8a 8c bd a9 4f 16 bd f3 fb 30 bd f7 fd 8d 3d
       -0.06862418 -0.036697064 -0.043209027 0.069332056
000390 96 da f8 bd 9e 7a ba 3c 8f da 04 3e 9e 87 2d bd
       -0.12151067 0.022763547 0.12973998 -0.042365663
0003a0 96 eb 95 3d a5 4b 01 be 66 81 ea 3c da de 13 bd
       0.07320325 -0.12626512 0.028626155 -0.0361012
0003b0 20 76 0f be 6b 5e ca 3d f4 39 fb bc 77 69 4e bd
       -0.14009905 0.0988129 -0.030667283 -0.050393548
0003c0 43 ea be 3c 2b ec d4 bd 19 2c 98 3c 68 1b fd bc
       0.023305064 -0.10396608 0.018575715 -0.030896857
0003d0 a5 ba 6c 3d 40 ce 27 3d 91 70 7e bd 66 8a ff bc
       0.057795186 0.04096818 -0.06211907 -0.031193923
0003e0 dd 8d 05 3e 13 69 08 3e 06 98 29 bd fd f1 c8 3d
       0.13042398 0.13321333 -0.041404746 0.098117806
0003f0 d1 d5 8f bb 73 f0 09 3d 44 dd 43 bc f8 c5 7a 3d
       -0.0043895026 0.033676576 -0.011954609 0.061223954

network_body.observation_encoder.processors.0.normalizer.running_mean f4 [11]
000000 65 30 cd 40 7b fa 9e 40 5b 6e 90 3e b8 c6 f1 3e
       6.4121575 4.968076 0.28209195 0.47221923
000010 21 74 92 3e 45 24 0c 3f f9 a1 b1 40 b7 6d b5 40
       0.28604224 0.5474284 5.551022 5.669643
000020 a5 37 45 43 69 e7 80 c1 b2 cf 46 43
       197.21736 -16.112993 198.81131
