Assets/Hunt - Copy.onnx (onnx, 343104 bytes, 11 tensors)

60 f4 [66]
00000000: ec33 e33e f21f 2f3e 22a6 213e 4665 e23d
00000010: b923 f23e f69d 863e a88f eb3e e6dd 2a3e
00000020: aa03 223e 5c1e dc3d ed3b f73e ba99 8a3e
00000030: 3c51 e03e d56b 293e 9843 203e 8ede db3d
00000040: 759e ef3e e0d1 863e ff2b f53e cf55 213e
00000050: 2488 223e ebd2 cc3d 137f fc3e fa9a 913e
00000060: 342d e23e ecee 1e3e 3ac1 1e3e 739a cc3d
00000070: 1bd9 ef3e 588f 893e 9e8d fb3e fa53 173e
00000080: bb5d 243e f2df bb3d a25a ff3e b16e 993e
00000090: 3cd9 e53e 2d09 133e ad31 1e3e 3f60 bc3d
000000a0: 7376 f13e 4121 8d3e 966a fe3e c9ca 0d3e
000000b0: 51af 263e cbcb ae3d e5ff ff3e 07fb 9f3e
000000c0: e8b3 e83e e79b 093e 9a32 1f3e 452e ae3d
000000d0: d4e4 f23e c495 903e 2c61 ff3e e7dc 053e
000000e0: 3511 2a3e 91a3 a53d 7fd7 ff3e 2213 a43e
000000f0: 57cc ea3e 43b9 023e c5ca 223e 70d6 a43d
00000100: 112d f43e ba92 933e
0.4437555 0.1710203 0.15786031 0.110544726 0.4729288 0.2629239 0.4600804 0.1668621
0.1582171 0.10747978 0.48287907 0.2707041 0.43811977 0.16545041 0.15650785 0.10735808
0.4680058 0.26331997 0.4788513 0.1575539 0.15872246 0.10001167 0.493157 0.2843855
0.44175112 0.15520829 0.15503398 0.09990396 0.46845326 0.26867175 0.49131483 0.14778128
0.1605138 0.091735736 0.49873835 0.29967263 0.448923 0.14358969 0.15448637 0.09198045
0.47160682 0.27564433 0.49690694 0.13846888 0.16277815 0.08534964 0.4999992 0.31246206
0.45449758 0.13438378 0.15546647 0.08504919 0.47440207 0.28239262 0.49878824 0.13072549
0.16608126 0.080878384 0.49969098 0.32045847 0.45859024 0.12765984 0.15897663 0.08048713
0.47690633 0.2882288

63 f4 [5]
00000000: 2d07 1a40 f200 1940 a9af 5c42 8df1 fb39
00000010: 8df1 fb39
2.406688 2.3906827 55.171543 0.0004805442 0.0004805442

action_model._continuous_distribution.log_sigma f4 [1, 3]
00000000: 8b60 82bf 4cf0 43bf 8945 6cbe
-1.0185713 -0.7653854 -0.230734

action_model._continuous_distribution.mu.bias f4 [3]
00000000: 9dfb 1cbc 9754 a0ba 82dc b6b8
-0.009581474 -0.0012232241 -8.719509e-05

action_model._continuous_distribution.mu.weight f4 [3, 256]
00000000: d3e0 4fbc 03ed da3c 74c9 80bc 32d1 7c3c
00000010: e774 f3bb 001d bfbb 368a d2bb 9629 773c
00000020: ea16 c43a 5571 76bc 7a92 d23c a409 cc3b
00000030: 93f0 e23b f93b 783c fdbe 183b 7526 a0bc
00000040: dd46 4e3a ac47 4abc 0ae5 8abc cdc7 ab3b
00000050: 9855 283c 87bb 03ba 68d0 a73c 56fe 70bb
00000060: b5a5 b33c 4d6b 1d3d 1c9f 40bc b298 ccbc
00000070: 9e21 c3bc a3db 97bb 6b4b 913c 7493 d3bc
00000080: 6ef9 6abc 0930 20bc 7a1e 033c 5211 66bb
00000090: c97c 8b3c d624 51bc 6900 19bc f18f 88bb
000000a0: bbe2 793c faf6 9cbb 5c05 513c b2ac 393c
000000b0: e1ab c63a 2708 d9bc 0cce a3bb 0714 ebbc
000000c0: 6ada 5e3c 83c3 6b3b 3a5e bcbc 2e55 32bc
000000d0: f444 dcbc 470b 7abb 815d c7bb 8384 abbb
000000e0: 416b 4bbc bd56 aabc e954 8dbc 509c 2b3c
000000f0: cfde 3d3a 5fd5 bf3a 7198 a8bb a2d1 b4bc
00000100: add7 93bb 577c a83a 1880 35bc 42fc 8f3b
00000110: a0c5 3c3c 42af d43b 16a0 d1bb 717f 92bb
00000120: 30c0 983a 5f65 193c 9350 e43b b359 d0bc
00000130: 7c50 023c 7ad1 f7bc 3bde 9e3b c007 eb3c
00000140: 0875 adbb 9c6b c2bc 9dfa 0fbd f0aa 113c
00000150: 1252 bbb9 b771 ac3b 1e3b 96bb 03fe c2bb
00000160: c95f f03c 3ac2 48bc c5f4 55b9 33dc 553c
00000170: 7643 9d3c 92fb 0d3c bb86 12bd 36a7 053c
00000180: 3069 f637 051c 9d3a ebad 0a3d 97b1 ed3c
00000190: 13bd 093d 3fb5 47bc e3c8 1b3c 9ed8 d43b
000001a0: e42e 9d3b ad6e 7a3c 40a0 d0bc 84b2 e93c
000001b0: d1af 473d d316 0e3c 0490 a3bc 5f33 cfba
000001c0: 8b67 35bb 33dd 54bc 0a42 013d 71af d23c
000001d0: 6db0 8b3b 4a0d ddbc 3baf 643c cde2 2ebd
000001e0: 0486 f5bb ca78 fdbc f207 b5b9 90bc e7bc
000001f0: 9969 e13b 393a e3bb e484 9e3c 8d30 9c3b
00000200: cf47 45bd 4ff1 0cbd d390 113c 6b53 a93a
00000210: f250 993c 457b ddbb 437b 68bd 666c c1bc
00000220: bf5a 863c cae4 16bc 471d 093c 1d7d 323b
00000230: d045 e7bb 7fb5 8b3c 011a 1c3c a7a9 1b3d
00000240: 1558 2dbb bc39 803a d6dc 7dbc 6fe5 e6bb
00000250: b1e8 193c 8c2b acbc 8bb3 d3bc 38e5 c03b
00000260: 4863 273d 44de 5ebb be54 a83c f21a e03b
00000270: 63ae 66bb fecf aebc 21e8 5abc 06d9 c2bc
00000280: eb71 08bd cce6 7abc ee46 593b 095c 833d
00000290: 3da1 1b3b d8b4 c13c 7d99 a0bc d4d0 d6ba
000002a0: c7fc 9b3c c5f9 953c b6a7 70bc 80c7 9cbc
000002b0: ebd7 173c c53e 05bd f118 d2bc a00d 663c
000002c0: 09c7 a2bb 497b 81bb 28a4 95bc 678f 2ebc
000002d0: 7a9d 5abc 64ac c03c b476 d0bc c647 a1b8
000002e0: 7b66 2c39 7941 253d 8d56 b7bc 8948 b6bb
000002f0: 3708 3bbb 0c72 ca3c c5f1 fb3c e07b 0fbd
00000300: dc48 ef3b 4fa4 8c3b 6c18 273c 9810 2b3d
00000310: f72c e33b b902 b4bc e3b2 cdbb e677 c4bb
00000320: 434e 7fbc d132 783c cf0b 333a f84d 0abd
00000330: f13f d5bb 7da2 aabc 3660 76bb aa1a 4f3b
00000340: fdba 0b3c 11ec 46bc 8bf4 833c e7f6 94bc
00000350: 8167 0b3c 88ea 35bd 1031 a8bc 4412 223d
00000360: 1a26 a0bc 873f 65b9 f1cc 79bc 65ad 233c
00000370: a52b db3b c348 043c 2c8c 023c 1aaa b6ba
00000380: b1ed 533c 61c4 40bc e996 073d 91a3 aebb
00000390: 677d c33c 5100 a3bc dd7c 9bbc e485 efbb
000003a0: f669 27bc c5c9 753b c0eb 3a3c b385 773c
000003b0: 6f71 d23b b951 d3bc b283 963c 39c7 cb3c
000003c0: a079 56bc 7592 103c 8c1e 723c d872 05bc
000003d0: 4361 bb3c c1e2 a5bc 3d5a a43c 0c4f 683a
000003e0: 3b87 463c b709 5fbc 1772 8dbc 5373 14bc
000003f0: e1f8 093c 1be4 c4bc c63e d03b ec82 ce3c
-0.01268788 0.026724344 -0.01572106 0.015430735 -0.0074297073 -0.0058323145 -0.0064251674 0.015085598
0.0014960442 -0.015041669 0.025704611 0.006226735 0.0069256513 0.015151017 0.0023307197 -0.019549588
0.0007868836 -0.0123461895 -0.016954917 0.005242324 0.010274313 -0.0005025197 0.020485118 -0.003677269
0.021929601 0.038432408 -0.011756685 -0.024975155 -0.02381974 -0.004634337 0.017736157 -0.025827147
-0.014341695 -0.0097770775 0.008002872 -0.0035105539 0.017027276 -0.01276513 -0.009338477 -0.00416755
0.015251811 -0.004790184 0.012757625 0.011332678 0.0015157425 -0.026493145 -0.004998928 -0.028696073
0.013601879 0.0035974688 -0.02299415 -0.010884566 -0.026888348 -0.0038153694 -0.0060841446 -0.0052343025
-0.012415708 -0.020793313 -0.017252402 0.0104742795 0.0007242979 0.0014635733 -0.0051451256 -0.022072617
-0.0045117945 0.0012854439 -0.011077903 0.004394085 0.011521727 0.006490619 -0.0063972576 -0.0044707586
0.0011653956 0.009362548 0.006967613 -0.025433397 0.007953759 -0.030251253 0.0048482693 0.028690219
-0.005293492 -0.023732953 -0.035151113 0.008890852 -0.00035728567 0.0052625793 -0.004584684 -0.0059506907
0.029342549 -0.0122533385 -0.00020404447 0.013052988 0.019197207 0.008665936 -0.03577302 0.008157542
2.9374467e-05 0.00119865 0.033857267 0.029015345 0.03362758 -0.0121892085 0.009508344 0.0064955493
0.0047968496 0.015285176 -0.025467038 0.028527506 0.048751656 0.008672434 -0.019966133 -0.0015808156
-0.0027680125 -0.012992191 0.03155712 0.025718423 0.004262975 -0.026983876 0.013957794 -0.042696763
-0.0074927825 -0.030941386 -0.0003452893 -0.028288156 0.0068790433 -0.006934431 0.019350477 0.00476653
-0.048164185 -0.034409817 0.008884626 0.0012918537 0.018715356 -0.0067590796 -0.056758177 -0.023611259
0.016400693 -0.009209821 0.008368797 0.0027235218 -0.007057883 0.017054318 0.009527684 0.03800359
-0.0026450206 0.0009782831 -0.015494546 -0.0070463936 0.009393857 -0.021016859 -0.025842449 0.0058867
0.040866166 -0.0034006992 0.02054822 0.0068391496 -0.0035199157 -0.021339413 -0.013361008 -0.023785125
-0.033311766 -0.015313815 0.003315385 0.06414039 0.0023747229 0.023645803 -0.019604439 -0.001638914
0.019041432 0.018307576 -0.014688423 -0.019138098 0.009267787 -0.032530565 -0.025646659 0.014041334
-0.0049675745 -0.0039514643 -0.018266752 -0.010654307 -0.013343209 0.023519702 -0.025447227 -7.690447e-05
0.00016441375 0.040345643 -0.022380138 -0.005562846 -0.0028538832 0.024712585 0.030754933 -0.035030246
0.0073023867 0.004292048 0.010198694 0.041763872 0.0069328505 -0.021973955 -0.0062774285 -0.0059957383
-0.015582624 0.015148834 0.0006830068 -0.033765763 -0.0065078666 -0.020829434 -0.0037593967 0.0031601586
0.008528468 -0.012141244 0.016107818 -0.018184138 0.008508564 -0.04441312 -0.020531207 0.0395682
-0.019549418 -0.00021862808 -0.015246616 0.009990071 0.0066885524 0.008073988 0.00796799 -0.0013936192
0.012935088 -0.01176557 0.033102904 -0.005329557 0.023863507 -0.019897612 -0.018980438 -0.007309662
-0.010218134 0.0037504297 0.011408746 0.01510756 0.0064222137 -0.025795804 0.018373344 0.02487527
-0.013090521 0.008823981 0.014777791 -0.008145057 0.022873526 -0.020249726 0.02006256 0.00088618766
0.012117202 -0.013613156 -0.017266316 -0.009060699 0.008421154 -0.02403455 0.0063551394 0.025208913

network_body._body_endoder.seq_layers.0.bias f4 [256]
00000000: e8b7 cbbb 2b83 a9ba 9ae0 753c 8883 ed3b
00000010: cee0 e43c ef5c 713b ee3c b33c 8c2f 6a3c
00000020: 3961 4c3c 0252 343c b4b7 553c 9b7f a0bc
00000030: dc26 8abc 3382 f33b ea4e fc3c 9743 893c
00000040: be49 7fba 45ac 2439 8584 5f3c 888b d1bc
00000050: ed9f e63c 9219 c43c 44ee 0f3c 80a1 293c
00000060: 9d52 acbb 9738 aa3b 4612 4fbb c12f c4ba
00000070: e462 37b9 d35f e63b 3833 2c3c 865f 433c
00000080: 5b2b fe3c b07c f0b8 ec09 063c dc6d aa3c
00000090: c7ad 3e3d 8eac b03c 5410 8fbb 4dae a6bb
000000a0: 25e9 10bc 1afb 9cbb a054 dd3c 8ec9 1abb
000000b0: 46bb e53c e6d7 54bb fb54 bdba e737 2cbd
000000c0: 4a0a 08bb 3f95 53bc f9ea 84bc 068f 64bc
000000d0: 6f23 c43c 63ea b33c 5640 cb3c 6bf4 a7ba
000000e0: 52e1 9e3c 692f 62ba 9f60 a53b 4013 043d
000000f0: 9e95 3bbb 8bd6 033d 5361 b13c f089 f93a
00000100: 8e49 ba3b 16b4 b73a ab3a 0a3b e994 923c
00000110: c7a3 db3c 0dcd 88bb 5925 333d c6dd ab3c
00000120: 00d5 463d fec1 c93c 8c8d 8cbb 9297 ccbb
00000130: 13bb 65bc 3108 cd3c fafe 0c3c 284d 1c3d
00000140: c9c9 473c 422b 983b 0207 f33c 1700 5b3c
00000150: 19e7 f5bb 506e 0cbd 2b30 213d b73c c2bb
00000160: 6360 f03c 680b 083c a8ce 4c3a dabc 0e3c
00000170: ce3b f73b d3dd 873c 762a 5f3c 8470 343c
00000180: b8b8 113c 684f 193c 2d2d 29bb bb3a 50ba
00000190: f3af 68bc 90dc 3fbc f46b e0bb 4fc2 97bb
000001a0: 521a 44bc c8c2 b93b f2a0 16bd 5144 9cbb
000001b0: 016b 543c 4276 62bb 7e23 303d 88bb 8abc
000001c0: 15bc e33c 105f b3bc 469e 8e3b 5f06 5cbc
000001d0: b55a 1cbc 13c7 8e3c 4acd 93bb 676f d8ba
000001e0: 3038 853b 694f 45ba 8736 ea3c c527 b5bc
000001f0: 83db 913c d005 a23b 1ff7 903c ab33 003c
00000200: e2a9 fc3c 1f10 08bc 7620 a43c 13cc ca3b
00000210: 157b 053a 484a 853c e75e 253b 7f5e 033c
00000220: 75a7 b73b 588a 18bc a634 d83a 244c ee3c
00000230: 84a6 393d 7d09 063c 7c8f 34bc 1afa 91bc
00000240: 7243 073d a215 183d a0ab 5fba 499a c83c
00000250: 532f d7bc fe61 1fbc a5fd 2a3d 3d7b b33c
00000260: a4fb 3bbc 0b89 afbb e1e7 efbc 6adb 6f3c
00000270: 4b7a 063c af5a acbb b17d d4bb b5f9 093b
00000280: 8f7b e63b 0b77 bcbc 810e 3fbb 3b3c d53b
00000290: da49 da3c d095 80bc 2415 9dbc d153 c63c
000002a0: 3818 d03c 71ec 3a3b 7101 c9bb f60b f4bb
000002b0: 8c05 3ebc 752c d33c afc2 ff3b 359e 43bc
000002c0: ad79 78bc ccc5 4d3c 437c 513a 3450 7fbb
000002d0: 7dc4 a7bb 8072 223c ffdd c0bc 3fe8 8a3a
000002e0: c716 4d3d ef18 023d e60a 57bb c6cf 8f3c
000002f0: 851f ffbb 5642 003d 8a43 c63c a348 70ba
00000300: c420 33bc bdf1 9e3b a734 843c b2d9 653c
00000310: 1f49 6cbc 0132 eb3c 59fb 1cbc 6a0d 083c
00000320: 9ea9 a6ba 1e24 833b 54d4 a23c 283b aa3c
00000330: 7dd3 84ba fda8 70ba a553 c33c e57b e43c
00000340: b154 ef3c 40ed a73c fb2c e038 e431 f5bc
00000350: 073a 063c 03d5 143c da41 f53c 996b 92bc
00000360: 135e a2bc af08 f33c 34bd c6bb ce41 9939
00000370: 3aa5 47bc 66af 28bd f794 683c 22e1 9f3c
00000380: 200c d83c ee75 a5bc 5d0f a33b e688 18bc
00000390: 44eb 1f3c ed49 8f3a d866 f9bb aa42 c2bc
000003a0: 1141 163c 3d12 9bbc 069f 0b3d 21d8 803c
000003b0: 3e67 093d e968 15bc 9e5e 2cbc 888e f53c
000003c0: cc69 4bbc 436a e4bc e550 b93c 99ec 04bc
000003d0: ec33 c03a 6c70 5fbc fb74 913c 15e1 bf3c
000003e0: 9a8a b0b9 bda4 6cbc 9139 eb3c 2340 6dbb
000003f0: 5b35 063c d3f9 3d3b 40d5 12bc a9b7 463c
-0.0062169917 -0.0012932768 0.0150071625 0.0072483458 0.027939226 0.0036829074 0.02187964 0.014293563
0.012474352 0.01100588 0.0130442865 -0.019592097 -0.016864233 0.0074312924 0.030799348 0.016755862
-0.00097384665 0.00015704434 0.013642435 -0.025579229 0.02815243 0.023937974 0.008784834 0.010353446
-0.0052588717 0.0051947343 -0.0031596585 -0.0014967845 -0.0001748908 0.007030466 0.010510258 0.01192463
0.031026533 -0.00011467317 0.0081810765 0.020804338 0.046552446 0.021566655 -0.00436596 -0.0050866962
-0.0088446485 -0.004790676 0.027017891 -0.002361867 0.0280434 -0.0032477318 -0.0014444882 -0.0420455
-0.0020758086 -0.012914001 -0.016225325 -0.013950115 0.023942677 0.02196235 0.024810951 -0.0012813931
0.01939455 -0.00086282805 0.0050469185 0.03224492 -0.0028623114 0.032187026 0.021652853 0.0019038301
0.005685038 0.0014015462 0.0021092098 0.017893272 0.026811494 -0.0041748346 0.04373679 0.020979773
0.048542976 0.024628635 -0.0042893346 -0.0062436545 -0.014021653 0.02502832 0.008605713 0.03815952
0.012194105 0.0046438286 0.029666428 0.013366721 -0.0075043556 -0.03428489 0.039352577 -0.005927648
0.029342836 0.008303501 0.00078127766 0.008712018 0.007544971 0.016585266 0.013620963 0.011013154
0.008894138 0.009357311 -0.002581428 -0.0007943322 -0.014202106 -0.011710301 -0.0068488065 -0.0046313177
-0.011969166 0.0056689717 -0.036774583 -0.004768886 0.012964965 -0.003455535 0.043002598 -0.016935125
0.027799645 -0.021895915 0.0043523638 -0.013429253 -0.009543111 0.01742891 -0.0045105563 -0.0016512693
0.004065536 -0.00075267866 0.028590454 -0.02211369 0.017804867 0.0049445406 0.017695962 0.007824819
0.030842725 -0.008304625 0.02003501 0.0061888783 0.0005091888 0.016270772 0.0025233568 0.008018135
0.005604679 -0.0093103275 0.0016495183 0.029089041 0.045324817 0.008180973 -0.0110205375 -0.017819453
0.033023305 0.037130006 -0.0008532349 0.024487631 -0.026267683 -0.009727953 0.0417458 0.02190935
-0.01147357 -0.005356913 -0.029285373 0.014639715 0.008207868 -0.0052598338 -0.00648471 0.0021053378
0.0070337723 -0.023005983 -0.0029152932 0.006507424 0.026646543 -0.015696436 -0.01917512 0.024209889
0.025402173 0.0028522278 -0.006134205 -0.007447715 -0.011598002 0.025778035 0.0078051905 -0.011939575
-0.0151657285 0.0125593655 0.0007991234 -0.0038957717 -0.005119859 0.009914994 -0.023543356 0.0010597779
0.05007055 0.03176206 -0.0032812892 0.017555129 -0.00778574 0.031313263 0.024202127 -0.0009166097
-0.010933105 0.004850595 0.016138388 0.014028953 -0.01442173 0.028710367 -0.00958141 0.008303979
-0.0012715345 0.0040021082 0.019876637 0.020780161 -0.0010133829 -0.00091804547 0.023843596 0.027891109
0.029215189 0.020498872 0.000106895306 -0.029931016 0.008192546 0.009083989 0.029938627 -0.017873572
-0.019820249 0.029667227 -0.0060650352 0.00029231462 -0.012185389 -0.041182898 0.014195672 0.019516531
0.02637297 -0.020197835 0.0049761967 -0.009309983 0.009760682 0.0010932066 -0.007611137 -0.023713429
0.0091707865 -0.018929595 0.034087203 0.015728058 0.033545725 -0.009119251 -0.010520605 0.02997519
-0.012415361 -0.0278827 0.022621581 -0.00811305 0.0014663911 -0.013637643 0.017755976 0.023422757
-0.00033672602 -0.014443574 0.028713973 -0.0036201559 0.008191432 0.0028988018 -0.008961976 0.012128749

network_body._body_endoder.seq_layers.0.weight f4 [256, 71]
00000000: ce8b b43d 12d0 193e f937 27be fa3d febd
00000010: 174a 1ebe e498 443d 7f10 033d 06cc 1b3c
00000020: 92ae e03d 3333 60be 10c3 203e 7612 fe3d
00000030: e9fe 0f3d ce0f 4d3e 9f94 c3bd 9851 cb3d
00000040: ffca e3bc f636 5fbe e918 873d 690d 0ebe
00000050: 786d 9a3e 02c8 f8bd 15c1 debc d984 fabd
00000060: df50 13be 86f2 cebb 2608 b6bd 615e f13d
00000070: e72e 9fbe 3b7a d33b 2434 873d 71a1 38bc
00000080: 693c 80bd 1749 3abe 2e64 b33c 14bd 06bd
00000090: 9aa7 623d 7338 41be f98d 25be 4acc 883c
000000a0: 0c6e fe3d 27c3 7abd 422a 47bd 513c d2bc
000000b0: 1b53 953c 9e94 20be 8882 27bc 4ef0 42be
000000c0: 984d 63be ab08 2a3c 066c 44be ef6a 8dbd
000000d0: 1aa6 c2ba 1a4c 633e 4d5e 863d 63ef 3ebe
000000e0: 4232 e5bc 743f 7abe 9ced ba3b 6c3e d5bd
000000f0: 54d8 883e b4f0 fa3d 281d 1abe e56c bebb
00000100: 1af3 083e 28f9 e23d 1cc7 7d3d 0549 053d
00000110: d0b4 063e 1f6b b53d 5dab b3bd 0b2a b23c
00000120: 9b08 2fbe bdbe 9fbd e876 913c 5a7d 203c
00000130: f817 bd3d f1e9 31be dbee 08be bfa9 36be
00000140: bfb5 133e 66ea 0fbe a5a0 de3d 787b 92bd
00000150: b6c7 063b e659 f1bd 2209 31be 9b1c 843d
00000160: ff52 843d ef9f 13be 22c5 ce3c f131 1c3e
00000170: 5f3a c43d 9899 57be ded5 bb3d a7e0 5abb
00000180: e019 733b 34f0 d8bd da24 5fbe eeaf a23d
00000190: 4940 c6bd 4cff 51bd a25d 103e 8219 113e
000001a0: 0803 dcbd bca8 8cbe 8ff0 89bd 108a 4dbe
000001b0: ac57 65be 4732 8e3c 4a32 59be 88de 28bc
000001c0: 0513 2f3c eef9 973c 10d2 d0bd 326f 803c
000001d0: 4e5e b8bd a329 5c3c 459d c9bb 5f6f 1abe
000001e0: 62c8 c53d a3cd 833d 807d 3f3c b3de 22bd
000001f0: e1a9 21bc eeea 783d 1992 463c ad05 17be
00000200: e453 55be bd2a 59be 649a c23d ea03 de3c
00000210: def6 6abd 4506 f23d f4a3 04be 9b21 683d
00000220: 0a7f fa3c 9780 13be b61c 92bd 93f7 513e
00000230: da66 9bbc 9587 47bd 62bb 7b3b 9517 93bc
00000240: 4b8a c3bd aa4f c83d bb87 82bd 7cf1 f1bc
00000250: 9cc9 7e3d 00eb cb3c 9b7f b1bb 1d7d cd3d
00000260: a1c5 46bd 0ba5 6dbd 926b 0c3d acba 57be
00000270: 7790 0e3e dae7 3f3e 1d13 ee3d 51e0 793d
00000280: 5b67 963e 7656 163c c8c1 043d c627 9e3d
00000290: 855e 0e3e de4d 5cbe efe4 693d 96c2 373e
000002a0: 9c62 8fbd 1381 663e 1199 4a3c 77a7 073e
000002b0: d8bd 3dbe 7991 253e cd4f 9d3d 1b6c aebd
000002c0: 17f3 4c3e 227b 5ebd cd0d b23d 39ad 0ebd
000002d0: a072 003e f698 a03d c21e 5dbd cf09 323d
000002e0: 800e 143d 81ff 873d fa93 cdbd 89ed b23d
000002f0: 669f 8bbe ae82 b13d 1742 fa3d fbd0 c4bd
00000300: 8e95 e8bd 46bf 153d e47c a93e 1938 1e3e
00000310: d4ad a23d a2e8 7dbd d291 a13d 0cad 90bd
00000320: 2884 593c 97f4 65bd 63a3 ff3d 3e6b 783e
00000330: 1e41 9f3c b1d7 e2bd a1ae 133d 0671 56be
00000340: 6b2b 7b3d 274a 853c 46c6 9c3b 14d7 4a3d
00000350: 0fe6 243e c9bb 743d 7813 7dbd 7edc 803d
00000360: 08a9 1f3e 5a45 e7bc 52a3 14be 6f85 a33d
00000370: a69b e9bc da6c 16be 9435 5ebd 182d abbd
00000380: a987 433e b9b1 fe3d 8922 753e fcb0 dbbc
00000390: fc49 0d3e d522 1c3e 5389 2e3e 94cf 323e
000003a0: 01fe 17be 4416 e6bd 00ff 65bd 1102 2d3d
000003b0: fa21 fa3d aad7 6bbe 10e6 333e d856 90bd
000003c0: 02fc d83d eaf4 38be 9e32 35be 76f9 cf3d
000003d0: 6b7e cd3d 6ec4 d83b 2efa 373d 175b f13d
000003e0: 5321 9bbc 49af 23be 5000 a03e d81b 423e
000003f0: 0465 2e3e 8e17 92bd 6bc8 883d 7f02 af3d
0.08815728 0.15020779 -0.16329946 -0.12414165 -0.1545795 0.04799737 0.031998154 0.009509092
0.10970797 -0.21894531 0.1569941 0.12405865 0.03515521 0.2002556 -0.095498316 0.09927672
-0.027806757 -0.2179831 0.06596548 -0.13872303 0.30161643 -0.121475235 -0.027191678 -0.1223237
-0.14386319 -0.006315532 -0.08888273 0.117855795 -0.3109047 0.00645378 0.06601742 -0.011268959
-0.06261522 -0.18191944 0.021898355 -0.032895163 0.05533562 -0.1886919 -0.1616744 0.016698975
0.124233335 -0.061221268 -0.048624285 -0.025663527 0.018228104 -0.15681693 -0.010223992 -0.19036981
-0.22197568 0.010378043 -0.19181833 -0.069051616 -0.0014850528 0.22196999 0.06560955 -0.18646006
-0.027978066 -0.24438268 0.005704595 -0.10412297 0.26727545 0.12252942 -0.15050185 -0.005811321
0.13373986 0.11082679 0.061957464 0.03254034 0.13154912 0.08858322 -0.08772919 0.021748563
-0.17093126 -0.07800052 0.017756894 0.009795511 0.09233087 -0.17374398 -0.13372366 -0.1783819
0.144248 -0.1405426 0.10870484 -0.07152456 0.0020565814 -0.11784725 -0.1728864 0.064507686
0.06461143 -0.14416479 0.025240485 0.15253426 0.09581446 -0.21054685 0.09171651 -0.0033398063
0.003709428 -0.1059269 -0.21791402 0.07943712 -0.0968023 -0.05126886 0.14098218 0.14169887
-0.10742766 -0.27472484 -0.06735336 -0.20072198 -0.22396725 0.017357958 -0.2121059 -0.010306962
0.010685687 0.018551793 -0.10196316 0.015678022 -0.09002362 0.013437661 -0.006152781 -0.15081547
0.096573606 0.064357065 0.011687636 -0.039763164 -0.009867162 0.06077092 0.012119793 -0.14748259
-0.20832783 -0.2120771 0.09502104 0.027101476 -0.057364337 0.11817602 -0.12953168 0.056672674
0.030578155 -0.14404522 -0.071343824 0.20504598 -0.018969942 -0.048713285 0.003841125 -0.01795558
-0.09547862 0.0978082 -0.06373545 -0.029534094 0.06220399 0.02489233 -0.005416823 0.10033629
-0.048528317 -0.058018725 0.034282275 -0.21067303 0.13922296 0.18740788 0.11624739 0.06100494
0.2937573 0.009175887 0.032411367 0.0772243 0.13903244 -0.21514079 0.057103094 0.17945322
-0.0700123 0.22510175 0.012365595 0.13247477 -0.18529451 0.16168775 0.076812364 -0.08516713
0.20014606 -0.054316647 0.086940385 -0.034833167 0.12543726 0.07841675 -0.05398441 0.043466385
0.03614664 0.066405304 -0.1003799 0.087367125 -0.2727005 0.08667503 0.12219637 -0.09610172
-0.1135665 0.036559366 0.33103096 0.15451087 0.07943311 -0.061989434 0.07889141 -0.07064256
0.013276137 -0.056141462 0.124823354 0.2425966 0.01944023 -0.11076296 0.03605521 -0.20941553
0.061320703 0.01627071 0.004784378 0.04952152 0.16103385 0.0597494 -0.061786145 0.062920555
0.15591824 -0.028231312 -0.14515427 0.07984435 -0.028516602 -0.14689961 -0.054250315 -0.0835821
0.19094719 0.12436242 0.23938955 -0.026817791 0.13797754 0.15247662 0.17044573 0.17461997
-0.14842989 -0.112347156 -0.05615139 0.0422383 0.12213512 -0.23031488 0.1756823 -0.07047814
0.10594942 -0.18062177 -0.1769509 0.10155003 0.10033878 0.006615213 0.044916324 0.11784952
-0.018936789 -0.15984835 0.31250238 0.18955934 0.17030722 -0.07133399 0.06678852 0.08545398

network_body._body_endoder.seq_layers.2.bias f4 [256]
00000000: 4c56 a23b 8e37 d7bb 8b5d ccb9 d819 ac3a
00000010: e37e 813b 6b6d 53bc 6e0c ea3a 275b 05bc
00000020: 883d 3dbc c94e 453b 6839 abbc aa25 02bc
00000030: 11db 333c b163 60bb 697a cc3c 93d4 a33a
00000040: acb5 f73c d656 72bb 8c3f cdbb 7d1c 4d3c
00000050: a644 5f3c ddc3 f83c a005 a3bb 8ff7 0f3d
00000060: 7982 8a3b 1afc a8bc e911 173b 4e30 ea3c
00000070: 740e 073c 97fa a9bb d90f 30bb 5ae4 daba
00000080: 6b55 eb3a ec49 5dbc 4b1f 51bc ba0b f13c
00000090: 1435 0a3b 2fba 843a 2670 9b3c a142 52bc
000000a0: 46cd 23bc e607 603c e7de 33bc 2cf6 373a
000000b0: 3f49 b73c 3ba3 31bc ecfd d1ba 3f03 b03a
000000c0: abc6 483b 0d9c 07bc 7d84 6d3c 2652 66bc
000000d0: a2c9 9aba 85d3 97bb 0e53 d33b ae5f 6dbc
000000e0: 5159 ca3c 3885 da3c fe38 123b d59c 16bc
000000f0: e26c 3a3c 93c8 f6bc 8376 48bc ea40 4abc
00000100: 9a58 95b9 47ac 71bc 3d96 89bb 1611 85bb
00000110: beb3 72ba 85c4 903c d74c e7bb 26a5 d8bc
00000120: 38ba 383c e82b 66bc bb63 efbb 2f11 7abc
00000130: 5ce9 3d3c 971c 023b 867a 813c 608c 6ebc
00000140: 5d46 1e3c 3deb e23b 4c68 c63b bc31 99ba
00000150: 10ea 31bc e465 d2bc c09a a93b 6bac ad3c
00000160: 89f8 98bb b2fd c43c 48fe eb3c af11 bcbb
00000170: fe3a 31bc 4c94 9dbc 43f8 0a3b 97d9 923b
00000180: 62f1 88bc 5048 68bb 9725 0dbc e7a4 dbbb
00000190: 3318 cabb 8345 b03c e970 b13b c2b0 943b
000001a0: 7c0d 84bc baba a2bc b626 04bc 38d9 c33c
000001b0: 0c06 88bc 8665 c0bb de17 bb3b 4335 06bc
000001c0: d4bd 553c 30d4 97bc 9454 13bb 2a53 4d3c
000001d0: d646 b43b 4036 633c 7e8d e93a 5be1 4b3c
000001e0: e7d8 cc3b 3824 9d3b 4557 98bb e5ad ea3b
000001f0: 4593 a6bc abc6 373b f92f e13c cf20 60bb
00000200: 201a 893b 5be2 03bc 08d2 ed3b ba2a 50bc
00000210: 1725 f037 80da df3a 5631 823c b2c8 39bc
00000220: 9bc4 1b3c fb83 07bb 41da 863a 803c 273c
00000230: acf9 173b 04f5 1a3b ef63 573b 2d92 14bb
00000240: 3830 6d3b f4e6 c63c 75e7 c3bb 5ad8 a0bc
00000250: 056c 993c 48c9 debb 5c11 613c 1d1b 9bbb
00000260: 99e3 ea3a cea5 b63c 2a8e b7bb 459f 7a3c
00000270: b5f2 dcb9 5529 5bbb b2b3 f33b 6cc2 9d3b
00000280: 9966 d13a 5281 b93a da39 9cbc 4605 9d3c
00000290: b6a6 ee3b 1432 00bc 0831 f1bb bbd2 05ba
000002a0: 3a14 f5bb 9f4e 633b 216a 35b7 b291 fb3c
000002b0: cf39 7c3c 06c1 31bc 903e b63c 5d28 db3c
000002c0: 04ce 3cbc 7cbb 1abc 8f7f aa3b 608e 6b3b
000002d0: a987 58bc 4506 2d3c ffb6 54bc d388 38bc
000002e0: e8c3 36bc f4f7 35bc b567 2d3c 73dd 85bc
000002f0: 8597 75bc d4e6 d63a 0df7 dcba 3840 f43b
00000300: ffa9 20bc 15d2 e83c 89d9 1b3b 9774 17bc
00000310: 2c16 1d3c 5c6a 2dbc 2931 80bc a5c6 05bb
00000320: c123 9ebc 8842 85bb 13bc 0c3c 6100 4a3c
00000330: a372 c93c d813 613c 17df 31bc 7e84 bebb
00000340: e666 92ba 5836 fdbb 6bd6 85bc 0628 83b9
00000350: 53c2 1f3b 28ca 943b f105 343a c9a2 023d
00000360: 20b8 b0bb 80af 55bc cd01 d4bb 2d03 7abb
00000370: 44b3 3c3c a247 eb3b 2fd1 62bb 1211 19bc
00000380: 0506 453d 93fb 653c 38d3 903a abfe 003a
00000390: e5bd 983c aa75 c03c e59f 013c 3295 23bb
000003a0: 5932 b33b ba68 9e3c 0994 f8bb 3566 28bc
000003b0: 9b7f 21bc 01ee fcbb bc94 4a3c c736 23bc
000003c0: 5835 88ba 8309 bbbb 4bd4 3f3c d442 ffbb
000003d0: eb3e 3abc d8ad a83a 271d 7f3b 166c 43bc
000003e0: 5401 083c 85af 853c 627b 36bb 9700 b83b
000003f0: 77ca adba 196c bdba 9c88 e53c 66f6 aa38
0.004954135 -0.006567902 -0.00038979607 0.0013130261 0.0039518937 -0.012904505 0.0017856488 -0.008139408
-0.011550315 0.0030106774 -0.020901397 -0.00794355 0.0109775225 -0.0034239108 0.024960713 0.0012499265
0.030237995 -0.0036978028 -0.006263679 0.012518999 0.013627207 0.030366832 -0.004975036 0.0351482
0.0042269793 -0.020628024 0.0023051447 0.028587487 0.008243192 -0.0051873433 -0.0026864915 -0.0016700134
0.0017954534 -0.013506394 -0.0127638085 0.029424537 0.0021088766 0.0010126288 0.018974375 -0.012833268
-0.0099976715 0.013673758 -0.010978437 0.00070175785 0.022373794 -0.01084214 -0.0016021109 0.0013428702
0.0030635993 -0.0082769515 0.01449692 -0.014057672 -0.0011809359 -0.0046333694 0.00644911 -0.014488144
0.024700793 0.026674852 0.0022311802 -0.009192665 0.011378499 -0.030124938 -0.012235287 -0.012344578
-0.00028485508 -0.014750547 -0.004198818 -0.0040608747 -0.0009258351 0.017671833 -0.0070587206 -0.026445936
0.011274867 -0.014048554 -0.00730559 -0.015262886 0.011591282 0.0019853467 0.015805494 -0.014559835
0.009660331 0.0069250152 0.0060549136 -0.0011687796 -0.0108590275 -0.02568335 0.0051759183 0.02120038
-0.0046682996 0.024046753 0.028807774 -0.0057394127 -0.0108172875 -0.019235753 0.0021205104 0.004481505
-0.016716663 -0.0035443492 -0.008614919 -0.0067030075 -0.0061674356 0.02151752 0.0054150713 0.0045376727
-0.016119711 -0.019864429 -0.00806587 0.023907289 -0.016604446 -0.0058714775 0.0057096323 -0.0081914095
0.013045747 -0.018533796 -0.0022480832 0.012532035 0.0055016084 0.013867915 0.0017818657 0.012443866
0.0062514427 0.0047955774 -0.004649075 0.007161843 -0.020333895 0.0028042 0.027488695 -0.0034199243
0.0041840225 -0.008049573 0.0072577037 -0.012705499 2.86275e-05 0.0017078668 0.015892666 -0.011339353
0.009507324 -0.0020678032 0.0010288433 0.010207295 0.0023189588 0.0023644576 0.0032865962 -0.0022670135
0.003619207 0.024280049 -0.0059785196 -0.019634414 0.018728266 -0.006798897 0.013737049 -0.0047334568
0.0017920613 0.022295859 -0.005601664 0.015296762 -0.000421425 -0.0033441384 0.007437193 0.0048144367
0.0015976011 0.001415292 -0.019070555 0.019167554 0.007283057 -0.00782444 -0.0073605813 -0.00051049487
-0.007479218 0.0034684313 -1.0813151e-05 0.030709121 0.015394642 -0.010849243 0.022246629 0.026752645
-0.011523727 -0.009444114 0.0052031945 0.0035943016 -0.013215938 0.010560577 -0.012983083 -0.01126309
-0.011155106 -0.01110648 0.010583808 -0.016340947 -0.014989738 0.0016395696 -0.0016858295 0.0074539445
-0.009806155 0.028420487 0.0023780784 -0.009244106 0.009587806 -0.01058444 -0.015648441 -0.002041259
-0.019304158 -0.004066769 0.008589762 0.012329192 0.024590796 0.013737641 -0.010856411 -0.005814134
-0.0011169582 -0.0077274255 -0.016337594 -0.00025016087 0.00243773 0.0045407005 0.00068673404 0.031893525
-0.005393043 -0.013042331 -0.006469941 -0.0038148866 0.01151735 0.00718017 -0.0034609546 -0.009342449
0.048101444 0.014037031 0.0011049276 0.0004920761 0.018645236 0.023493607 0.007911657 -0.0024960754
0.0054686484 0.019337047 -0.0075860065 -0.010278274 -0.009857084 -0.007718802 0.012364563 -0.00996179
-0.0010391874 -0.005707921 0.011708329 -0.007789949 -0.01136754 0.0012869192 0.0038927288 -0.011927625
0.008301098 0.016319046 -0.0027844538 0.0056153047 -0.0013259192 -0.0014451771 0.028019242 8.152127e-05

network_body._body_endoder.seq_layers.2.weight f4 [256, 256]
00000000: f126 3dbd 034a 3f3d 4851 b43c fcf2 eabc
00000010: e791 8b3d 015c cdbd 0331 273d 094a 463d
00000020: bc3d 8b3d c62c 10bb a7b6 ac3d a422 683d
00000030: 8e9a 943d 9601 d8bc e308 2e3e 29f4 b93c
00000040: e919 31bd 44e4 23be b80a 5c3d 9eb6 073e
00000050: 2ed3 943d f5d5 aabd 9e4f ae3d 85cd e1bc
00000060: 2fd0 da3c 14df f03b 2797 a6bd 0f9c 10bd
00000070: 5b19 cdbc 9083 aebd 3533 f43c 77d0 fe3c
00000080: 04c1 5a3c bd09 0dbd 1c87 853d 366c fdbc
00000090: eec5 b7bd 7ba8 ea3d 334c 52bd ffd7 94bd
000000a0: 99a7 033e 8d50 e53d 8a5e 0fbe d11f 9d3b
000000b0: ddb2 16bc 7d0d 62bd 4c1d e9bc f182 263c
000000c0: 5efd 923d 907f ce3c 30ad 973d 5094 05bd
000000d0: f179 d0bd ce46 40bd 81ec 0c3d abe6 d63d
000000e0: 72ea 90bd 8c34 513d 6ee7 0fbd d45f 0fbd
000000f0: ff9e fe3d 939f a63d ebd3 17be d0e0 d5bb
00000100: 6e6b 0cbd 7fbb d2bb 351a 893c dd0d 143e
00000110: 01bc d33d 1a7f 0cbe a249 fb3c ecbb d23d
00000120: 1893 973c 7723 7a3d 14e2 623d 744a 7c3d
00000130: 31e7 06bd c1ac 5a3e 2d0e 903c 8840 5a3d
00000140: b110 313c d5d4 6dbc 678a 2cbd ff36 9b3d
00000150: abd2 24bd 1f9e ffbd 6b45 673d 0233 c73d
00000160: c660 353d eba7 8bbd d246 5ebd 75c1 363d
00000170: 0ae0 903d 47d4 30bd f4c7 9a3d ee3e 0cbe
00000180: f5d1 56bd 36a3 a7bc 0713 f3bd 0a42 913c
00000190: c25e 973c 3e26 1b3d 41ea ebbd e6bd 99bc
000001a0: ab31 e63c 0fd5 1b3c cc8e 633d 4288 febc
000001b0: 7d85 043d b724 57bb dae0 85bd c6b5 103e
000001c0: 3dc7 dabd 019f bb3c 7c00 f03d a59c 523d
000001d0: 609c 6fbd a533 a23d 2213 203d addd 613d
000001e0: 406f 91bc 02e5 d839 5048 3cbc 606c 643c
000001f0: a34d 5ebc 8e59 2abe fba0 70bd a9d8 aabb
00000200: 024b 06bd c8f0 8e3a af06 d5bd eb60 b2bd
00000210: ea44 cdbc 7271 d93b d15f d83c 31b9 03bd
00000220: 0308 2e3d b822 cf3d fb5d 373d 6e31 61bc
00000230: f17e 85bc 4f6a 063d 7e10 9c3c a10b 7cbc
00000240: abf3 3cbd 2d1c 9dbd ca78 83bd b0ff 893d
00000250: ba0d f03c 497e f5bb 7e32 fc3d 549b d73d
00000260: 8414 103e b737 9d3d 2e7d 80bd c061 6ebd
00000270: 85bc 863c f2cf 19ba 5b1c ffbd 0afe a13c
00000280: 4e02 1abd de56 1fbd 68a8 81bd 8ebd e93c
00000290: e203 6abc c98e 81bc a9e4 d5bd bb4d 883d
000002a0: f4e2 633d 4c92 e5bd bbfd dcbb 7387 98bd
000002b0: b9bf e53c a3de 913c 1094 dc3d d83d 80bd
000002c0: b4f1 46bd b35d e03d f108 16bd 2e8e 31bc
000002d0: 4509 f23a ac6b 783d da99 4bbd a12c a8bc
000002e0: 117e 9ebd 4cbd bb3c 1cb1 7ebd 9975 383d
000002f0: 7d14 cf3b 16d9 12bc 5b1a 093d 4b21 1cbd
00000300: b258 f8bd 7e62 12be a55c 613d f0ae 4dbd
00000310: e877 ddbd 88fb 3ebe 2623 a7bd 2aaa bf3d
00000320: b69c 9dbc fa79 f8bc 372e 593d a6d6 db3b
00000330: b41b afbd 0d4f 93bc 6075 a63c cd34 c43c
00000340: c7cf 233d 6ef3 393d 398a 92bd 5344 8bbd
00000350: c744 a9bd a678 da3d 7080 76bd 4aa6 d03d
00000360: 2938 583d 87b3 85bd bf99 af39 f58a 91bd
00000370: fe3b ad3d 4359 eb3d c7fa 08be 2c7a 993d
00000380: fb2e 553d e2af b2bd 159c b5bd d29c cf3d
00000390: 4922 2fbd 9125 ffbd 376e 31bd 1bfd 5fbd
000003a0: a60b a0bd 9c2a 9b3d 8bd3 d0bd f739 0a3c
000003b0: 4643 b0bd ac07 d33d b277 b1bc c1ff ab3c
000003c0: 86dc c73c f345 723d b8cc 3f3d 7d33 923d
000003d0: d8c2 d33c a03c bf3d fe77 2ebb 1344 053e
000003e0: c08c 9d3d 3e9a 9e3d 0326 49be 11d5 563d
000003f0: 3252 183d ed86 9bbd 8704 7f3d 5104 28bc
-0.046179716 0.046701442 0.022011414 -0.028680317 0.06814938 -0.10027314 0.040818226 0.04841045
0.06798884 -0.0021999343 0.08433276 0.05667366 0.072560415 -0.026367944 0.16995578 0.022699432
-0.0432376 -0.16005045 0.05372116 0.13253257 0.07266842 -0.0834159 0.085112795 -0.02756382
0.026710598 0.0073508117 -0.08134299 -0.03530508 -0.025036504 -0.08521187 0.029809574 0.031105263
0.013351683 -0.034433115 0.06519911 -0.030935388 -0.08973299 0.11457916 -0.0513422 -0.072677605
0.12856902 0.111970045 -0.14000908 0.0047950526 -0.009197918 -0.055188645 -0.028456353 0.010163055
0.07177232 0.02520731 0.0740608 -0.032612145 -0.101795085 -0.046942525 0.034405235 0.10493215
-0.07075967 0.051075503 -0.035132818 -0.0350035 0.1243267 0.08135905 -0.14826934 -0.006527044
-0.03428214 -0.0064310427 0.01673613 0.14458413 0.10338593 -0.1372036 0.03067476 0.102897495
0.018502757 0.06106898 0.055391386 0.06159444 -0.032935325 0.21354963 0.017584885 0.053284198
0.010807202 -0.014516075 -0.04212418 0.07578849 -0.04023997 -0.12481331 0.056462687 0.09726526
0.044281743 -0.06819137 -0.05426676 0.04461809 0.07073982 -0.043171193 0.07557669 -0.13695881
-0.052446324 -0.020463567 -0.118688636 0.017731685 0.018477801 0.037878267 -0.1151929 -0.018767308
0.028099855 0.009511246 0.055556104 -0.031070832 0.032353867 -0.003282828 -0.06537028 0.14131841
-0.10682533 0.022902967 0.117188424 0.05141892 -0.05849874 0.07920007 0.039080746 0.055143047
-0.017753243 0.00041369355 -0.01149185 0.013941854 -0.013568315 -0.16635725 -0.058747273 -0.005213816
-0.032786377 0.0010905499 -0.104016654 -0.08709892 -0.025057275 0.006635838 0.026412876 -0.032159034
0.04248811 0.10114044 0.04476736 -0.013744695 -0.016295882 0.032816228 0.019050833 -0.015383632
-0.046130817 -0.0767139 -0.06419523 0.06738222 0.02930342 -0.007491861 0.12314318 0.10527673
0.14070326 0.076766424 -0.06273876 -0.05819869 0.016447315 -0.0005867473 -0.1245658 0.019774456
-0.037599854 -0.038901202 -0.06330949 0.02853277 -0.014283152 -0.015815156 -0.10444004 0.06655451
0.05563636 -0.112095445 -0.006744114 -0.0744771 0.028045522 0.017806357 0.10770428 -0.06261796
-0.04857035 0.10955372 -0.03662962 -0.010837121 0.0018465897 0.06064956 -0.04970727 -0.020529093
-0.07738889 0.022917412 -0.062180623 0.045034025 0.006319581 -0.00896289 0.0334724 -0.03811769
-0.12126292 -0.14295384 0.055019993 -0.05021566 -0.10813886 -0.18650639 -0.08161001 0.09358628
-0.019239765 -0.0303316 0.05302259 0.0067089377 -0.08550206 -0.01798203 0.02031964 0.023950959
0.039993074 0.04539817 -0.0715527 -0.06800141 -0.08265071 0.10667543 -0.06018108 0.10187967
0.052787933 -0.06528383 0.0003349315 -0.07106582 0.08458708 0.11491635 -0.13376914 0.074940056
0.052046757 -0.08724953 -0.08867661 0.10137333 -0.042757306 -0.12458337 -0.043318 -0.05468474
-0.07814722 0.075764865 -0.101965986 0.008436671 -0.086065814 0.10304198 -0.02166352 0.020995976
0.024397146 0.05914874 0.046826094 0.07138727 0.025849745 0.09337735 -0.0026621814 0.1301425
0.076928616 0.07744263 -0.19643407 0.05244929 0.037187763 -0.075940944 0.062260177 -0.010254935

network_body.observation_encoder.processors.0.normalizer.running_mean f4 [66]
00000000: 7d09 8a3e 6a0c f73c 2480 d13c 62b8 4a3c
00000010: db8b 293f 72a1 583f e5c3 9b3e b5d1 ea3c
00000020: 5e79 d23c c280 3f3c bb35 213f 15b1 543f
00000030: 97a3 843e 8ebe e63c bed4 cd3c 4b10 3f3c
00000040: 320d 2d3f dd9a 593f 4c55 b63e 68aa d03c
00000050: e8db d33c 398c 253c f41a 153f 78e9 4d3f
00000060: 2b15 883e a056 ca3c bedf c93c 6630 253c
00000070: d1be 2c3f 8f8c 583f d67d d03e 55fe b63c
00000080: 31cd d83c 4d0e 0b3c 5b16 093f 78f5 453f
00000090: a247 8f3e 4d89 ac3c d869 c83c 2cce 0b3c
000000a0: 6385 2a3f 048b 563f 4891 e33e bf33 a03c
000000b0: 8c23 df3c 1376 f03b cf5b 003f 8241 3f3f
000000c0: 494c 953e 19b6 963c dd07 cb3c cbc1 ee3b
000000d0: 586e 283f 1e98 543f 0530 ee3e 5d78 8e3c
000000e0: 728f e83c f8c2 d73b 7000 f73e 3e2a 3b3f
000000f0: 4afd 993e 00c1 873c 5b8e d43c 77aa d53b
00000100: 4a73 263f 0bda 523f
0.26960364 0.030157287 0.025573798 0.012373062 0.6622903 0.84621346 0.30422893 0.02866445
0.025692638 0.011688413 0.6297261 0.83082706 0.2590606 0.028167035 0.025125857 0.011661599
0.6759826 0.8500193 0.3561195 0.025471881 0.025861695 0.0101042325 0.5824425 0.8043437
0.2657865 0.02469951 0.024642821 0.01008234 0.6747866 0.84589475 0.40721005 0.022338072
0.02646503 0.008487296 0.53549737 0.7732768 0.2798434 0.021061564 0.024464533 0.008533042
0.6660978 0.8380587 0.44446778 0.019555924 0.02723863 0.0073382943 0.5014009 0.7470933
0.29159763 0.018397378 0.024784023 0.0072862855 0.6579337 0.8304461 0.4652101 0.017391378
0.028388713 0.0065845214 0.4824252 0.7311133 0.30076057 0.016571522 0.025946787 0.006520565
0.6501967 0.8236396

network_body.observation_encoder.processors.1.normalizer.running_mean f4 [5]
00000000: 2f08 903c d6cc 9d3c d6f9 c9bf 0000 0000
00000010: 0000 0000
0.017582027 0.019262712 -1.5779369 0.0 0.0
