Assets/Run - Copy.onnx (onnx, 342072 bytes, 11 tensors)

60 f4 [65]
0.14019227 0.4703013 0.1445044 0.48684648 0.2902523 0.13920043 0.46771768 0.14475273
0.48511055 0.28887424 0.13939144 0.47716781 0.14523913 0.49126625 0.2985529 0.13930407
0.46977004 0.14673719 0.48669744 0.2934445 0.1372561 0.48105422 0.14755005 0.49362347
0.30609795 0.14048763 0.47205874 0.14840212 0.488397 0.2982838 0.1352626 0.483377
0.14958736 0.49494058 0.3107337 0.13969724 0.4748009 0.14942403 0.49013674 0.3024272
0.13411556 0.48478958 0.15152039 0.4957442 0.31348842 0.1380214 0.47770473 0.1491259
0.49182755 0.30623162 0.13328862 0.48459303 0.15228577 0.49567026 0.31462273 0.13643181
0.4796103 0.14835311 0.49288532 0.3087037 0.13251024 0.484127 0.1508779 0.49533984
0.31402054
00000000: 908e 0f3e 55cb f03e f6f8 133e f143 f93e
00000010: f39b 943e 8f8a 0e3e b178 ef3e 0f3a 143e
00000020: 6960 f83e 53e7 933e a1bc 0e3e 574f f43e
00000030: 91b9 143e 4087 fb3e eddb 983e baa5 0e3e
00000040: b385 f03e 4642 163e 6830 f93e 5c3e 963e
00000050: dd8c 0c3e bd4c f63e 5c17 173e 37bc fc3e
00000060: dfb8 9c3e fddb 0f3e afb1 f13e baf6 173e
00000070: 2c0f fa3e a7b8 983e 4782 0a3e 317d f73e
00000080: 6e2d 193e da68 fd3e 7d18 9f3e cb0c 0f3e
00000090: 1b19 f33e 9d02 193e 34f3 fa3e bdd7 9a3e
000000a0: 9755 093e 5736 f83e 2928 1b3e 2fd2 fd3e
000000b0: 8e81 a03e 7b55 0d3e b795 f43e 76b4 183e
000000c0: d2d0 fb3e 64ca 9c3e d07c 083e 941c f83e
000000d0: cdf0 1b3e 7ec8 fd3e 3b16 a13e c8b4 0b3e
000000e0: 7b8f f53e e1e9 173e 775b fc3e 690e 9e3e
000000f0: c4b0 073e 7fdf f73e bc7f 1a3e 2f9d fd3e
00000100: 4dc7 a03e

63 f4 [5]
3.1084201 3.0105584 45.065838 0.00047077035 0.00047077035
00000000: 5bf0 4640 fdac 4040 6b43 3442 bad1 f639
00000010: bad1 f639

action_model._continuous_distribution.log_sigma f4 [1, 3]
-0.9940627 -0.20817864 -0.111813
00000000: e57a 7ebf c82c 55be 37fe e4bd

action_model._continuous_distribution.mu.bias f4 [3]
0.007230689 0.041589472 -0.018244695
00000000: 6aef ec3b b959 2a3d e675 95bc

action_model._continuous_distribution.mu.weight f4 [3, 256]
-0.0039510936 0.016309405 -0.021632545 0.03423664 -0.013269557 0.002912107 -0.011112907 0.014094826
-0.00164182 -0.012828833 0.0465941 0.031356506 0.03533547 0.02406216 0.0343439 -0.007425655
-0.009901764 0.024149517 -0.0053508305 0.0063125393 -0.013667805 0.014963806 0.008594439 -0.020243969
0.0038009617 -0.008866778 0.01974298 0.0029641306 -0.037459686 -0.019736364 -0.024020787 0.011150266
-0.01598111 0.018423058 0.04852832 -0.008671846 0.0007682219 -0.018190973 0.016477846 0.008498329
0.03618346 0.011916778 -0.0049504424 0.011805142 0.0069417506 -0.010891119 0.0056333942 -0.0071680527
0.023564748 -0.002819535 0.0036824746 0.0388816 -0.023189053 0.00851251 -0.026620783 -0.005785649
0.012011318 -0.003602421 -0.01950632 0.017665805 0.006054732 0.017175756 0.011973983 0.01703742
0.016494203 -0.01754207 -0.012269551 -0.015507422 0.011448624 0.0017317786 -0.026350519 -0.037704304
0.0115709575 0.030506551 0.022129772 -0.017030297 0.008295822 0.022849882 -0.00819055 -0.020391082
0.02592606 0.07507387 0.009820147 -0.021897443 -0.021333741 -0.026575707 -0.013646569 0.011992368
0.008954491 -0.009438058 -0.012980306 0.0033577404 0.018503144 0.0047607766 -0.005113472 0.0090510165
-0.005878837 0.0001867952 -0.0030562037 0.037266396 0.013035644 -0.017526684 -0.015517224 0.07788088
-0.03487737 -0.012678387 -0.04301584 0.0009688286 0.032219484 -0.0055380636 -0.01915301 0.0042936117
-0.007944696 0.05125556 -0.0010418055 0.008318368 -0.014943365 0.000999355 -0.008380612 -0.029219018
-0.014070611 0.010857665 -0.009054608 0.0007948242 0.07602035 0.04532558 0.003872929 0.0091877915
0.06683734 -0.0024242993 0.00071759906 -0.026241602 0.019394528 0.014688757 0.032287005 -0.0068021133
-0.0034961305 -0.008174094 -0.00026097137 0.008368144 -0.009073013 0.0032262376 -0.030232262 -0.02610417
0.015832428 -0.00260667 -0.009852554 0.0064684893 0.01284646 0.0014720985 -0.009599207 -0.031018583
0.00016996081 0.012297544 0.0027524116 -0.027083673 0.008962109 0.022908416 -0.0115045 0.010930851
0.02440271 0.017259642 -0.0108318515 0.014064241 0.009841061 0.017251918 -0.006184688 0.014835759
0.003103327 0.03212223 0.00032293436 0.027322933 0.016320018 -0.024719931 -0.013341115 0.043926813
0.010938363 0.022298058 0.09527615 0.031356078 0.02833037 0.0041211634 0.025034064 0.0057721767
-0.03578193 0.010325891 0.021284154 0.02766695 -0.0067803995 0.008003313 -0.00436001 0.012726051
0.0043940195 0.012655059 -0.00048416873 0.031474683 0.005331918 -0.010370823 0.006331346 -0.006889623
-0.026216608 0.015770378 0.043665037 0.0077794967 0.016761502 -0.0079393275 -0.031153928 -0.00513291
0.0024431064 0.013884924 0.0012769474 -0.0003422226 4.7632308e-05 0.003215909 0.038582236 -0.010065496
0.0016513265 0.02906922 -0.0019275119 0.021429392 0.017345062 -0.0058521866 0.0013133419 0.0068208803
-0.012450973 0.016202236 0.015462646 0.006587234 0.02088848 0.014605471 -0.015433168 -0.025668418
-0.0020260308 -0.009328614 0.009205331 0.0004463815 0.014479405 0.03466478 -0.019211855 0.0075163194
0.0031228373 -0.018893639 -0.0532785 0.0039146696 -0.021207197 0.0119297495 -0.017387066 0.024895962
-0.0039453306 -0.03435832 -0.018565537 0.008741706 0.0045071486 -0.04439945 -0.009583161 0.007733372
00000000: 2d78 81bb 4d9b 853c bc36 b1bc b83b 0c3d
00000010: 8e68 59bc 0cd9 3e3b e912 36bc fced 663c
00000020: 5632 d7ba 0730 52bc 74d9 3e3d ae6f 003d
00000030: edbb 103d 021e c53c 30ac 0c3d e952 f3bb
00000040: 023b 22bc 35d5 c53c 0556 afbb 6bd9 ce3b
00000050: eeee 5fbc c02a 753c b1cf 0c3c aed6 a5bc
00000060: 8e19 793b f645 11bc 08bc a13c dc41 423b
00000070: 546f 19bd 28ae a1bc 3ec7 c4bc 9baf 363c
00000080: d1ea 82bc f4eb 963c a2c5 463d 5c14 0ebc
00000090: 8062 493a 3c05 95bc 8cfc 863c 933c 0b3c
000000a0: 1c35 143d 973e 433c 5237 a2bb 5b6a 413c
000000b0: a077 e33b aa70 32bc 5698 b83b fce1 eabb
000000c0: dc0a c13c f3c7 38bb ac55 713b 5042 1f3d
000000d0: f8f6 bdbc 0e78 0b3c d413 dabc 8b95 bdbb
000000e0: 1ecb 443c 9816 6cbb b8cb 9fbc e1b7 903c
000000f0: c666 c63b 2cb4 8c3c 862e 443c 0f92 8b3c
00000100: da1e 873c 63b4 8fbc 3a06 49bc d812 7ebc
00000110: 0293 3b3c d9fc e23a 0bdd d7bc d46f 1abd
00000120: 1d94 3d3c e0e8 f93c 7f49 b53c 1f83 8bbc
00000130: 33eb 073c ad2f bb3c a831 06bc 330b a7bc
00000140: e362 d43c 54c0 993d afe4 203c 4462 b3bc
00000150: 19c4 aebc 4cb5 d9bc dc95 5fbc a37b 443c
00000160: dbb5 123c 16a2 1abc 59ab 54bc 890d 5c3b
00000170: e893 973c 4a00 9c3b ea8e a7bb b74a 143c
00000180: 42a3 c0bb 74de 4339 974a 48bb a6a4 183d
00000190: 7493 553c 1f94 8fbc f43b 7ebc 0380 9f3d
000001a0: 93db 0ebd 02b9 4fbc 6131 30bd fdf8 7d3a
000001b0: 94f8 033d a578 b5bb c6e6 9cbc 6db1 8c3b
000001c0: 782a 02bc 5af1 513d 318d 88ba c449 083c
000001d0: 04d5 74bc cafc 823a d64e 09bc b95c efbc
000001e0: 6c88 66bc 59e4 313c c759 14bc c05b 503a
000001f0: 8fb0 9b3d 51a7 393d f7d0 7d3b 6488 163c
00000200: 04e2 883d fee0 1ebb 421d 3c3a a1f8 d6bc
00000210: 46e1 9e3c 1da9 703c 613f 043d 43e4 debb
00000220: 561f 65bb a3ec 05bc fcd2 88b9 8a1a 093c
00000230: faa6 14bc 496f 533b a6a9 f7bc 6ad8 d5bc
00000240: 02b3 813c aad4 2abb 9b6c 21bc 9ff5 d33b
00000250: f579 523c 6ef3 c03a fe45 1dbc af1a febc
00000260: 8237 3239 a37b 493c ce61 343b 94de ddbc
00000270: cfd5 123c 6eaa bb3c 5f7d 3cbc 5017 333c
00000280: 31e8 c73c 1864 8d3c 1478 31bc b46d 663c
00000290: 673c 213c e553 8d3c eca8 cabb af11 733c
000002a0: 3061 4b3b 9992 033d 844f a939 58d4 df3c
000002b0: 8fb1 853c 7481 cabc b194 5abc 9aec 333d
000002c0: d236 333c 6baa b63c 2420 c33d 3b6f 003d
000002d0: 1815 e83c d30a 873b 3d14 cd3c 8724 bd3b
000002e0: 1390 12bd ed2d 293c 1b5c ae3c cda5 e23c
000002f0: 1d2e debb 5420 033c 6ade 8ebb ed80 503c
00000300: b5fb 8f3b 2a57 4f3c 07d8 fdb9 99eb 003d
00000310: 5fb7 ae3b 62ea 29bc 2e77 cf3b 59c2 e1bb
00000320: 36c4 d6bc e130 813c 1cda 323d 26eb fe3b
00000330: 6b4f 893c f413 02bc 8636 ffbc f831 a8bb
00000340: 861c 203b 987d 633c 3f5f a73a 576c b3b9
00000350: cdc8 4738 00c2 523b 6808 1e3d c0e9 24bc
00000360: 5371 d83a 9322 ee3c 91a4 fcba b18c af3c
00000370: 3b17 8e3c b3c3 bfbb 7124 ac3a b181 df3b
00000380: 2aff 4bbc 8dba 843c 0a57 7d3c b9d9 d73b
00000390: 511e ab3c c94b 6f3c 66db 7cbc 9346 d2bc
000003a0: 28c7 04bb 0bd7 18bc f5d1 163c 5008 ea39
000003b0: 073b 6d3c a8fc 0d3d 2e62 9dbc 754b f63b
000003c0: 84a8 4c3b d5c6 9abc 8e3a 5abd a146 803b
000003d0: b7ba adbc ff74 433c 526f 8ebc 9ef2 cb3c
000003e0: d547 81bb 4fbb 0cbd c116 98bc 5f39 0f3c
000003f0: b4b0 933b 33dc 35bd b102 1dbc 3a68 fd3b

network_body._body_endoder.seq_layers.0.bias f4 [256]
0.036424648 0.0078040073 0.028173657 0.017057091 0.01814829 -0.008438224 -0.04904626 0.016587816
0.016349591 0.054375645 0.012780225 0.022171296 0.024870291 -0.030618992 -0.022480743 -0.00022728025
0.04856898 0.070773 0.04677581 0.006662389 -0.04825102 0.0298851 0.015596884 0.037659608
0.047497053 -0.022503642 -0.024860503 0.04882507 0.013537099 0.011715675 0.0044480497 0.029959539
-0.012366889 0.002715519 -0.0114014335 -0.0034571937 0.010137867 0.065581836 -0.02399873 0.00035781215
0.00472737 0.038135383 0.013031606 0.042810213 0.027961621 -0.024978403 0.051555514 0.012228173
-0.03366967 -0.010395495 0.018089436 0.0014289836 0.021131802 -0.02018474 -0.04482335 -0.0050470564
0.04962339 0.0020696896 -0.00063535915 -0.0071234354 0.055730853 0.033446394 0.034495458 -0.022157192
0.0019489517 -0.0010518404 0.043653596 0.030957252 -0.01047378 -0.0052915486 -0.021890892 0.022827612
0.020666506 0.031406693 0.02595187 -0.040211666 -0.0077222306 0.028175188 -0.032573305 0.023655543
-0.01809236 0.02026652 -0.042162538 -0.0019366831 -0.014578922 0.030869631 0.038282447 0.017271647
0.004513432 -0.031308662 -0.0053846 0.01693022 -0.010345541 0.016136922 -0.009574223 0.0050475374
-0.04700654 0.030201323 0.024170985 0.049740266 0.043078393 -0.0019738413 0.05324333 0.026660377
0.02722777 0.04191471 0.010379722 -0.019866982 0.035094224 0.02160506 -0.009576913 0.031339306
0.03234469 -0.0028723741 0.037514824 -0.042486124 0.040641893 -0.04133943 0.057930756 0.009003235
-0.04076099 0.013781364 0.069300935 0.04413799 0.040904135 0.009181413 0.037908923 -0.023184992
0.0041669873 -0.01752514 0.017124394 -0.0064870925 -0.026782537 0.044783287 -0.023492085 0.03296135
0.011061619 -0.039201766 -0.0078770565 -0.022916328 -0.020966422 0.0017670215 0.009181521 0.026668144
-0.004655068 0.04321567 0.035021402 -0.022821153 -0.04798893 0.017822953 0.055095594 0.034933962
0.046010073 0.056787953 0.036363978 0.017172378 -0.021474237 -0.033284705 0.05378431 0.02205312
0.033691008 -0.011728044 -0.007965145 -0.0346067 -0.017310832 0.0154837 0.06409607 -0.007612619
-0.028731948 -0.011606243 0.024530968 -0.0024297072 -0.008990462 0.012102117 0.05156434 0.036808044
0.046034306 0.024370752 0.0023258019 0.010829673 -0.019003145 -0.036560647 0.02583017 0.049137723
0.014745647 0.022361396 0.021296678 0.039683808 -0.013624045 -0.03089454 -0.0059172516 0.061561637
0.040962446 0.05480605 0.023819303 0.028232725 0.027920334 -0.04741821 -0.001921238 0.07085698
-0.034882117 -0.017253272 0.021994716 0.018925987 0.0018626932 0.008772249 0.02622621 -0.0038495888
0.02140471 -0.011395775 -0.015300117 0.028454991 -0.033807907 0.00407846 0.02336605 0.04691621
-0.01311228 -0.034068514 -0.001197288 -0.03620297 -0.0010596787 0.0017249178 0.009238555 0.003547993
0.018314004 -0.025216967 0.03511321 -0.0061822706 0.011574784 -0.070083834 -0.0072770566 0.061452493
0.09533755 0.0029059676 -0.015640108 0.017151369 0.033458464 -0.026301147 -0.0044707307 0.03091337
-0.009243957 -0.03592957 0.023983227 0.051290084 0.014979607 0.048949298 -0.0843528 0.024343034
0.05007646 0.047718193 0.039906636 0.036196217 -0.033012826 0.013067781 0.019288162 -0.0022373646
00000000: 0332 153d c2b8 ff3b 71cc e63c 50bb 8b3c
00000010: b9ab 943c 7a40 0abc bbe4 48bd 2ce3 873c
00000020: 94ef 853c ffb8 5e3d 2664 513c 94a0 b53c
00000030: c8bc cb3c aed4 fabc 8929 b8bc 1452 6eb9
00000040: 44f0 463d 6ff1 903d fe97 3f3d 2b50 da3b
00000050: dda2 45bd 99d1 f43c 138a 7f3c f640 1a3d
00000060: 458c 423d 8f59 b8bc 41a8 cbbc ccfc 473d
00000070: b5ca 5d3c 1af3 3f3c f2c0 913b b56d f53c
00000080: 7e9e 4abc d9f6 313b 14cd 3abc 1692 62bb
00000090: 4c19 263c c54f 863d fc98 c4bc bc98 bb39
000000a0: 0ee8 9a3b d933 1c3d 8482 553c c359 2f3d
000000b0: c50f e53c 829f ccbc e02b 533d ad58 483c
000000c0: 35e9 09bd de51 2abc 4c30 943c bc4c bb3a
000000d0: 9a1c ad3c 785a a5bc b098 37bd c761 a5bb
000000e0: e541 4b3d a1a3 073b 3b8e 26ba b56b e9bb
000000f0: 0946 643d 16ff 083d 1c4b 0d3d 0083 b5bc
00000100: f873 ff3a e8dd 89ba 1dce 323d 109a fd3c
00000110: 389a 2bbc ba64 adbb 8754 b3bc f900 bb3c
00000120: ce4c a93c 4ea4 003d 0499 d43c fdb4 24bd
00000130: c40a fdbb a7cf e63c 966b 05bd 45c9 c13c
00000140: 6e36 94bc f905 a63c a0b2 2cbd 4dd8 fdba
00000150: 6edc 6ebc 4fe2 fc3c 0ece 1c3d 457d 8d3c
00000160: 69e5 933b 833d 00bd 4c71 b0bb 3fb1 8a3c
00000170: 5880 29bc 9431 843c 34dd 1cbc d065 a53b
00000180: ee89 40bd c468 f73c 3b02 c63c 73bc 4b3d
00000190: f872 303d 905b 01bb ae15 5a3d dd66 da3c
000001a0: c60c df3c c2ae 2b3d b60f 2a3c 15c0 a2bc
000001b0: f6be 0f3d 18fd b03c 7ce8 1cbc a55d 003d
000001c0: de7b 043d 713e 3cbb 25a9 193d ee05 2ebd
000001d0: 1d78 263d 8953 29bd cd48 6d3d 4e82 133c
000001e0: fff4 26bd 3bcb 613c a6ed 8d3d 09ca 343d
000001f0: 188b 273d a36d 163c 6346 1b3d 74ee bdbc
00000200: 398b 883b e290 8fbc 7548 8c3c ad91 d4bb
00000210: 0d67 dbbc ae6e 373d 7972 c0bc 7b02 073d
00000220: cb3b 353c 0892 20bd c50e 01bc 06bb bbbc
00000230: c6c1 abbc 679b e73a 176e 163c 2777 da3c
00000240: 8a89 98bb ea02 313d 9a72 0f3d 6df3 babc
00000250: 0a90 44bd 7101 923c ebab 613d ea16 0f3d
00000260: 0f75 3c3d 7c9a 683d 65f2 143d 16ad 8c3c
00000270: bdea afbc 8b55 08bd f04c 5c3d bfa8 b43c
00000280: 95ff 093d fb26 40bc 3d80 02bc c1bf 0dbd
00000290: 72cf 8dbc 58af 7d3c cd44 833d 4773 f9bb
000002a0: 435f ebbc 1d28 3ebc 2bf5 c83c b93b 1fbb
000002b0: bb4c 13bc f547 463c 2135 533d 08c4 163d
000002c0: 788e 3c3d 2ca5 c73c 7b6c 183b f16e 313c
000002d0: 7cac 9bbc 9ec0 15bd cb99 d33c a344 493d
000002e0: ba97 713c 3f2f b73c 5f76 ae3c 7d8b 223d
000002f0: 6337 5fbc 8c16 fdbc 81e5 c1bb 0e28 7c3d
00000300: 3dc8 273d 4f7c 603d b320 c33c 5148 e73c
00000310: 2fb9 e43c 9939 42bd 0dd2 fbba 771d 913d
00000320: 8de0 0ebd bc56 8dbc 432e b43c ac0a 9b3c
00000330: 9d25 f43a 7bb9 0f3c 59d8 d63c 6249 7cbb
00000340: ee58 af3c 58b5 3abc 58ad 7abc 711a e93c
00000350: 297a 0abd 9aa4 853b 296a bf3c 362b 403d
00000360: e3d4 56bc 6d8b 0bbd 52ee 9cba 9149 14bd
00000370: ebe4 8aba a316 e23a 4f5d 173c 7285 683b
00000380: 4007 963c d093 cebc dfd2 0f3d a594 cabb
00000390: 2aa4 3d3c 1d88 8fbd 6074 eebb 9cb5 7b3d
000003a0: 5540 c33d 0c72 3e3b af1f 80bc 0781 8c3c
000003b0: be0b 093d 8175 d7bc 357f 92bb 093e fd3c
000003c0: f773 17bc e32a 13bd 7978 c43c 8d15 523d
000003d0: 076d 753c 0f7f 483d 29c1 acbd 0b6b c73c
000003e0: f91c 4d3d 2774 433d 2475 233d 7c42 143d
000003f0: 7538 07bd 3f1a 563c 3502 9e3c c0a0 12bb

network_body._body_endoder.seq_layers.0.weight f4 [256, 70]
0.0041748416 0.10300261 0.027694896 0.07292815 -0.1254545 0.07959049 0.16513246 -0.079027
0.05289477 -0.10944056 -0.13364469 -0.19850527 -0.048763387 0.018641517 0.28831276 -0.16158842
-0.28525698 0.030732298 0.19765875 0.02578919 -0.04321643 0.046835877 -0.20763889 0.009564411
-0.19041136 -0.06446152 -0.22691521 -0.14895347 -0.0011834623 0.21105853 -0.054815996 -0.13638149
-0.101557836 -0.054166537 -0.28200594 -0.026989045 -0.13903746 0.0012716497 -0.13780138 -0.20665589
0.027800027 -0.07904363 0.01824115 0.014571521 0.2610693 0.14739332 -0.021758793 -0.16775134
-0.019938312 0.06356326 0.06406801 0.16292498 0.0819054 -0.12999144 0.012404513 0.17675154
-0.30972663 0.060022186 0.13233049 -0.1901867 0.029776461 0.028306171 0.177372 -0.09350045
0.08896369 -0.16162282 -0.1140518 -0.0532721 -0.09985475 0.08816093 0.15816252 -0.055390842
-0.14307538 0.24621956 0.012470395 -0.05378151 -0.039446045 -0.14406185 -0.11147851 -0.1550702
0.0027011114 0.027961714 0.06725267 -0.19229522 0.10828585 0.043431 0.107718304 0.04821686
-0.13554958 0.17001162 -0.01698815 0.22236292 -0.034726765 -0.012127949 -0.23653944 0.0147577515
0.15736774 -0.042878546 -0.33346793 0.043032456 0.15274142 -0.23524907 0.040979013 0.17603226
0.19920905 0.086434856 -0.047102112 0.014141815 -0.052063167 -0.052959245 -0.060566694 0.052142505
0.09961193 0.09604556 0.017271746 -0.07047218 -0.037812028 0.03340005 0.15634969 0.014434403
-0.22142665 0.18132487 -0.033259507 -0.19647439 0.12683101 0.12241101 0.052828684 0.10179767
0.04396373 -0.06753584 -0.029030938 0.024546925 -0.30105165 -0.056496553 -0.08903578 -0.051996455
-0.078516185 -0.011107674 0.12420531 0.025960749 -0.17036244 0.14596887 0.11421315 0.15743534
-0.016319683 -0.087262936 -0.034349393 -0.07955995 0.09821018 0.14625192 -0.0048063993 0.08602527
0.021322202 -0.2912823 0.14301036 -0.29502705 0.027494485 -0.14499086 -0.12661715 -0.14627296
0.1349983 0.0045026327 -0.21253504 0.030274507 0.12619627 -0.23924598 -0.009250004 -0.12967415
0.25631383 0.049257837 0.1443314 0.0034530726 0.06338276 -0.20977534 0.030120071 0.094615504
-0.2941291 -0.09098295 -0.049949497 -0.18116772 -0.116782576 -0.05003891 0.12317076 0.20981847
-0.06929945 -0.055822644 -0.12653069 -0.036880605 0.075884886 0.06426712 0.23348615 0.043603748
0.15007192 0.008712722 0.058977336 0.0077171815 0.13675153 0.06513776 0.16111551 -0.16835506
-0.15961465 -0.24447289 0.10465379 0.0310347 0.29531 0.048254326 0.1078243 0.08758144
-0.044418454 0.061726604 -0.1804946 0.26431125 0.104709595 -0.05455118 0.1336781 -0.05657971
0.11764719 -0.09492845 0.056872193 0.16535884 -0.00077362184 -0.073745355 0.044047415 -0.044329822
-0.12925605 -0.01540429 -0.2590298 0.085237436 0.051052794 -0.115055524 -0.25285298 0.05358083
0.038071886 -0.18154322 -0.042401053 0.083447404 0.015352684 0.1158237 -0.05579123 0.13424334
-0.25999683 0.13975638 0.24386746 -0.1283531 0.012113247 0.15283735 0.29416683 0.043263182
0.00399123 0.2030314 0.1695202 0.109441236 -0.037565242 -0.06712664 -0.13395089 0.31020635
00000000: 1ccd 883b 08f3 d23d 68e0 e23c 5b5b 953d
00000010: 2577 00be 5700 a33d 7c18 293e e8d8 a1bd
00000020: 30a8 583d 5f22 e0bd 27da 08be f744 4bbe
00000030: 1ebc 47bd 18b6 983c bb9d 933e 6f77 25be
00000040: 340d 92be 4dc2 fb3c 0e67 4a3e da43 d33c
00000050: b603 31bd fad6 3f3d 4a9f 54be 0cb4 1c3c
00000060: 32fb 42be 6704 84bd 765c 68be 4287 18be
00000070: 681e 9bba ba1f 583e bd86 60bd 97a7 0bbe
00000080: 8efd cfbd bbdd 5dbd 1563 90be 2118 ddbc
00000090: d65f 0ebe 7cad a63a ce1b 0dbe 9a9d 53be
000000a0: e2bc e33c a0e1 a1bd 776e 953c 64bd 6e3c
000000b0: e0aa 853e 46ee 163e 7f3f b2bc 02c7 2bbe
000000c0: ac55 a3bc 742d 823d 1736 833d ced5 263e
000000d0: 05be a73d 7a1c 05be 4c3c 4b3c 5bfe 343e
000000e0: 7d94 9ebe d3d9 753d a581 073e 4dc0 42be
000000f0: c4ed f33c 58e2 e73c 01a1 353e 2a7d bfbd
00000100: 9832 b63d 7480 25be fd93 e9bd d833 5abd
00000110: a680 ccbd b88d b43d 5bf5 213e 82e1 62bd
00000120: 5a82 12be fb20 7c3e a150 4c3c 004a 5cbd
00000130: 2d92 21bd f384 13be d84e e4bd b9ca 1ebe
00000140: 2105 313b f70f e53c c5bb 893d 0ae9 44be
00000150: f9c4 dd3d b4e4 313d 6a9b dc3d 0b7f 453d
00000160: 82cd 0abe 8717 2e3e bc2a 8bbc 1bb3 633e
00000170: a73d 0ebd 4eb4 46bc 6537 72be 7fca 713c
00000180: 0225 213e 6aa1 2fbd 4fbc aabe cd42 303d
00000190: 3f68 1c3e 22e5 70be 9cd9 273d cd41 343e
000001a0: 75fd 4b3e c204 b13d 25ee 40bd 12b3 673c
000001b0: 3040 55bd cbeb 58bd c814 78bd 6193 553d
000001c0: 5701 cc3d 89b3 c43d 7a7d 8d3c b853 90bd
000001d0: c9e0 1abd 7ece 083d 221a 203e 467e 6c3c
000001e0: abbd 62be 3aad 393e 1f3b 08bd 9530 49be
000001f0: fddf 013e a0b2 fa3d e462 583d 4c7b d03d
00000200: 5013 343d 3b50 8abd 4ad2 edbc a216 c93c
00000210: 7123 9abe ee68 67bd 6458 b6bd 3cfa 54bd
00000220: 18cd a0bd f6fc 35bc 5b5f fe3d a3ab d43c
00000230: 7e73 2ebe dd78 153e 96e8 e93d bb36 213e
00000240: dbb0 85bc e9b6 b2bd f3b1 0cbd 54f0 a2bd
00000250: 6b22 c93d 10c3 153e 007f 9dbb 042e b03d
00000260: e6ab ae3c f422 95be 4f71 123e c90d 97be
00000270: 1d3c e13c 7c78 14be eda7 01be 94c8 15be
00000280: ff3c 0a3e d28a 933b c9a2 59be 3e02 f83c
00000290: 9839 013e e6fc 74be 548d 17bc 4dc9 04be
000002a0: 913b 833e 96c2 493d 9ccb 133e f24c 623b
000002b0: d2ce 813d 59cf 56be 5ebe f63c c6c5 c13d
000002c0: 1798 96be 4555 babd d897 4cbd 0884 39be
000002d0: b42b efbd 9af5 4cbd f440 fc3d a7da 563e
000002e0: dfec 8dbd 49a6 64bd 4391 01be 1e10 17bd
000002f0: 8969 9b3d 7b9e 833d fe16 6f3e d899 323d
00000300: 74ac 193e cebf 0e3c 3892 713d 69e0 fc3b
00000310: 9808 0c3e f266 853d 77fb 243e 4565 2cbe
00000320: 0672 23be 1a57 7abe ba54 d63d 7c3c fe3c
00000330: df32 973e 54a6 453d fdd2 dc3d e65d b33d
00000340: 20f0 35bd 09d5 7c3d 94d3 38be ce53 873e
00000350: fc71 d63d 0f71 5fbd e9e2 083e 20c0 67bd
00000360: 03f1 f03d d969 c2bd d1f2 683d d453 293e
00000370: e2cc 4aba ce07 97bd 106b 343d 3093 35bd
00000380: b35b 04be 4662 7cbc 8e9f 84be f790 ae3d
00000390: bc1c 513d 3ba2 ebbd f275 81be 9377 5b3d
000003a0: 44f1 1b3d 77e6 39be baac 2dbd 79e6 aa3d
000003b0: d389 7b3c fa34 ed3d 5885 64bd 1677 093e
000003c0: 4e1e 85be 4c1c 0f3e 64b8 793e ff6e 03be
000003d0: a476 463c 6581 1c3e 099d 963e bc34 313d
000003e0: ddc8 823b 77e7 4f3e b496 2d3e ba22 e03d
000003f0: 03de 19bd b179 89bd 6c2a 09be 5ed3 9e3e

network_body._body_endoder.seq_layers.2.bias f4 [256]
0.053349443 0.014920877 -0.035793547 -0.0150401555 0.008179635 0.0047338605 0.008443845 0.020583663
0.023868617 0.026600521 -0.020103645 0.016717939 -0.032117773 -0.034229968 -0.01056769 0.045415174
0.03843115 -0.042087518 -0.04083387 -0.01092709 0.008783266 0.030780584 0.070036724 -0.01683356
0.03606427 0.024271194 0.018574389 -0.0017549603 0.017501317 0.03295323 0.05880246 0.03294103
-0.013720843 0.03961229 -0.011719548 -0.034006838 0.04856976 0.0026426825 0.031384982 0.037203673
-0.011288754 -0.032460492 -0.023677321 0.04120425 0.008723149 -0.015456071 0.044774488 -0.026394079
-0.028578926 -0.031314824 0.030567756 0.0015507181 -0.004192785 -0.030939328 -0.0140945 -0.04069338
0.014793822 -0.022099668 -0.008642523 0.04427112 0.0066823307 0.03135481 0.04668142 -0.031900585
0.047629792 -0.03767714 -0.038895696 -0.045335114 -0.01913752 0.012149832 0.027365671 -0.016650861
0.006891593 0.009033777 0.03959179 -0.014722022 0.03635512 -0.055471383 -0.018883226 -0.006251253
-0.009338465 -0.028443629 0.032373738 -0.036463175 -0.026110038 -0.003359347 -0.03231255 0.069931746
0.018673271 0.014784869 0.019466802 0.06623345 -0.0074886736 -0.004239393 -0.02055968 -0.013511275
0.034129195 0.05303327 -0.024352998 0.007137568 0.011766422 0.019611858 0.024847928 -0.0112611735
0.020848665 0.0051129265 -0.025912067 0.023686567 -0.017437806 -0.020702934 -0.028438536 -0.03878877
-0.027872272 -0.029919581 -0.0105554685 0.010682617 0.010284192 0.02332189 0.054854352 -0.0059627416
-0.018658455 0.022114467 0.029629454 -0.04790596 -0.011852523 -0.0015636828 -0.004025979 0.026012788
-0.018712698 0.028240737 0.05637032 -0.021200994 0.034539796 0.0523466 -0.024374845 -0.00055156526
-0.02504878 -0.022976698 0.003549841 0.03754851 -0.022605415 -0.058436874 -0.028488927 0.023128007
0.033576686 0.0143391015 0.012388928 -0.035489142 0.037404485 0.0420924 0.048721284 -0.034736432
-0.014766713 -0.014825417 -0.0076614507 -0.001335199 0.008543853 -0.0031774319 0.048839755 0.021788381
0.027760796 0.012386524 0.047368906 0.0019982557 0.031820897 0.012031807 0.009230998 -0.019983325
0.027083434 -0.008766232 0.03379343 -0.048910495 0.032280546 0.028651671 0.018612165 -0.024499994
-0.020843541 -0.016144944 -0.017777184 -0.01279684 -0.018776836 0.0059016664 -0.019472545 -0.020464841
-0.014385529 -0.011620214 0.0031899896 0.012353648 -0.04849811 -0.022541359 0.043154106 0.033158306
-0.014903617 0.034201264 0.032909513 -0.01496417 -0.04229543 0.0481311 0.009680465 0.021676598
-0.050750855 0.026464526 -0.009541894 -0.025208974 -0.020142047 0.0059034303 -0.022281995 0.028015345
0.039081246 0.025339903 -0.0069713937 -0.01837335 -0.04000994 -0.009689068 -0.027705703 0.011256737
0.04898538 -0.0100140525 0.044403285 0.039161414 0.017088769 0.042783484 0.008298116 -0.025681611
-0.0117238425 0.035142075 0.043014873 -0.036819186 0.020259343 -0.05808672 0.0024270134 0.017887859
0.03653419 -0.051136047 0.07085891 -0.018961538 0.02997074 -0.016661346 0.0086362995 0.032206655
-0.025696073 -0.00051744864 0.020831129 0.049758095 -0.024000732 0.062116843 -0.0029218064 -0.013344332
-0.010816323 -0.004132001 -0.027923455 0.04137934 0.032128725 0.012053531 0.022486227 0.009034856
00000000: f284 5a3d b276 743c 419c 12bd fc6a 76bc
00000010: e003 063c 801e 9b3b 0e58 0a3c 129f a83c
00000020: 1e88 c33c 56e9 d93c 66b0 a4bc 0ff4 883c
00000030: ed8d 03bd b934 0cbd 1b24 2dbc 4305 3a3d
00000040: fb69 1d3d f663 2cbd 6b41 27bd 8a07 33bc
00000050: b0e7 0f3c 9027 fc3c 6a6f 8f3d 89e6 89bc
00000060: 21b8 133d 62d4 c63c 5129 983c b206 e6ba
00000070: ec5e 8f3c f7f9 063d d9da 703d 2ced 063d
00000080: 63cd 60bc 7f40 223d 5903 40bc c14a 0bbd
00000090: 16f1 463d db30 2d3b 8a8d 003d e162 183d
000000a0: 77f4 38bc 4bf5 04bd f1f6 c1bc cac5 283d
000000b0: 8aeb 0e3c 763b 7dbc 7465 373d 6538 d8bc
000000c0: 5a1e eabc f943 00bd 3b69 fa3c 7741 cb3a
000000d0: a163 89bb 7974 fdbc 9eec 66bc 1aae 26bd
000000e0: c961 723c 5d0a b5bc 5e99 0dbc a255 353d
000000f0: 74f7 da3b e76d 003d 0435 3f3d 30aa 02bd
00000100: 7517 433d 5853 1abd 1851 1fbd 50b1 39bd
00000110: 4ac6 9cbc 1710 473c f92d e03c 6367 88bc
00000120: dfd2 e13b 6802 143c 002b 223d a334 71bc
00000130: 1be9 143d f635 63bd ffb0 9abc 50d7 ccbb
00000140: 5c00 19bc 9d02 e9bc 539a 043d 695a 15bd
00000150: b8e4 d5bc 7e28 5cbb 2a5a 04bd 6038 8f3d
00000160: b0f8 983c 3c3c 723c d878 9f3c 67a5 873d
00000170: 8c63 f5bb 9bea 8abb c66c a8bc 655e 5dbc
00000180: 0ecb 0b3d 6a39 593d f07f c7bc 43e2 e93b
00000190: f3c7 403c 0ca9 a03c e28d cb3c c980 38bc
000001a0: d2ca aa3c 568a a73b 8b45 d4bc 550a c23c
000001b0: bbd9 8ebc 3399 a9bc eff7 e8bc f9e0 1ebd
000001c0: 6454 e4bc e919 f5bc d8f0 2cbc 2506 2f3c
000001d0: 077f 283c 8c0d bf3c f5ae 603d 1a63 c3bb
000001e0: 9ed9 98bc 6629 b53c 78b9 f23c 0a39 44bd
000001f0: 1631 42bc 7df4 ccba 5cec 83bb c518 d53c
00000200: 5f4b 99bc 1e59 e73c 91e4 663d b5ad adbc
00000210: 9a79 0d3d 6369 563d c1ad c7bc eb96 10ba
00000220: 1933 cdbc a139 bcbc 73a4 683b 77cc 193d
00000230: fe2e b9bc 815b 6fbd 9c61 e9bc f276 bd3c
00000240: b587 093d 8dee 6a3c eefa 4a3c 105d 11bd
00000250: 7235 193d 1569 2c3d f88f 473d ca47 0ebd
00000260: 15f0 71bc 4ee6 72bc e80c fbbb d801 afba
00000270: 84fb 0b3c 763c 50bb 320c 483d 8c7d b23c
00000280: 9c6a e33c d9f0 4a3c e605 423d 2bf5 023b
00000290: a156 023d 0e21 453c 9d3d 173c 12b4 a3bc
000002a0: 14de dd3c 3ea0 0fbc fb6a 0a3d 5f56 48bd
000002b0: 9b38 043d e9b6 ea3c 8a78 983c 36b4 c8bc
000002c0: 13c0 aabc 6742 84bc 75a1 91bc d6a9 51bc
000002d0: e1d1 99bc c462 c13b e384 9fbc e2a5 a7bc
000002e0: 48b1 6bbc b662 3ebc 250f 513b f566 4a3c
000002f0: f4a5 46bd a8a8 b8bc 5cc2 303d 01d1 073d
00000300: 4d2e 74bc a016 0c3d 20cc 063d 472c 75bc
00000310: f93d 2dbd 1e25 453d d09a 1e3c 1f93 b13c
00000320: 21e0 4fbd 22cc d83c 9b55 1cbc 0d83 cebc
00000330: ef00 a5bc 9071 c13b bb88 b6bc 7080 e53c
00000340: a813 203d a195 cf3c 4a70 e4bb b583 96bc
00000350: 76e1 23bd e6be 1ebc 12f7 e2bc 2d6e 383c
00000360: e5a4 483d fb11 24bc 38e0 353d b867 203d
00000370: bffd 8b3c bc3d 2f3d d2f4 073c 3e62 d2bc
00000380: 5c15 40bc 23f1 0f3d 5d30 303d b7cf 16bd
00000390: ecf6 a53c 57ec 6dbd 870e 1f3b 8f89 923c
000003a0: e0a4 153d 0874 51bd 7a1e 913d 3a55 9bbc
000003b0: 3385 f53c 607d 88bc 447f 0d3c 20eb 033d
000003c0: 9280 d2bc 64a5 07ba 0ba6 aa3c 25cf 4b3d
000003d0: 2f9d c4bc 3b6e 7e3d c77b 3fbb 2fa2 5abc
000003e0: f236 31bc bd65 87bb bbbf e4bc 627d 293d
000003f0: 6999 033d 2c7c 453c 0935 b83c ef06 143c

network_body._body_endoder.seq_layers.2.weight f4 [256, 256]
0.17769162 -0.08704262 0.14460123 -0.024407074 -0.0032360079 -0.061898135 -0.09060081 0.093019
-0.13692783 -0.043457672 -0.012163945 0.0679978 0.063034095 -0.068109326 0.012484035 -0.054648545
0.07658608 0.017481461 -0.03195483 0.0010657525 -0.010400505 0.028855754 -0.059927363 0.07360981
4.5006615e-05 -0.08941945 0.07412215 -0.042838566 0.103991054 -0.09569856 -0.01816314 -0.052292146
-0.03032648 -0.08008382 -0.0026854796 0.0064725345 -0.009198685 0.061414085 -0.02035202 -0.11993267
0.06996064 -0.059886213 0.02277129 -0.10770761 -0.047351565 -0.05050067 0.030403918 -0.1365772
-0.020130979 0.105306156 -0.061328482 -0.049247902 0.009430118 -0.017320005 -0.23587278 -0.13238476
-0.02455144 -0.016361943 -0.09145107 -0.117183104 0.021419456 -0.03265271 -0.017934345 0.021355048
0.12224181 0.07478244 -0.06733005 -0.0758111 -0.07535514 -0.06988743 -0.0660824 -0.075064026
-0.014102944 -0.03193 0.067583375 -0.021060368 0.11620694 0.017465943 0.06786112 -0.022467332
0.017570471 0.029632341 0.016751537 -0.06038335 -0.036279764 -0.02537574 0.12787142 0.059400186
-0.053042483 -0.06121487 0.07761567 0.017064044 -0.0074804686 -0.07202554 -0.061043743 -0.023787228
-0.029290644 -0.050609194 -0.121087775 0.1338517 0.029671302 0.04835408 0.146068 0.015947066
0.09156417 0.050924048 0.0015868352 0.069673486 0.005658659 0.0674329 -0.064403966 0.07747278
-0.07920046 0.12932399 -0.0030719882 -0.10484457 0.026529847 0.038074747 0.15535133 0.03798247
-0.07405631 0.05452979 0.07527429 0.05405099 -0.08195928 0.10697087 0.046180535 0.045836706
-0.021249464 -0.16957773 0.008078668 0.022067 0.0025989127 -0.03565004 0.02616585 -0.030357828
0.06854099 -0.06025137 0.0011447287 -0.033582106 0.09842712 -0.094397105 0.020052085 0.06417677
-0.09354673 0.008190968 -0.044304926 0.073303245 -0.094431415 -0.03317681 -0.078194164 -0.0035354719
0.061751097 0.03945538 0.029993815 -0.05593144 -0.14922619 0.032912895 0.022465834 0.11557569
-0.0318143 -0.015967155 -0.073866576 -0.083586924 0.023041034 -0.21184845 0.049390554 -0.052600794
-0.09971536 -0.04126632 0.016653836 -0.01332239 -0.10119786 -0.03367242 0.0045803813 0.07825163
0.07632361 0.027256595 -0.082508355 0.04370677 -0.014027878 -0.02464409 0.034360312 0.054005165
-0.05937515 0.1552077 0.015325664 0.072728015 -0.04737472 0.0024871954 0.06577287 0.11835707
-0.010432071 -0.033792026 0.0021410405 0.046378147 0.05107226 0.019739669 0.0014829615 0.021521932
-0.1530519 0.054228403 -0.0644831 -0.026270423 -0.00883828 -0.056246966 0.040926665 0.05912174
-0.027077451 -0.12736623 0.033824876 0.0382232 -0.14396931 -0.041663982 0.017917566 6.1171515e-05
0.083542824 0.033048462 0.055779014 0.036622535 0.03778548 0.034732707 0.06673646 -0.05084551
0.06735032 0.031768713 0.10482559 0.007678828 0.052689392 -0.046279207 0.044274993 0.02699442
-0.010910213 -0.10239187 0.030711897 0.06276179 -0.03908475 -0.025966076 0.14641377 0.043913342
0.024075672 0.022744311 0.112153165 0.057013 0.10555474 0.0019466786 -0.07017782 0.09640596
0.057388913 0.10438197 0.018310487 0.12720224 -0.0043825316 -0.048016425 0.053257696 -0.053810004
00000000: cbf4 353e 6743 b2bd 5812 143e 58f1 c7bc
00000010: 3413 54bb e688 7dbd eb8c b9bd bf80 be3d
00000020: cf36 0cbe ac00 32bd 484b 47bc 6e42 8b3d
00000030: 0518 813d e77c 8bbd d789 4c3c 27d7 5fbd
00000040: 2ad9 9c3d 4835 8f3c 11e3 02bd b8b0 8b3a
00000050: e166 2abc e762 ec3c 6576 75bd bdc0 963d
00000060: 7cc5 3c38 8b21 b7bd 5bcd 973d 7e77 2fbd
00000070: 43f9 d43d 9bfd c3bd deca 94bc 4a30 56bd
00000080: 3d6f f8bc fc02 a4bd dffe 2fbb 8e17 d43b
00000090: 15b6 16bc 568d 7b3d 48b9 a6bc 429f f5bd
000000a0: 8647 8f3d 3f4b 75bd db8a ba3c cf95 dcbd
000000b0: b7f3 41bd cad9 4ebd a311 f93c e5da 0bbe
000000c0: b9e9 a4bc c1aa d73d 9333 7bbd 2bb8 49bd
000000d0: c880 1a3c afe2 8dbc a288 71be df8f 07be
000000e0: 1a20 c9bc 7b09 86bc b34a bbbd b2fd efbd
000000f0: db77 af3c d9be 05bd 0ceb 92bc c8f0 ae3c
00000100: ea59 fa3d 8927 993d 56e4 89bd da42 9bbd
00000110: cc53 9abd 2421 8fbd 3656 87bd 2bbb 99bd
00000120: 0910 67bc 08c9 02bd 2769 8a3d cb86 acbc
00000130: e7fd ed3d bd14 8f3c c5fa 8a3d 690d b8bc
00000140: f3ef 8f3c 86bf f23c 853a 893c 8854 77bd
00000150: 179a 14bd c9e0 cfbc baf0 023e 9c4d 733d
00000160: 1343 59bd 72bc 7abd f7f4 9e3d e5c9 8b3c
00000170: b81e f5bb 2082 93bd 0109 7abd 6fdd c2bc
00000180: eff2 efbc 964b 4fbd defc f7bd 6c10 093e
00000190: 3b11 f33c ee0e 463d da92 153e 6ca3 823c
000001a0: ff85 bb3d bc95 503d 5bfd cf3a f9b0 8e3d
000001b0: 466c b93b 431a 8a3d 3ae6 83bd 0daa 9e3d
000001c0: da33 a2bd 826d 043e 6953 49bb c0b8 d6bd
000001d0: 1f55 d93c 44f4 1b3d 6b14 1f3e 8293 1b3d
000001e0: d6aa 97bd a15a 5f3d 6829 9a3d 9264 5d3d
000001f0: 44da a7bd 8b13 db3d cd27 3d3d 45bf 3b3d
00000200: 5b13 aebc c9a5 2dbe 645c 043c dac5 b43c
00000210: 8552 2a3b c705 12bd c459 d63c fbb0 f8bc
00000220: 385f 8c3d 24ca 76bd b90a 963a 648d 09bd
00000230: 2894 c93d 4553 c1bd 4544 a43c 1c6f 833d
00000240: 6e95 bfbd 6933 063c 1579 35bd 0320 963d
00000250: 4265 c1bd 68e4 07bd 4324 a0bd 60b3 67bb
00000260: b8ee 7c3d f79b 213d 97b5 f53c 5e18 65bd
00000270: c0ce 18be accf 063d 450a b83c f3b2 ec3d
00000280: b64f 02bd 8dcd 82bc 5c47 97bd 9f2f abbd
00000290: 8dc0 bc3c cdee 58be c04d 4a3d ee73 57bd
000002a0: 9137 ccbd df06 29bd a06d 883c 2746 5abc
000002b0: d340 cfbd 17ec 09bd 0617 963b 6442 a03d
000002c0: 8e4f 9c3d 3949 df3c 24fa a8bd df05 333d
000002d0: 2fd5 65bc 67e2 c9bc 66bd 0c3d 8534 5d3d
000002e0: 5b33 73bd c4ee 1e3e 7e18 7b3c 6df2 943d
000002f0: ff0b 42bd 3700 233b edb3 863d 3165 f23d
00000300: 47eb 2abc 8269 0abd b350 0c3b 03f7 3d3d
00000310: 2531 513d 16b5 a13c ee5f c23a c34e b03c
00000320: a3b9 1cbe 9a1e 5e3d b70f 84bd 1235 d7bc
00000330: 6fce 10bc 3863 66bd b8a2 273d a329 723d
00000340: 88d1 ddbc 4b6c 02be f48b 0a3d ee8f 1c3d
00000350: b16c 13be daa7 2abd dcc7 923c 3549 8038
00000360: 8018 ab3d d35d 073d 8978 643d 8301 163d
00000370: f3c4 1a3d e243 0e3d 20ad 883d 6243 50bd
00000380: f7ee 893d e91f 023d cdae d63d ae9e fb3b
00000390: d5d0 573d 448f 3dbd b259 353d 6723 dd3c
000003a0: c0c0 32bc d4b2 d1bd 8497 fb3c 4189 803d
000003b0: 5517 20bd cfb6 d4bc 7eed 153e 7ade 333d
000003c0: 583a c53c 4752 ba3c 8fb0 e53d 7786 693d
000003d0: 152d d83d b227 ff3a 64b9 8fbd 7d70 c53d
000003e0: a310 6b3d 37c6 d53d e0ff 953c 4e41 023e
000003f0: 579b 8fbb dfac 44bd be24 5a3d e167 5cbd

network_body.observation_encoder.processors.0.normalizer.running_mean f4 [65]
0.020056192 0.33024174 0.021336893 0.6139156 0.8142399 0.019767348 0.3232481 0.021412006
0.6211022 0.81808287 0.019822905 0.3506292 0.021559412 0.59303045 0.7996468 0.01979778
0.32877773 0.022016678 0.614554 0.8124252 0.019208197 0.3636618 0.02226728 0.57958823
0.78826684 0.020142674 0.335196 0.022530762 0.60708916 0.8060746 0.018643847 0.3721507
0.022900825 0.5709542 0.78119534 0.019911995 0.34327197 0.022849586 0.5988244 0.79968727
0.01832284 0.3776175 0.023511194 0.5651284 0.77658564 0.019427218 0.35235092 0.022756727
0.59003407 0.7931051 0.018093344 0.37683764 0.023755094 0.5656726 0.7757258 0.018973691
0.35867172 0.022515524 0.5840461 0.7885437 0.017878572 0.3750153 0.023307147 0.568109
0.7772803
00000000: e24c a43c 7215 a93e b5ca ae3c 9329 1d3f
00000010: 0772 503f 22ef a13c c680 a53e 3b68 af3c
00000020: 8e00 1f3f e16d 513f a563 a23c ac85 b33e
00000030: 5d9d b03c d8d0 173f a7b5 4c3f f42e a23c
00000040: 8e55 a83e 525c b43c 6953 1d3f 19fb 4f3f
00000050: 825a 9d3c e131 ba3e df69 b63c e55f 143f
00000060: dbcb 493f 4002 a53c cf9e ab3e 6f92 b83c
00000070: 326a 1b3f e85a 4e3f fbba 983c 898a be3e
00000080: 839a bb3c 0e2a 123f 6bfc 473f 7b1e a33c
00000090: 58c1 af3e 0e2f bb3c 8e4c 193f 4eb8 4c3f
000000a0: c819 963c 1557 c13e 8c9a c03c 41ac 103f
000000b0: 51ce 463f d425 9f3c 5767 b43e 516c ba3c
000000c0: 790c 173f f008 4b3f 7e38 943c ddf0 c03e
000000d0: 0b9a c23c ebcf 103f f795 463f b76e 9b3c
000000e0: d2a3 b73e 7a72 b83c 0c84 153f 00de 493f
000000f0: 1576 923c 0102 c03e a1ee be3c 976f 113f
00000100: d7fb 463f

network_body.observation_encoder.processors.1.normalizer.running_mean f4 [5]
0.030738326 -0.010744261 51.86691 0.0 0.0
00000000: f1ce fb3c b208 30bc b777 4f42 0000 0000
00000010: 0000 0000
